{"format": "graph-model", "generatedBy": "2.17.0", "convertedBy": "TensorFlow.js Converter v4.21.0", "signature": {"outputs": {"Identity:0": {"name": "Identity:0"}}}, "modelTopology": {"node": [{"name": "ConstantFolding/model_13/tf.math.divide/truediv_recip", "op": "Const", "attr": {"dtype": {"type": "DT_FLOAT"}, "value": {"tensor": {"dtype": "DT_FLOAT", "tensorShape": {"dim": [{"size": "1"}, {"size": "1"}, {"size": "1"}]}}}}}, {"name": "model_13/16269", "op": "Const", "attr": {"value": {"tensor": {"dtype": "DT_FLOAT", "tensorShape": {"dim": [{"size": "1"}, {"size": "2"}, {"size": "8400"}]}}}, "dtype": {"type": "DT_FLOAT"}}}, {"name": "model_13/tf.strided_slice_19/ones_like/tensor", "op": "Const", "attr": {"value": {"tensor": {"dtype": "DT_INT64", "tensorShape": {"dim": [{"size": "3"}]}}}, "dtype": {"type": "DT_INT64"}}}, {"name": "model_13/tf.strided_slice_19/StridedSlice/end", "op": "Const", "attr": {"value": {"tensor": {"dtype": "DT_INT64", "tensorShape": {"dim": [{"size": "3"}]}}}, "dtype": {"type": "DT_INT64"}}}, {"name": "model_13/tf.strided_slice_19/ones_like", "op": "Const", "attr": {"dtype": {"type": "DT_INT64"}, "value": {"tensor": {"dtype": "DT_INT64", "tensorShape": {"dim": [{"size": "3"}]}}}}}, {"name": "model_13/16272", "op": "Const", "attr": {"dtype": {"type": "DT_FLOAT"}, "value": {"tensor": {"dtype": "DT_FLOAT", "tensorShape": {"dim": [{"size": "1"}, {"size": "2"}, {"size": "8400"}]}}}}}, {"name": "model_13/tf.strided_slice_16/StridedSlice/begin", "op": "Const", "attr": {"value": {"tensor": {"dtype": "DT_INT64", "tensorShape": {"dim": [{"size": "3"}]}}}, "dtype": {"type": "DT_INT64"}}}, {"name": "model_13/tf.strided_slice_16/StridedSlice/end", "op": "Const", "attr": {"dtype": {"type": "DT_INT64"}, "value": {"tensor": {"dtype": "DT_INT64", "tensorShape": {"dim": [{"size": "3"}]}}}}}, {"name": "model_13/tf.strided_slice_16/StridedSlice/strides", "op": "Const", "attr": {"dtype": {"type": "DT_INT64"}, "value": {"tensor": {"dtype": "DT_INT64", "tensorShape": {"dim": [{"size": "3"}]}}}}}, {"name": "model_13/tf.reshape_11/Reshape/shape", "op": "Const", "attr": {"value": {"tensor": {"dtype": "DT_INT32", "tensorShape": {"dim": [{"size": "4"}]}}}, "dtype": {"type": "DT_INT32"}}}, {"name": "model_13/tf.compat.v1.transpose_19/transpose/perm", "op": "Const", "attr": {"value": {"tensor": {"dtype": "DT_INT32", "tensorShape": {"dim": [{"size": "4"}]}}}, "dtype": {"type": "DT_INT32"}}}, {"name": "model_13/tf.compat.v1.transpose_20/transpose/perm", "op": "Const", "attr": {"value": {"tensor": {"dtype": "DT_INT32", "tensorShape": {"dim": [{"size": "4"}]}}}, "dtype": {"type": "DT_INT32"}}}, {"name": "model_13/tf.nn.convolution_83/convolution/filter", "op": "Const", "attr": {"value": {"tensor": {"dtype": "DT_FLOAT", "tensorShape": {"dim": [{"size": "1"}, {"size": "1"}, {"size": "16"}, {"size": "1"}]}}}, "dtype": {"type": "DT_FLOAT"}}}, {"name": "model_13/tf.compat.v1.transpose_25/transpose/perm", "op": "Const", "attr": {"dtype": {"type": "DT_INT32"}, "value": {"tensor": {"dtype": "DT_INT32", "tensorShape": {"dim": [{"size": "4"}]}}}}}, {"name": "model_13/tf.reshape_14/Reshape/shape", "op": "Const", "attr": {"dtype": {"type": "DT_INT32"}, "value": {"tensor": {"dtype": "DT_INT32", "tensorShape": {"dim": [{"size": "3"}]}}}}}, {"name": "model_13/tf.strided_slice_18/ones_like/tensor", "op": "Const", "attr": {"value": {"tensor": {"dtype": "DT_INT64", "tensorShape": {"dim": [{"size": "3"}]}}}, "dtype": {"type": "DT_INT64"}}}, {"name": "model_13/tf.strided_slice_18/StridedSlice/end", "op": "Const", "attr": {"dtype": {"type": "DT_INT64"}, "value": {"tensor": {"dtype": "DT_INT64", "tensorShape": {"dim": [{"size": "3"}]}}}}}, {"name": "model_13/tf.strided_slice_18/ones_like", "op": "Const", "attr": {"dtype": {"type": "DT_INT64"}, "value": {"tensor": {"dtype": "DT_INT64", "tensorShape": {"dim": [{"size": "3"}]}}}}}, {"name": "model_13/tf.concat_20/concat/axis", "op": "Const", "attr": {"value": {"tensor": {"dtype": "DT_INT32", "tensorShape": {}}}, "dtype": {"type": "DT_INT32"}}}, {"name": "model_13/tf.math.multiply_368/Mul/y", "op": "Const", "attr": {"value": {"tensor": {"dtype": "DT_FLOAT", "tensorShape": {"dim": [{"size": "1"}, {"size": "1"}, {"size": "8400"}]}}}, "dtype": {"type": "DT_FLOAT"}}}, {"name": "model_13/tf.nn.convolution_52/convolution/filter", "op": "Const", "attr": {"value": {"tensor": {"dtype": "DT_FLOAT", "tensorShape": {"dim": [{"size": "3"}, {"size": "3"}, {"size": "192"}, {"size": "64"}]}}}, "dtype": {"type": "DT_FLOAT"}}}, {"name": "model_13/tf.math.add_76/Add/y", "op": "Const", "attr": {"value": {"tensor": {"dtype": "DT_FLOAT", "tensorShape": {"dim": [{"size": "64"}]}}}, "dtype": {"type": "DT_FLOAT"}}}, {"name": "model_13/tf.nn.convolution_53/convolution/filter", "op": "Const", "attr": {"value": {"tensor": {"dtype": "DT_FLOAT", "tensorShape": {"dim": [{"size": "3"}, {"size": "3"}, {"size": "64"}, {"size": "64"}]}}}, "dtype": {"type": "DT_FLOAT"}}}, {"name": "model_13/tf.math.add_78/Add/y", "op": "Const", "attr": {"value": {"tensor": {"dtype": "DT_FLOAT", "tensorShape": {"dim": [{"size": "64"}]}}}, "dtype": {"type": "DT_FLOAT"}}}, {"name": "model_13/tf.nn.convolution_56/convolution/filter", "op": "Const", "attr": {"dtype": {"type": "DT_FLOAT"}, "value": {"tensor": {"dtype": "DT_FLOAT", "tensorShape": {"dim": [{"size": "1"}, {"size": "1"}, {"size": "64"}, {"size": "64"}]}}}}}, {"name": "model_13/tf.math.add_81/Add/y", "op": "Const", "attr": {"value": {"tensor": {"dtype": "DT_FLOAT", "tensorShape": {"dim": [{"size": "64"}]}}}, "dtype": {"type": "DT_FLOAT"}}}, {"name": "model_13/tf.compat.v1.nn.depthwise_conv2d/depthwise/filter_in", "op": "Const", "attr": {"value": {"tensor": {"dtype": "DT_FLOAT", "tensorShape": {"dim": [{"size": "3"}, {"size": "3"}, {"size": "192"}, {"size": "1"}]}}}, "dtype": {"type": "DT_FLOAT"}}}, {"name": "model_13/tf.math.add_77/Add/y", "op": "Const", "attr": {"dtype": {"type": "DT_FLOAT"}, "value": {"tensor": {"dtype": "DT_FLOAT", "tensorShape": {"dim": [{"size": "192"}]}}}}}, {"name": "model_13/tf.nn.convolution_54/convolution/filter", "op": "Const", "attr": {"dtype": {"type": "DT_FLOAT"}, "value": {"tensor": {"dtype": "DT_FLOAT", "tensorShape": {"dim": [{"size": "1"}, {"size": "1"}, {"size": "192"}, {"size": "192"}]}}}}}, {"name": "model_13/tf.math.add_79/Add/y", "op": "Const", "attr": {"value": {"tensor": {"dtype": "DT_FLOAT", "tensorShape": {"dim": [{"size": "192"}]}}}, "dtype": {"type": "DT_FLOAT"}}}, {"name": "model_13/tf.compat.v1.nn.depthwise_conv2d_1/depthwise/filter_in", "op": "Const", "attr": {"value": {"tensor": {"dtype": "DT_FLOAT", "tensorShape": {"dim": [{"size": "3"}, {"size": "3"}, {"size": "192"}, {"size": "1"}]}}}, "dtype": {"type": "DT_FLOAT"}}}, {"name": "model_13/tf.math.add_82/Add/y", "op": "Const", "attr": {"value": {"tensor": {"dtype": "DT_FLOAT", "tensorShape": {"dim": [{"size": "192"}]}}}, "dtype": {"type": "DT_FLOAT"}}}, {"name": "model_13/tf.nn.convolution_58/convolution/filter", "op": "Const", "attr": {"dtype": {"type": "DT_FLOAT"}, "value": {"tensor": {"dtype": "DT_FLOAT", "tensorShape": {"dim": [{"size": "1"}, {"size": "1"}, {"size": "192"}, {"size": "192"}]}}}}}, {"name": "model_13/tf.math.add_84/Add/y", "op": "Const", "attr": {"value": {"tensor": {"dtype": "DT_FLOAT", "tensorShape": {"dim": [{"size": "192"}]}}}, "dtype": {"type": "DT_FLOAT"}}}, {"name": "model_13/tf.nn.convolution_60/convolution/filter", "op": "Const", "attr": {"value": {"tensor": {"dtype": "DT_FLOAT", "tensorShape": {"dim": [{"size": "1"}, {"size": "1"}, {"size": "192"}, {"size": "63"}]}}}, "dtype": {"type": "DT_FLOAT"}}}, {"name": "model_13/tf.math.add_86/Add/y", "op": "Const", "attr": {"dtype": {"type": "DT_FLOAT"}, "value": {"tensor": {"dtype": "DT_FLOAT", "tensorShape": {"dim": [{"size": "63"}]}}}}}, {"name": "model_13/tf.concat_10/concat/axis", "op": "Const", "attr": {"value": {"tensor": {"dtype": "DT_INT32", "tensorShape": {}}}, "dtype": {"type": "DT_INT32"}}}, {"name": "model_13/tf.compat.v1.transpose_2/transpose/perm", "op": "Const", "attr": {"dtype": {"type": "DT_INT32"}, "value": {"tensor": {"dtype": "DT_INT32", "tensorShape": {"dim": [{"size": "4"}]}}}}}, {"name": "model_13/tf.reshape_2/Reshape/shape", "op": "Const", "attr": {"value": {"tensor": {"dtype": "DT_INT32", "tensorShape": {"dim": [{"size": "3"}]}}}, "dtype": {"type": "DT_INT32"}}}, {"name": "model_13/tf.nn.convolution_65/convolution/filter", "op": "Const", "attr": {"dtype": {"type": "DT_FLOAT"}, "value": {"tensor": {"dtype": "DT_FLOAT", "tensorShape": {"dim": [{"size": "3"}, {"size": "3"}, {"size": "384"}, {"size": "64"}]}}}}}, {"name": "model_13/tf.math.add_91/Add/y", "op": "Const", "attr": {"value": {"tensor": {"dtype": "DT_FLOAT", "tensorShape": {"dim": [{"size": "64"}]}}}, "dtype": {"type": "DT_FLOAT"}}}, {"name": "model_13/tf.nn.convolution_66/convolution/filter", "op": "Const", "attr": {"dtype": {"type": "DT_FLOAT"}, "value": {"tensor": {"dtype": "DT_FLOAT", "tensorShape": {"dim": [{"size": "3"}, {"size": "3"}, {"size": "64"}, {"size": "64"}]}}}}}, {"name": "model_13/tf.math.add_93/Add/y", "op": "Const", "attr": {"dtype": {"type": "DT_FLOAT"}, "value": {"tensor": {"dtype": "DT_FLOAT", "tensorShape": {"dim": [{"size": "64"}]}}}}}, {"name": "model_13/tf.nn.convolution_69/convolution/filter", "op": "Const", "attr": {"value": {"tensor": {"dtype": "DT_FLOAT", "tensorShape": {"dim": [{"size": "1"}, {"size": "1"}, {"size": "64"}, {"size": "64"}]}}}, "dtype": {"type": "DT_FLOAT"}}}, {"name": "model_13/tf.math.add_96/Add/y", "op": "Const", "attr": {"value": {"tensor": {"dtype": "DT_FLOAT", "tensorShape": {"dim": [{"size": "64"}]}}}, "dtype": {"type": "DT_FLOAT"}}}, {"name": "model_13/tf.compat.v1.nn.depthwise_conv2d_2/depthwise/filter_in", "op": "Const", "attr": {"dtype": {"type": "DT_FLOAT"}, "value": {"tensor": {"dtype": "DT_FLOAT", "tensorShape": {"dim": [{"size": "3"}, {"size": "3"}, {"size": "384"}, {"size": "1"}]}}}}}, {"name": "model_13/tf.math.add_92/Add/y", "op": "Const", "attr": {"dtype": {"type": "DT_FLOAT"}, "value": {"tensor": {"dtype": "DT_FLOAT", "tensorShape": {"dim": [{"size": "384"}]}}}}}, {"name": "model_13/tf.nn.convolution_67/convolution/filter", "op": "Const", "attr": {"value": {"tensor": {"dtype": "DT_FLOAT", "tensorShape": {"dim": [{"size": "1"}, {"size": "1"}, {"size": "384"}, {"size": "192"}]}}}, "dtype": {"type": "DT_FLOAT"}}}, {"name": "model_13/tf.math.add_94/Add/y", "op": "Const", "attr": {"dtype": {"type": "DT_FLOAT"}, "value": {"tensor": {"dtype": "DT_FLOAT", "tensorShape": {"dim": [{"size": "192"}]}}}}}, {"name": "model_13/tf.compat.v1.nn.depthwise_conv2d_3/depthwise/filter_in", "op": "Const", "attr": {"value": {"tensor": {"dtype": "DT_FLOAT", "tensorShape": {"dim": [{"size": "3"}, {"size": "3"}, {"size": "192"}, {"size": "1"}]}}}, "dtype": {"type": "DT_FLOAT"}}}, {"name": "model_13/tf.math.add_97/Add/y", "op": "Const", "attr": {"dtype": {"type": "DT_FLOAT"}, "value": {"tensor": {"dtype": "DT_FLOAT", "tensorShape": {"dim": [{"size": "192"}]}}}}}, {"name": "model_13/tf.nn.convolution_71/convolution/filter", "op": "Const", "attr": {"dtype": {"type": "DT_FLOAT"}, "value": {"tensor": {"dtype": "DT_FLOAT", "tensorShape": {"dim": [{"size": "1"}, {"size": "1"}, {"size": "192"}, {"size": "192"}]}}}}}, {"name": "model_13/tf.math.add_99/Add/y", "op": "Const", "attr": {"value": {"tensor": {"dtype": "DT_FLOAT", "tensorShape": {"dim": [{"size": "192"}]}}}, "dtype": {"type": "DT_FLOAT"}}}, {"name": "model_13/tf.nn.convolution_73/convolution/filter", "op": "Const", "attr": {"dtype": {"type": "DT_FLOAT"}, "value": {"tensor": {"dtype": "DT_FLOAT", "tensorShape": {"dim": [{"size": "1"}, {"size": "1"}, {"size": "192"}, {"size": "63"}]}}}}}, {"name": "model_13/tf.math.add_101/Add/y", "op": "Const", "attr": {"value": {"tensor": {"dtype": "DT_FLOAT", "tensorShape": {"dim": [{"size": "63"}]}}}, "dtype": {"type": "DT_FLOAT"}}}, {"name": "model_13/tf.concat_13/concat/axis", "op": "Const", "attr": {"value": {"tensor": {"dtype": "DT_INT32", "tensorShape": {}}}, "dtype": {"type": "DT_INT32"}}}, {"name": "model_13/tf.compat.v1.transpose_7/transpose/perm", "op": "Const", "attr": {"value": {"tensor": {"dtype": "DT_INT32", "tensorShape": {"dim": [{"size": "4"}]}}}, "dtype": {"type": "DT_INT32"}}}, {"name": "model_13/tf.reshape_5/Reshape/shape", "op": "Const", "attr": {"dtype": {"type": "DT_INT32"}, "value": {"tensor": {"dtype": "DT_INT32", "tensorShape": {"dim": [{"size": "3"}]}}}}}, {"name": "model_13/tf.nn.convolution_77/convolution/filter", "op": "Const", "attr": {"value": {"tensor": {"dtype": "DT_FLOAT", "tensorShape": {"dim": [{"size": "3"}, {"size": "3"}, {"size": "576"}, {"size": "64"}]}}}, "dtype": {"type": "DT_FLOAT"}}}, {"name": "model_13/tf.math.add_105/Add/y", "op": "Const", "attr": {"value": {"tensor": {"dtype": "DT_FLOAT", "tensorShape": {"dim": [{"size": "64"}]}}}, "dtype": {"type": "DT_FLOAT"}}}, {"name": "model_13/tf.nn.convolution_78/convolution/filter", "op": "Const", "attr": {"dtype": {"type": "DT_FLOAT"}, "value": {"tensor": {"dtype": "DT_FLOAT", "tensorShape": {"dim": [{"size": "3"}, {"size": "3"}, {"size": "64"}, {"size": "64"}]}}}}}, {"name": "model_13/tf.math.add_107/Add/y", "op": "Const", "attr": {"value": {"tensor": {"dtype": "DT_FLOAT", "tensorShape": {"dim": [{"size": "64"}]}}}, "dtype": {"type": "DT_FLOAT"}}}, {"name": "model_13/tf.nn.convolution_80/convolution/filter", "op": "Const", "attr": {"dtype": {"type": "DT_FLOAT"}, "value": {"tensor": {"dtype": "DT_FLOAT", "tensorShape": {"dim": [{"size": "1"}, {"size": "1"}, {"size": "64"}, {"size": "64"}]}}}}}, {"name": "model_13/tf.math.add_109/Add/y", "op": "Const", "attr": {"dtype": {"type": "DT_FLOAT"}, "value": {"tensor": {"dtype": "DT_FLOAT", "tensorShape": {"dim": [{"size": "64"}]}}}}}, {"name": "model_13/tf.strided_slice_14/ones_like/tensor", "op": "Const", "attr": {"dtype": {"type": "DT_INT64"}, "value": {"tensor": {"dtype": "DT_INT64", "tensorShape": {"dim": [{"size": "4"}]}}}}}, {"name": "model_13/tf.strided_slice_14/StridedSlice/end", "op": "Const", "attr": {"dtype": {"type": "DT_INT64"}, "value": {"tensor": {"dtype": "DT_INT64", "tensorShape": {"dim": [{"size": "4"}]}}}}}, {"name": "model_13/tf.strided_slice_14/ones_like", "op": "Const", "attr": {"dtype": {"type": "DT_INT64"}, "value": {"tensor": {"dtype": "DT_INT64", "tensorShape": {"dim": [{"size": "4"}]}}}}}, {"name": "model_13/tf.strided_slice_12/ones_like/tensor", "op": "Const", "attr": {"dtype": {"type": "DT_INT64"}, "value": {"tensor": {"dtype": "DT_INT64", "tensorShape": {"dim": [{"size": "4"}]}}}}}, {"name": "model_13/tf.strided_slice_12/StridedSlice/end", "op": "Const", "attr": {"dtype": {"type": "DT_INT64"}, "value": {"tensor": {"dtype": "DT_INT64", "tensorShape": {"dim": [{"size": "4"}]}}}}}, {"name": "model_13/tf.strided_slice_12/ones_like", "op": "Const", "attr": {"value": {"tensor": {"dtype": "DT_INT64", "tensorShape": {"dim": [{"size": "4"}]}}}, "dtype": {"type": "DT_INT64"}}}, {"name": "model_13/tf.strided_slice_10/ones_like/tensor", "op": "Const", "attr": {"dtype": {"type": "DT_INT64"}, "value": {"tensor": {"dtype": "DT_INT64", "tensorShape": {"dim": [{"size": "4"}]}}}}}, {"name": "model_13/tf.strided_slice_10/StridedSlice/end", "op": "Const", "attr": {"dtype": {"type": "DT_INT64"}, "value": {"tensor": {"dtype": "DT_INT64", "tensorShape": {"dim": [{"size": "4"}]}}}}}, {"name": "model_13/tf.strided_slice_10/ones_like", "op": "Const", "attr": {"value": {"tensor": {"dtype": "DT_INT64", "tensorShape": {"dim": [{"size": "4"}]}}}, "dtype": {"type": "DT_INT64"}}}, {"name": "model_13/tf.image.resize_1/resize/size", "op": "Const", "attr": {"dtype": {"type": "DT_INT32"}, "value": {"tensor": {"dtype": "DT_INT32", "tensorShape": {"dim": [{"size": "2"}]}}}}}, {"name": "model_13/tf.concat_7/concat/axis", "op": "Const", "attr": {"value": {"tensor": {"dtype": "DT_INT32", "tensorShape": {}}}, "dtype": {"type": "DT_INT32"}}}, {"name": "model_13/tf.nn.convolution_45/convolution/filter", "op": "Const", "attr": {"dtype": {"type": "DT_FLOAT"}, "value": {"tensor": {"dtype": "DT_FLOAT", "tensorShape": {"dim": [{"size": "1"}, {"size": "1"}, {"size": "576"}, {"size": "192"}]}}}}}, {"name": "model_13/tf.math.add_69/Add/y", "op": "Const", "attr": {"value": {"tensor": {"dtype": "DT_FLOAT", "tensorShape": {"dim": [{"size": "192"}]}}}, "dtype": {"type": "DT_FLOAT"}}}, {"name": "model_13/tf.strided_slice_11/ones_like/tensor", "op": "Const", "attr": {"value": {"tensor": {"dtype": "DT_INT64", "tensorShape": {"dim": [{"size": "4"}]}}}, "dtype": {"type": "DT_INT64"}}}, {"name": "model_13/tf.strided_slice_11/StridedSlice/end", "op": "Const", "attr": {"value": {"tensor": {"dtype": "DT_INT64", "tensorShape": {"dim": [{"size": "4"}]}}}, "dtype": {"type": "DT_INT64"}}}, {"name": "model_13/tf.strided_slice_11/ones_like", "op": "Const", "attr": {"dtype": {"type": "DT_INT64"}, "value": {"tensor": {"dtype": "DT_INT64", "tensorShape": {"dim": [{"size": "4"}]}}}}}, {"name": "model_13/tf.nn.convolution_46/convolution/filter", "op": "Const", "attr": {"dtype": {"type": "DT_FLOAT"}, "value": {"tensor": {"dtype": "DT_FLOAT", "tensorShape": {"dim": [{"size": "3"}, {"size": "3"}, {"size": "96"}, {"size": "96"}]}}}}}, {"name": "model_13/tf.math.add_70/Add/y", "op": "Const", "attr": {"value": {"tensor": {"dtype": "DT_FLOAT", "tensorShape": {"dim": [{"size": "96"}]}}}, "dtype": {"type": "DT_FLOAT"}}}, {"name": "model_13/tf.nn.convolution_47/convolution/filter", "op": "Const", "attr": {"dtype": {"type": "DT_FLOAT"}, "value": {"tensor": {"dtype": "DT_FLOAT", "tensorShape": {"dim": [{"size": "3"}, {"size": "3"}, {"size": "96"}, {"size": "96"}]}}}}}, {"name": "model_13/tf.math.add_71/Add/y", "op": "Const", "attr": {"dtype": {"type": "DT_FLOAT"}, "value": {"tensor": {"dtype": "DT_FLOAT", "tensorShape": {"dim": [{"size": "96"}]}}}}}, {"name": "model_13/tf.nn.convolution_48/convolution/filter", "op": "Const", "attr": {"value": {"tensor": {"dtype": "DT_FLOAT", "tensorShape": {"dim": [{"size": "3"}, {"size": "3"}, {"size": "96"}, {"size": "96"}]}}}, "dtype": {"type": "DT_FLOAT"}}}, {"name": "model_13/tf.math.add_72/Add/y", "op": "Const", "attr": {"dtype": {"type": "DT_FLOAT"}, "value": {"tensor": {"dtype": "DT_FLOAT", "tensorShape": {"dim": [{"size": "96"}]}}}}}, {"name": "model_13/tf.nn.convolution_49/convolution/filter", "op": "Const", "attr": {"value": {"tensor": {"dtype": "DT_FLOAT", "tensorShape": {"dim": [{"size": "3"}, {"size": "3"}, {"size": "96"}, {"size": "96"}]}}}, "dtype": {"type": "DT_FLOAT"}}}, {"name": "model_13/tf.math.add_73/Add/y", "op": "Const", "attr": {"dtype": {"type": "DT_FLOAT"}, "value": {"tensor": {"dtype": "DT_FLOAT", "tensorShape": {"dim": [{"size": "96"}]}}}}}, {"name": "model_13/tf.concat_8/concat/axis", "op": "Const", "attr": {"value": {"tensor": {"dtype": "DT_INT32", "tensorShape": {}}}, "dtype": {"type": "DT_INT32"}}}, {"name": "model_13/tf.nn.convolution_50/convolution/filter", "op": "Const", "attr": {"value": {"tensor": {"dtype": "DT_FLOAT", "tensorShape": {"dim": [{"size": "1"}, {"size": "1"}, {"size": "384"}, {"size": "192"}]}}}, "dtype": {"type": "DT_FLOAT"}}}, {"name": "model_13/tf.math.add_74/Add/y", "op": "Const", "attr": {"dtype": {"type": "DT_FLOAT"}, "value": {"tensor": {"dtype": "DT_FLOAT", "tensorShape": {"dim": [{"size": "192"}]}}}}}, {"name": "model_13/tf.compat.v1.pad_5/Pad/paddings", "op": "Const", "attr": {"dtype": {"type": "DT_INT32"}, "value": {"tensor": {"dtype": "DT_INT32", "tensorShape": {"dim": [{"size": "4"}, {"size": "2"}]}}}}}, {"name": "model_13/tf.nn.convolution_51/convolution/filter", "op": "Const", "attr": {"value": {"tensor": {"dtype": "DT_FLOAT", "tensorShape": {"dim": [{"size": "3"}, {"size": "3"}, {"size": "192"}, {"size": "192"}]}}}, "dtype": {"type": "DT_FLOAT"}}}, {"name": "model_13/tf.math.add_75/Add/y", "op": "Const", "attr": {"value": {"tensor": {"dtype": "DT_FLOAT", "tensorShape": {"dim": [{"size": "192"}]}}}, "dtype": {"type": "DT_FLOAT"}}}, {"name": "model_13/tf.strided_slice_8/ones_like/tensor", "op": "Const", "attr": {"dtype": {"type": "DT_INT64"}, "value": {"tensor": {"dtype": "DT_INT64", "tensorShape": {"dim": [{"size": "4"}]}}}}}, {"name": "model_13/tf.strided_slice_8/StridedSlice/end", "op": "Const", "attr": {"value": {"tensor": {"dtype": "DT_INT64", "tensorShape": {"dim": [{"size": "4"}]}}}, "dtype": {"type": "DT_INT64"}}}, {"name": "model_13/tf.strided_slice_8/ones_like", "op": "Const", "attr": {"dtype": {"type": "DT_INT64"}, "value": {"tensor": {"dtype": "DT_INT64", "tensorShape": {"dim": [{"size": "4"}]}}}}}, {"name": "model_13/tf.image.resize/resize/size", "op": "Const", "attr": {"value": {"tensor": {"dtype": "DT_INT32", "tensorShape": {"dim": [{"size": "2"}]}}}, "dtype": {"type": "DT_INT32"}}}, {"name": "model_13/tf.concat_5/concat/axis", "op": "Const", "attr": {"dtype": {"type": "DT_INT32"}, "value": {"tensor": {"dtype": "DT_INT32", "tensorShape": {}}}}}, {"name": "model_13/tf.nn.convolution_39/convolution/filter", "op": "Const", "attr": {"dtype": {"type": "DT_FLOAT"}, "value": {"tensor": {"dtype": "DT_FLOAT", "tensorShape": {"dim": [{"size": "1"}, {"size": "1"}, {"size": "960"}, {"size": "384"}]}}}}}, {"name": "model_13/tf.math.add_63/Add/y", "op": "Const", "attr": {"dtype": {"type": "DT_FLOAT"}, "value": {"tensor": {"dtype": "DT_FLOAT", "tensorShape": {"dim": [{"size": "384"}]}}}}}, {"name": "model_13/tf.strided_slice_9/ones_like/tensor", "op": "Const", "attr": {"value": {"tensor": {"dtype": "DT_INT64", "tensorShape": {"dim": [{"size": "4"}]}}}, "dtype": {"type": "DT_INT64"}}}, {"name": "model_13/tf.strided_slice_9/StridedSlice/end", "op": "Const", "attr": {"value": {"tensor": {"dtype": "DT_INT64", "tensorShape": {"dim": [{"size": "4"}]}}}, "dtype": {"type": "DT_INT64"}}}, {"name": "model_13/tf.strided_slice_9/ones_like", "op": "Const", "attr": {"value": {"tensor": {"dtype": "DT_INT64", "tensorShape": {"dim": [{"size": "4"}]}}}, "dtype": {"type": "DT_INT64"}}}, {"name": "model_13/tf.nn.convolution_40/convolution/filter", "op": "Const", "attr": {"value": {"tensor": {"dtype": "DT_FLOAT", "tensorShape": {"dim": [{"size": "3"}, {"size": "3"}, {"size": "192"}, {"size": "192"}]}}}, "dtype": {"type": "DT_FLOAT"}}}, {"name": "model_13/tf.math.add_64/Add/y", "op": "Const", "attr": {"dtype": {"type": "DT_FLOAT"}, "value": {"tensor": {"dtype": "DT_FLOAT", "tensorShape": {"dim": [{"size": "192"}]}}}}}, {"name": "model_13/tf.nn.convolution_41/convolution/filter", "op": "Const", "attr": {"value": {"tensor": {"dtype": "DT_FLOAT", "tensorShape": {"dim": [{"size": "3"}, {"size": "3"}, {"size": "192"}, {"size": "192"}]}}}, "dtype": {"type": "DT_FLOAT"}}}, {"name": "model_13/tf.math.add_65/Add/y", "op": "Const", "attr": {"value": {"tensor": {"dtype": "DT_FLOAT", "tensorShape": {"dim": [{"size": "192"}]}}}, "dtype": {"type": "DT_FLOAT"}}}, {"name": "model_13/tf.nn.convolution_42/convolution/filter", "op": "Const", "attr": {"value": {"tensor": {"dtype": "DT_FLOAT", "tensorShape": {"dim": [{"size": "3"}, {"size": "3"}, {"size": "192"}, {"size": "192"}]}}}, "dtype": {"type": "DT_FLOAT"}}}, {"name": "model_13/tf.math.add_66/Add/y", "op": "Const", "attr": {"value": {"tensor": {"dtype": "DT_FLOAT", "tensorShape": {"dim": [{"size": "192"}]}}}, "dtype": {"type": "DT_FLOAT"}}}, {"name": "model_13/tf.nn.convolution_43/convolution/filter", "op": "Const", "attr": {"value": {"tensor": {"dtype": "DT_FLOAT", "tensorShape": {"dim": [{"size": "3"}, {"size": "3"}, {"size": "192"}, {"size": "192"}]}}}, "dtype": {"type": "DT_FLOAT"}}}, {"name": "model_13/tf.math.add_67/Add/y", "op": "Const", "attr": {"dtype": {"type": "DT_FLOAT"}, "value": {"tensor": {"dtype": "DT_FLOAT", "tensorShape": {"dim": [{"size": "192"}]}}}}}, {"name": "model_13/tf.concat_6/concat/axis", "op": "Const", "attr": {"value": {"tensor": {"dtype": "DT_INT32", "tensorShape": {}}}, "dtype": {"type": "DT_INT32"}}}, {"name": "model_13/tf.nn.convolution_44/convolution/filter", "op": "Const", "attr": {"value": {"tensor": {"dtype": "DT_FLOAT", "tensorShape": {"dim": [{"size": "1"}, {"size": "1"}, {"size": "768"}, {"size": "384"}]}}}, "dtype": {"type": "DT_FLOAT"}}}, {"name": "model_13/tf.math.add_68/Add/y", "op": "Const", "attr": {"dtype": {"type": "DT_FLOAT"}, "value": {"tensor": {"dtype": "DT_FLOAT", "tensorShape": {"dim": [{"size": "384"}]}}}}}, {"name": "model_13/tf.concat_9/concat/axis", "op": "Const", "attr": {"dtype": {"type": "DT_INT32"}, "value": {"tensor": {"dtype": "DT_INT32", "tensorShape": {}}}}}, {"name": "model_13/tf.nn.convolution_55/convolution/filter", "op": "Const", "attr": {"value": {"tensor": {"dtype": "DT_FLOAT", "tensorShape": {"dim": [{"size": "1"}, {"size": "1"}, {"size": "576"}, {"size": "384"}]}}}, "dtype": {"type": "DT_FLOAT"}}}, {"name": "model_13/tf.math.add_80/Add/y", "op": "Const", "attr": {"value": {"tensor": {"dtype": "DT_FLOAT", "tensorShape": {"dim": [{"size": "384"}]}}}, "dtype": {"type": "DT_FLOAT"}}}, {"name": "model_13/tf.strided_slice_13/ones_like/tensor", "op": "Const", "attr": {"value": {"tensor": {"dtype": "DT_INT64", "tensorShape": {"dim": [{"size": "4"}]}}}, "dtype": {"type": "DT_INT64"}}}, {"name": "model_13/tf.strided_slice_13/StridedSlice/end", "op": "Const", "attr": {"value": {"tensor": {"dtype": "DT_INT64", "tensorShape": {"dim": [{"size": "4"}]}}}, "dtype": {"type": "DT_INT64"}}}, {"name": "model_13/tf.strided_slice_13/ones_like", "op": "Const", "attr": {"value": {"tensor": {"dtype": "DT_INT64", "tensorShape": {"dim": [{"size": "4"}]}}}, "dtype": {"type": "DT_INT64"}}}, {"name": "model_13/tf.nn.convolution_57/convolution/filter", "op": "Const", "attr": {"dtype": {"type": "DT_FLOAT"}, "value": {"tensor": {"dtype": "DT_FLOAT", "tensorShape": {"dim": [{"size": "3"}, {"size": "3"}, {"size": "192"}, {"size": "192"}]}}}}}, {"name": "model_13/tf.math.add_83/Add/y", "op": "Const", "attr": {"value": {"tensor": {"dtype": "DT_FLOAT", "tensorShape": {"dim": [{"size": "192"}]}}}, "dtype": {"type": "DT_FLOAT"}}}, {"name": "model_13/tf.nn.convolution_59/convolution/filter", "op": "Const", "attr": {"value": {"tensor": {"dtype": "DT_FLOAT", "tensorShape": {"dim": [{"size": "3"}, {"size": "3"}, {"size": "192"}, {"size": "192"}]}}}, "dtype": {"type": "DT_FLOAT"}}}, {"name": "model_13/tf.math.add_85/Add/y", "op": "Const", "attr": {"dtype": {"type": "DT_FLOAT"}, "value": {"tensor": {"dtype": "DT_FLOAT", "tensorShape": {"dim": [{"size": "192"}]}}}}}, {"name": "model_13/tf.nn.convolution_61/convolution/filter", "op": "Const", "attr": {"dtype": {"type": "DT_FLOAT"}, "value": {"tensor": {"dtype": "DT_FLOAT", "tensorShape": {"dim": [{"size": "3"}, {"size": "3"}, {"size": "192"}, {"size": "192"}]}}}}}, {"name": "model_13/tf.math.add_87/Add/y", "op": "Const", "attr": {"value": {"tensor": {"dtype": "DT_FLOAT", "tensorShape": {"dim": [{"size": "192"}]}}}, "dtype": {"type": "DT_FLOAT"}}}, {"name": "model_13/tf.nn.convolution_62/convolution/filter", "op": "Const", "attr": {"dtype": {"type": "DT_FLOAT"}, "value": {"tensor": {"dtype": "DT_FLOAT", "tensorShape": {"dim": [{"size": "3"}, {"size": "3"}, {"size": "192"}, {"size": "192"}]}}}}}, {"name": "model_13/tf.math.add_88/Add/y", "op": "Const", "attr": {"dtype": {"type": "DT_FLOAT"}, "value": {"tensor": {"dtype": "DT_FLOAT", "tensorShape": {"dim": [{"size": "192"}]}}}}}, {"name": "model_13/tf.concat_11/concat/axis", "op": "Const", "attr": {"value": {"tensor": {"dtype": "DT_INT32", "tensorShape": {}}}, "dtype": {"type": "DT_INT32"}}}, {"name": "model_13/tf.nn.convolution_63/convolution/filter", "op": "Const", "attr": {"value": {"tensor": {"dtype": "DT_FLOAT", "tensorShape": {"dim": [{"size": "1"}, {"size": "1"}, {"size": "768"}, {"size": "384"}]}}}, "dtype": {"type": "DT_FLOAT"}}}, {"name": "model_13/tf.math.add_89/Add/y", "op": "Const", "attr": {"value": {"tensor": {"dtype": "DT_FLOAT", "tensorShape": {"dim": [{"size": "384"}]}}}, "dtype": {"type": "DT_FLOAT"}}}, {"name": "model_13/tf.compat.v1.pad_6/Pad/paddings", "op": "Const", "attr": {"value": {"tensor": {"dtype": "DT_INT32", "tensorShape": {"dim": [{"size": "4"}, {"size": "2"}]}}}, "dtype": {"type": "DT_INT32"}}}, {"name": "model_13/tf.nn.convolution_64/convolution/filter", "op": "Const", "attr": {"value": {"tensor": {"dtype": "DT_FLOAT", "tensorShape": {"dim": [{"size": "3"}, {"size": "3"}, {"size": "384"}, {"size": "384"}]}}}, "dtype": {"type": "DT_FLOAT"}}}, {"name": "model_13/tf.math.add_90/Add/y", "op": "Const", "attr": {"dtype": {"type": "DT_FLOAT"}, "value": {"tensor": {"dtype": "DT_FLOAT", "tensorShape": {"dim": [{"size": "384"}]}}}}}, {"name": "model_13/tf.strided_slice_6/ones_like/tensor", "op": "Const", "attr": {"value": {"tensor": {"dtype": "DT_INT64", "tensorShape": {"dim": [{"size": "4"}]}}}, "dtype": {"type": "DT_INT64"}}}, {"name": "model_13/tf.strided_slice_6/StridedSlice/end", "op": "Const", "attr": {"dtype": {"type": "DT_INT64"}, "value": {"tensor": {"dtype": "DT_INT64", "tensorShape": {"dim": [{"size": "4"}]}}}}}, {"name": "model_13/tf.strided_slice_6/ones_like", "op": "Const", "attr": {"dtype": {"type": "DT_INT64"}, "value": {"tensor": {"dtype": "DT_INT64", "tensorShape": {"dim": [{"size": "4"}]}}}}}, {"name": "model_13/tf.strided_slice_4/ones_like/tensor", "op": "Const", "attr": {"value": {"tensor": {"dtype": "DT_INT64", "tensorShape": {"dim": [{"size": "4"}]}}}, "dtype": {"type": "DT_INT64"}}}, {"name": "model_13/tf.strided_slice_4/StridedSlice/end", "op": "Const", "attr": {"dtype": {"type": "DT_INT64"}, "value": {"tensor": {"dtype": "DT_INT64", "tensorShape": {"dim": [{"size": "4"}]}}}}}, {"name": "model_13/tf.strided_slice_4/ones_like", "op": "Const", "attr": {"value": {"tensor": {"dtype": "DT_INT64", "tensorShape": {"dim": [{"size": "4"}]}}}, "dtype": {"type": "DT_INT64"}}}, {"name": "model_13/tf.strided_slice_2/ones_like/tensor", "op": "Const", "attr": {"value": {"tensor": {"dtype": "DT_INT64", "tensorShape": {"dim": [{"size": "4"}]}}}, "dtype": {"type": "DT_INT64"}}}, {"name": "model_13/tf.strided_slice_2/StridedSlice/end", "op": "Const", "attr": {"value": {"tensor": {"dtype": "DT_INT64", "tensorShape": {"dim": [{"size": "4"}]}}}, "dtype": {"type": "DT_INT64"}}}, {"name": "model_13/tf.strided_slice_2/ones_like", "op": "Const", "attr": {"value": {"tensor": {"dtype": "DT_INT64", "tensorShape": {"dim": [{"size": "4"}]}}}, "dtype": {"type": "DT_INT64"}}}, {"name": "model_13/tf.strided_slice/ones_like/tensor", "op": "Const", "attr": {"value": {"tensor": {"dtype": "DT_INT64", "tensorShape": {"dim": [{"size": "4"}]}}}, "dtype": {"type": "DT_INT64"}}}, {"name": "model_13/tf.strided_slice/StridedSlice/end", "op": "Const", "attr": {"dtype": {"type": "DT_INT64"}, "value": {"tensor": {"dtype": "DT_INT64", "tensorShape": {"dim": [{"size": "4"}]}}}}}, {"name": "model_13/tf.strided_slice/ones_like", "op": "Const", "attr": {"dtype": {"type": "DT_INT64"}, "value": {"tensor": {"dtype": "DT_INT64", "tensorShape": {"dim": [{"size": "4"}]}}}}}, {"name": "model_13/tf.compat.v1.pad/Pad/paddings", "op": "Const", "attr": {"value": {"tensor": {"dtype": "DT_INT32", "tensorShape": {"dim": [{"size": "4"}, {"size": "2"}]}}}, "dtype": {"type": "DT_INT32"}}}, {"name": "model_13/tf.nn.convolution/convolution/filter", "op": "Const", "attr": {"dtype": {"type": "DT_FLOAT"}, "value": {"tensor": {"dtype": "DT_FLOAT", "tensorShape": {"dim": [{"size": "3"}, {"size": "3"}, {"size": "3"}, {"size": "48"}]}}}}}, {"name": "model_13/tf.math.add/Add/y", "op": "Const", "attr": {"dtype": {"type": "DT_FLOAT"}, "value": {"tensor": {"dtype": "DT_FLOAT", "tensorShape": {"dim": [{"size": "48"}]}}}}}, {"name": "model_13/tf.compat.v1.pad_1/Pad/paddings", "op": "Const", "attr": {"dtype": {"type": "DT_INT32"}, "value": {"tensor": {"dtype": "DT_INT32", "tensorShape": {"dim": [{"size": "4"}, {"size": "2"}]}}}}}, {"name": "model_13/tf.nn.convolution_1/convolution/filter", "op": "Const", "attr": {"value": {"tensor": {"dtype": "DT_FLOAT", "tensorShape": {"dim": [{"size": "3"}, {"size": "3"}, {"size": "48"}, {"size": "96"}]}}}, "dtype": {"type": "DT_FLOAT"}}}, {"name": "model_13/tf.math.add_1/Add/y", "op": "Const", "attr": {"value": {"tensor": {"dtype": "DT_FLOAT", "tensorShape": {"dim": [{"size": "96"}]}}}, "dtype": {"type": "DT_FLOAT"}}}, {"name": "model_13/tf.nn.convolution_2/convolution/filter", "op": "Const", "attr": {"value": {"tensor": {"dtype": "DT_FLOAT", "tensorShape": {"dim": [{"size": "1"}, {"size": "1"}, {"size": "96"}, {"size": "96"}]}}}, "dtype": {"type": "DT_FLOAT"}}}, {"name": "model_13/tf.math.add_2/Add/y", "op": "Const", "attr": {"dtype": {"type": "DT_FLOAT"}, "value": {"tensor": {"dtype": "DT_FLOAT", "tensorShape": {"dim": [{"size": "96"}]}}}}}, {"name": "model_13/tf.strided_slice_1/ones_like/tensor", "op": "Const", "attr": {"value": {"tensor": {"dtype": "DT_INT64", "tensorShape": {"dim": [{"size": "4"}]}}}, "dtype": {"type": "DT_INT64"}}}, {"name": "model_13/tf.strided_slice_1/StridedSlice/end", "op": "Const", "attr": {"value": {"tensor": {"dtype": "DT_INT64", "tensorShape": {"dim": [{"size": "4"}]}}}, "dtype": {"type": "DT_INT64"}}}, {"name": "model_13/tf.strided_slice_1/ones_like", "op": "Const", "attr": {"dtype": {"type": "DT_INT64"}, "value": {"tensor": {"dtype": "DT_INT64", "tensorShape": {"dim": [{"size": "4"}]}}}}}, {"name": "model_13/tf.nn.convolution_3/convolution/filter", "op": "Const", "attr": {"value": {"tensor": {"dtype": "DT_FLOAT", "tensorShape": {"dim": [{"size": "3"}, {"size": "3"}, {"size": "48"}, {"size": "48"}]}}}, "dtype": {"type": "DT_FLOAT"}}}, {"name": "model_13/tf.math.add_3/Add/y", "op": "Const", "attr": {"value": {"tensor": {"dtype": "DT_FLOAT", "tensorShape": {"dim": [{"size": "48"}]}}}, "dtype": {"type": "DT_FLOAT"}}}, {"name": "model_13/tf.nn.convolution_4/convolution/filter", "op": "Const", "attr": {"dtype": {"type": "DT_FLOAT"}, "value": {"tensor": {"dtype": "DT_FLOAT", "tensorShape": {"dim": [{"size": "3"}, {"size": "3"}, {"size": "48"}, {"size": "48"}]}}}}}, {"name": "model_13/tf.math.add_4/Add/y", "op": "Const", "attr": {"value": {"tensor": {"dtype": "DT_FLOAT", "tensorShape": {"dim": [{"size": "48"}]}}}, "dtype": {"type": "DT_FLOAT"}}}, {"name": "model_13/tf.nn.convolution_5/convolution/filter", "op": "Const", "attr": {"value": {"tensor": {"dtype": "DT_FLOAT", "tensorShape": {"dim": [{"size": "3"}, {"size": "3"}, {"size": "48"}, {"size": "48"}]}}}, "dtype": {"type": "DT_FLOAT"}}}, {"name": "model_13/tf.math.add_7/Add/y", "op": "Const", "attr": {"value": {"tensor": {"dtype": "DT_FLOAT", "tensorShape": {"dim": [{"size": "48"}]}}}, "dtype": {"type": "DT_FLOAT"}}}, {"name": "model_13/tf.nn.convolution_6/convolution/filter", "op": "Const", "attr": {"value": {"tensor": {"dtype": "DT_FLOAT", "tensorShape": {"dim": [{"size": "3"}, {"size": "3"}, {"size": "48"}, {"size": "48"}]}}}, "dtype": {"type": "DT_FLOAT"}}}, {"name": "model_13/tf.math.add_8/Add/y", "op": "Const", "attr": {"dtype": {"type": "DT_FLOAT"}, "value": {"tensor": {"dtype": "DT_FLOAT", "tensorShape": {"dim": [{"size": "48"}]}}}}}, {"name": "model_13/tf.concat/concat/axis", "op": "Const", "attr": {"value": {"tensor": {"dtype": "DT_INT32", "tensorShape": {}}}, "dtype": {"type": "DT_INT32"}}}, {"name": "model_13/tf.nn.convolution_7/convolution/filter", "op": "Const", "attr": {"value": {"tensor": {"dtype": "DT_FLOAT", "tensorShape": {"dim": [{"size": "1"}, {"size": "1"}, {"size": "192"}, {"size": "96"}]}}}, "dtype": {"type": "DT_FLOAT"}}}, {"name": "model_13/tf.math.add_11/Add/y", "op": "Const", "attr": {"dtype": {"type": "DT_FLOAT"}, "value": {"tensor": {"dtype": "DT_FLOAT", "tensorShape": {"dim": [{"size": "96"}]}}}}}, {"name": "model_13/tf.compat.v1.pad_2/Pad/paddings", "op": "Const", "attr": {"dtype": {"type": "DT_INT32"}, "value": {"tensor": {"dtype": "DT_INT32", "tensorShape": {"dim": [{"size": "4"}, {"size": "2"}]}}}}}, {"name": "model_13/tf.nn.convolution_8/convolution/filter", "op": "Const", "attr": {"dtype": {"type": "DT_FLOAT"}, "value": {"tensor": {"dtype": "DT_FLOAT", "tensorShape": {"dim": [{"size": "3"}, {"size": "3"}, {"size": "96"}, {"size": "192"}]}}}}}, {"name": "model_13/tf.math.add_12/Add/y", "op": "Const", "attr": {"value": {"tensor": {"dtype": "DT_FLOAT", "tensorShape": {"dim": [{"size": "192"}]}}}, "dtype": {"type": "DT_FLOAT"}}}, {"name": "model_13/tf.nn.convolution_9/convolution/filter", "op": "Const", "attr": {"value": {"tensor": {"dtype": "DT_FLOAT", "tensorShape": {"dim": [{"size": "1"}, {"size": "1"}, {"size": "192"}, {"size": "192"}]}}}, "dtype": {"type": "DT_FLOAT"}}}, {"name": "model_13/tf.math.add_13/Add/y", "op": "Const", "attr": {"value": {"tensor": {"dtype": "DT_FLOAT", "tensorShape": {"dim": [{"size": "192"}]}}}, "dtype": {"type": "DT_FLOAT"}}}, {"name": "model_13/tf.strided_slice_3/ones_like/tensor", "op": "Const", "attr": {"dtype": {"type": "DT_INT64"}, "value": {"tensor": {"dtype": "DT_INT64", "tensorShape": {"dim": [{"size": "4"}]}}}}}, {"name": "model_13/tf.strided_slice_3/StridedSlice/end", "op": "Const", "attr": {"value": {"tensor": {"dtype": "DT_INT64", "tensorShape": {"dim": [{"size": "4"}]}}}, "dtype": {"type": "DT_INT64"}}}, {"name": "model_13/tf.strided_slice_3/ones_like", "op": "Const", "attr": {"dtype": {"type": "DT_INT64"}, "value": {"tensor": {"dtype": "DT_INT64", "tensorShape": {"dim": [{"size": "4"}]}}}}}, {"name": "model_13/tf.nn.convolution_10/convolution/filter", "op": "Const", "attr": {"value": {"tensor": {"dtype": "DT_FLOAT", "tensorShape": {"dim": [{"size": "3"}, {"size": "3"}, {"size": "96"}, {"size": "96"}]}}}, "dtype": {"type": "DT_FLOAT"}}}, {"name": "model_13/tf.math.add_14/Add/y", "op": "Const", "attr": {"dtype": {"type": "DT_FLOAT"}, "value": {"tensor": {"dtype": "DT_FLOAT", "tensorShape": {"dim": [{"size": "96"}]}}}}}, {"name": "model_13/tf.nn.convolution_11/convolution/filter", "op": "Const", "attr": {"dtype": {"type": "DT_FLOAT"}, "value": {"tensor": {"dtype": "DT_FLOAT", "tensorShape": {"dim": [{"size": "3"}, {"size": "3"}, {"size": "96"}, {"size": "96"}]}}}}}, {"name": "model_13/tf.math.add_15/Add/y", "op": "Const", "attr": {"dtype": {"type": "DT_FLOAT"}, "value": {"tensor": {"dtype": "DT_FLOAT", "tensorShape": {"dim": [{"size": "96"}]}}}}}, {"name": "model_13/tf.nn.convolution_12/convolution/filter", "op": "Const", "attr": {"value": {"tensor": {"dtype": "DT_FLOAT", "tensorShape": {"dim": [{"size": "3"}, {"size": "3"}, {"size": "96"}, {"size": "96"}]}}}, "dtype": {"type": "DT_FLOAT"}}}, {"name": "model_13/tf.math.add_18/Add/y", "op": "Const", "attr": {"value": {"tensor": {"dtype": "DT_FLOAT", "tensorShape": {"dim": [{"size": "96"}]}}}, "dtype": {"type": "DT_FLOAT"}}}, {"name": "model_13/tf.nn.convolution_13/convolution/filter", "op": "Const", "attr": {"value": {"tensor": {"dtype": "DT_FLOAT", "tensorShape": {"dim": [{"size": "3"}, {"size": "3"}, {"size": "96"}, {"size": "96"}]}}}, "dtype": {"type": "DT_FLOAT"}}}, {"name": "model_13/tf.math.add_19/Add/y", "op": "Const", "attr": {"value": {"tensor": {"dtype": "DT_FLOAT", "tensorShape": {"dim": [{"size": "96"}]}}}, "dtype": {"type": "DT_FLOAT"}}}, {"name": "model_13/tf.nn.convolution_14/convolution/filter", "op": "Const", "attr": {"dtype": {"type": "DT_FLOAT"}, "value": {"tensor": {"dtype": "DT_FLOAT", "tensorShape": {"dim": [{"size": "3"}, {"size": "3"}, {"size": "96"}, {"size": "96"}]}}}}}, {"name": "model_13/tf.math.add_22/Add/y", "op": "Const", "attr": {"value": {"tensor": {"dtype": "DT_FLOAT", "tensorShape": {"dim": [{"size": "96"}]}}}, "dtype": {"type": "DT_FLOAT"}}}, {"name": "model_13/tf.nn.convolution_15/convolution/filter", "op": "Const", "attr": {"value": {"tensor": {"dtype": "DT_FLOAT", "tensorShape": {"dim": [{"size": "3"}, {"size": "3"}, {"size": "96"}, {"size": "96"}]}}}, "dtype": {"type": "DT_FLOAT"}}}, {"name": "model_13/tf.math.add_23/Add/y", "op": "Const", "attr": {"value": {"tensor": {"dtype": "DT_FLOAT", "tensorShape": {"dim": [{"size": "96"}]}}}, "dtype": {"type": "DT_FLOAT"}}}, {"name": "model_13/tf.nn.convolution_16/convolution/filter", "op": "Const", "attr": {"value": {"tensor": {"dtype": "DT_FLOAT", "tensorShape": {"dim": [{"size": "3"}, {"size": "3"}, {"size": "96"}, {"size": "96"}]}}}, "dtype": {"type": "DT_FLOAT"}}}, {"name": "model_13/tf.math.add_26/Add/y", "op": "Const", "attr": {"value": {"tensor": {"dtype": "DT_FLOAT", "tensorShape": {"dim": [{"size": "96"}]}}}, "dtype": {"type": "DT_FLOAT"}}}, {"name": "model_13/tf.nn.convolution_17/convolution/filter", "op": "Const", "attr": {"value": {"tensor": {"dtype": "DT_FLOAT", "tensorShape": {"dim": [{"size": "3"}, {"size": "3"}, {"size": "96"}, {"size": "96"}]}}}, "dtype": {"type": "DT_FLOAT"}}}, {"name": "model_13/tf.math.add_27/Add/y", "op": "Const", "attr": {"value": {"tensor": {"dtype": "DT_FLOAT", "tensorShape": {"dim": [{"size": "96"}]}}}, "dtype": {"type": "DT_FLOAT"}}}, {"name": "model_13/tf.concat_1/concat/axis", "op": "Const", "attr": {"dtype": {"type": "DT_INT32"}, "value": {"tensor": {"dtype": "DT_INT32", "tensorShape": {}}}}}, {"name": "model_13/tf.nn.convolution_18/convolution/filter", "op": "Const", "attr": {"value": {"tensor": {"dtype": "DT_FLOAT", "tensorShape": {"dim": [{"size": "1"}, {"size": "1"}, {"size": "576"}, {"size": "192"}]}}}, "dtype": {"type": "DT_FLOAT"}}}, {"name": "model_13/tf.math.add_30/Add/y", "op": "Const", "attr": {"value": {"tensor": {"dtype": "DT_FLOAT", "tensorShape": {"dim": [{"size": "192"}]}}}, "dtype": {"type": "DT_FLOAT"}}}, {"name": "model_13/tf.compat.v1.pad_3/Pad/paddings", "op": "Const", "attr": {"value": {"tensor": {"dtype": "DT_INT32", "tensorShape": {"dim": [{"size": "4"}, {"size": "2"}]}}}, "dtype": {"type": "DT_INT32"}}}, {"name": "model_13/tf.nn.convolution_19/convolution/filter", "op": "Const", "attr": {"dtype": {"type": "DT_FLOAT"}, "value": {"tensor": {"dtype": "DT_FLOAT", "tensorShape": {"dim": [{"size": "3"}, {"size": "3"}, {"size": "192"}, {"size": "384"}]}}}}}, {"name": "model_13/tf.math.add_31/Add/y", "op": "Const", "attr": {"dtype": {"type": "DT_FLOAT"}, "value": {"tensor": {"dtype": "DT_FLOAT", "tensorShape": {"dim": [{"size": "384"}]}}}}}, {"name": "model_13/tf.nn.convolution_20/convolution/filter", "op": "Const", "attr": {"value": {"tensor": {"dtype": "DT_FLOAT", "tensorShape": {"dim": [{"size": "1"}, {"size": "1"}, {"size": "384"}, {"size": "384"}]}}}, "dtype": {"type": "DT_FLOAT"}}}, {"name": "model_13/tf.math.add_32/Add/y", "op": "Const", "attr": {"value": {"tensor": {"dtype": "DT_FLOAT", "tensorShape": {"dim": [{"size": "384"}]}}}, "dtype": {"type": "DT_FLOAT"}}}, {"name": "model_13/tf.strided_slice_5/ones_like/tensor", "op": "Const", "attr": {"dtype": {"type": "DT_INT64"}, "value": {"tensor": {"dtype": "DT_INT64", "tensorShape": {"dim": [{"size": "4"}]}}}}}, {"name": "model_13/tf.strided_slice_5/StridedSlice/end", "op": "Const", "attr": {"dtype": {"type": "DT_INT64"}, "value": {"tensor": {"dtype": "DT_INT64", "tensorShape": {"dim": [{"size": "4"}]}}}}}, {"name": "model_13/tf.strided_slice_5/ones_like", "op": "Const", "attr": {"value": {"tensor": {"dtype": "DT_INT64", "tensorShape": {"dim": [{"size": "4"}]}}}, "dtype": {"type": "DT_INT64"}}}, {"name": "model_13/tf.nn.convolution_21/convolution/filter", "op": "Const", "attr": {"value": {"tensor": {"dtype": "DT_FLOAT", "tensorShape": {"dim": [{"size": "3"}, {"size": "3"}, {"size": "192"}, {"size": "192"}]}}}, "dtype": {"type": "DT_FLOAT"}}}, {"name": "model_13/tf.math.add_33/Add/y", "op": "Const", "attr": {"value": {"tensor": {"dtype": "DT_FLOAT", "tensorShape": {"dim": [{"size": "192"}]}}}, "dtype": {"type": "DT_FLOAT"}}}, {"name": "model_13/tf.nn.convolution_22/convolution/filter", "op": "Const", "attr": {"dtype": {"type": "DT_FLOAT"}, "value": {"tensor": {"dtype": "DT_FLOAT", "tensorShape": {"dim": [{"size": "3"}, {"size": "3"}, {"size": "192"}, {"size": "192"}]}}}}}, {"name": "model_13/tf.math.add_34/Add/y", "op": "Const", "attr": {"dtype": {"type": "DT_FLOAT"}, "value": {"tensor": {"dtype": "DT_FLOAT", "tensorShape": {"dim": [{"size": "192"}]}}}}}, {"name": "model_13/tf.nn.convolution_23/convolution/filter", "op": "Const", "attr": {"dtype": {"type": "DT_FLOAT"}, "value": {"tensor": {"dtype": "DT_FLOAT", "tensorShape": {"dim": [{"size": "3"}, {"size": "3"}, {"size": "192"}, {"size": "192"}]}}}}}, {"name": "model_13/tf.math.add_37/Add/y", "op": "Const", "attr": {"value": {"tensor": {"dtype": "DT_FLOAT", "tensorShape": {"dim": [{"size": "192"}]}}}, "dtype": {"type": "DT_FLOAT"}}}, {"name": "model_13/tf.nn.convolution_24/convolution/filter", "op": "Const", "attr": {"dtype": {"type": "DT_FLOAT"}, "value": {"tensor": {"dtype": "DT_FLOAT", "tensorShape": {"dim": [{"size": "3"}, {"size": "3"}, {"size": "192"}, {"size": "192"}]}}}}}, {"name": "model_13/tf.math.add_38/Add/y", "op": "Const", "attr": {"value": {"tensor": {"dtype": "DT_FLOAT", "tensorShape": {"dim": [{"size": "192"}]}}}, "dtype": {"type": "DT_FLOAT"}}}, {"name": "model_13/tf.nn.convolution_25/convolution/filter", "op": "Const", "attr": {"dtype": {"type": "DT_FLOAT"}, "value": {"tensor": {"dtype": "DT_FLOAT", "tensorShape": {"dim": [{"size": "3"}, {"size": "3"}, {"size": "192"}, {"size": "192"}]}}}}}, {"name": "model_13/tf.math.add_41/Add/y", "op": "Const", "attr": {"value": {"tensor": {"dtype": "DT_FLOAT", "tensorShape": {"dim": [{"size": "192"}]}}}, "dtype": {"type": "DT_FLOAT"}}}, {"name": "model_13/tf.nn.convolution_26/convolution/filter", "op": "Const", "attr": {"value": {"tensor": {"dtype": "DT_FLOAT", "tensorShape": {"dim": [{"size": "3"}, {"size": "3"}, {"size": "192"}, {"size": "192"}]}}}, "dtype": {"type": "DT_FLOAT"}}}, {"name": "model_13/tf.math.add_42/Add/y", "op": "Const", "attr": {"value": {"tensor": {"dtype": "DT_FLOAT", "tensorShape": {"dim": [{"size": "192"}]}}}, "dtype": {"type": "DT_FLOAT"}}}, {"name": "model_13/tf.nn.convolution_27/convolution/filter", "op": "Const", "attr": {"value": {"tensor": {"dtype": "DT_FLOAT", "tensorShape": {"dim": [{"size": "3"}, {"size": "3"}, {"size": "192"}, {"size": "192"}]}}}, "dtype": {"type": "DT_FLOAT"}}}, {"name": "model_13/tf.math.add_45/Add/y", "op": "Const", "attr": {"value": {"tensor": {"dtype": "DT_FLOAT", "tensorShape": {"dim": [{"size": "192"}]}}}, "dtype": {"type": "DT_FLOAT"}}}, {"name": "model_13/tf.nn.convolution_28/convolution/filter", "op": "Const", "attr": {"value": {"tensor": {"dtype": "DT_FLOAT", "tensorShape": {"dim": [{"size": "3"}, {"size": "3"}, {"size": "192"}, {"size": "192"}]}}}, "dtype": {"type": "DT_FLOAT"}}}, {"name": "model_13/tf.math.add_46/Add/y", "op": "Const", "attr": {"value": {"tensor": {"dtype": "DT_FLOAT", "tensorShape": {"dim": [{"size": "192"}]}}}, "dtype": {"type": "DT_FLOAT"}}}, {"name": "model_13/tf.concat_2/concat/axis", "op": "Const", "attr": {"value": {"tensor": {"dtype": "DT_INT32", "tensorShape": {}}}, "dtype": {"type": "DT_INT32"}}}, {"name": "model_13/tf.nn.convolution_29/convolution/filter", "op": "Const", "attr": {"value": {"tensor": {"dtype": "DT_FLOAT", "tensorShape": {"dim": [{"size": "1"}, {"size": "1"}, {"size": "1152"}, {"size": "384"}]}}}, "dtype": {"type": "DT_FLOAT"}}}, {"name": "model_13/tf.math.add_49/Add/y", "op": "Const", "attr": {"value": {"tensor": {"dtype": "DT_FLOAT", "tensorShape": {"dim": [{"size": "384"}]}}}, "dtype": {"type": "DT_FLOAT"}}}, {"name": "model_13/tf.compat.v1.pad_4/Pad/paddings", "op": "Const", "attr": {"value": {"tensor": {"dtype": "DT_INT32", "tensorShape": {"dim": [{"size": "4"}, {"size": "2"}]}}}, "dtype": {"type": "DT_INT32"}}}, {"name": "model_13/tf.nn.convolution_30/convolution/filter", "op": "Const", "attr": {"dtype": {"type": "DT_FLOAT"}, "value": {"tensor": {"dtype": "DT_FLOAT", "tensorShape": {"dim": [{"size": "3"}, {"size": "3"}, {"size": "384"}, {"size": "576"}]}}}}}, {"name": "model_13/tf.math.add_50/Add/y", "op": "Const", "attr": {"dtype": {"type": "DT_FLOAT"}, "value": {"tensor": {"dtype": "DT_FLOAT", "tensorShape": {"dim": [{"size": "576"}]}}}}}, {"name": "model_13/tf.nn.convolution_31/convolution/filter", "op": "Const", "attr": {"value": {"tensor": {"dtype": "DT_FLOAT", "tensorShape": {"dim": [{"size": "1"}, {"size": "1"}, {"size": "576"}, {"size": "576"}]}}}, "dtype": {"type": "DT_FLOAT"}}}, {"name": "model_13/tf.math.add_51/Add/y", "op": "Const", "attr": {"dtype": {"type": "DT_FLOAT"}, "value": {"tensor": {"dtype": "DT_FLOAT", "tensorShape": {"dim": [{"size": "576"}]}}}}}, {"name": "model_13/tf.strided_slice_7/ones_like/tensor", "op": "Const", "attr": {"value": {"tensor": {"dtype": "DT_INT64", "tensorShape": {"dim": [{"size": "4"}]}}}, "dtype": {"type": "DT_INT64"}}}, {"name": "model_13/tf.strided_slice_7/StridedSlice/end", "op": "Const", "attr": {"value": {"tensor": {"dtype": "DT_INT64", "tensorShape": {"dim": [{"size": "4"}]}}}, "dtype": {"type": "DT_INT64"}}}, {"name": "model_13/tf.strided_slice_7/ones_like", "op": "Const", "attr": {"dtype": {"type": "DT_INT64"}, "value": {"tensor": {"dtype": "DT_INT64", "tensorShape": {"dim": [{"size": "4"}]}}}}}, {"name": "model_13/tf.nn.convolution_32/convolution/filter", "op": "Const", "attr": {"dtype": {"type": "DT_FLOAT"}, "value": {"tensor": {"dtype": "DT_FLOAT", "tensorShape": {"dim": [{"size": "3"}, {"size": "3"}, {"size": "288"}, {"size": "288"}]}}}}}, {"name": "model_13/tf.math.add_52/Add/y", "op": "Const", "attr": {"dtype": {"type": "DT_FLOAT"}, "value": {"tensor": {"dtype": "DT_FLOAT", "tensorShape": {"dim": [{"size": "288"}]}}}}}, {"name": "model_13/tf.nn.convolution_33/convolution/filter", "op": "Const", "attr": {"value": {"tensor": {"dtype": "DT_FLOAT", "tensorShape": {"dim": [{"size": "3"}, {"size": "3"}, {"size": "288"}, {"size": "288"}]}}}, "dtype": {"type": "DT_FLOAT"}}}, {"name": "model_13/tf.math.add_53/Add/y", "op": "Const", "attr": {"dtype": {"type": "DT_FLOAT"}, "value": {"tensor": {"dtype": "DT_FLOAT", "tensorShape": {"dim": [{"size": "288"}]}}}}}, {"name": "model_13/tf.nn.convolution_34/convolution/filter", "op": "Const", "attr": {"dtype": {"type": "DT_FLOAT"}, "value": {"tensor": {"dtype": "DT_FLOAT", "tensorShape": {"dim": [{"size": "3"}, {"size": "3"}, {"size": "288"}, {"size": "288"}]}}}}}, {"name": "model_13/tf.math.add_56/Add/y", "op": "Const", "attr": {"dtype": {"type": "DT_FLOAT"}, "value": {"tensor": {"dtype": "DT_FLOAT", "tensorShape": {"dim": [{"size": "288"}]}}}}}, {"name": "model_13/tf.nn.convolution_35/convolution/filter", "op": "Const", "attr": {"dtype": {"type": "DT_FLOAT"}, "value": {"tensor": {"dtype": "DT_FLOAT", "tensorShape": {"dim": [{"size": "3"}, {"size": "3"}, {"size": "288"}, {"size": "288"}]}}}}}, {"name": "model_13/tf.math.add_57/Add/y", "op": "Const", "attr": {"value": {"tensor": {"dtype": "DT_FLOAT", "tensorShape": {"dim": [{"size": "288"}]}}}, "dtype": {"type": "DT_FLOAT"}}}, {"name": "model_13/tf.concat_3/concat/axis", "op": "Const", "attr": {"value": {"tensor": {"dtype": "DT_INT32", "tensorShape": {}}}, "dtype": {"type": "DT_INT32"}}}, {"name": "model_13/tf.nn.convolution_36/convolution/filter", "op": "Const", "attr": {"dtype": {"type": "DT_FLOAT"}, "value": {"tensor": {"dtype": "DT_FLOAT", "tensorShape": {"dim": [{"size": "1"}, {"size": "1"}, {"size": "1152"}, {"size": "576"}]}}}}}, {"name": "model_13/tf.math.add_60/Add/y", "op": "Const", "attr": {"value": {"tensor": {"dtype": "DT_FLOAT", "tensorShape": {"dim": [{"size": "576"}]}}}, "dtype": {"type": "DT_FLOAT"}}}, {"name": "model_13/tf.nn.convolution_37/convolution/filter", "op": "Const", "attr": {"dtype": {"type": "DT_FLOAT"}, "value": {"tensor": {"dtype": "DT_FLOAT", "tensorShape": {"dim": [{"size": "1"}, {"size": "1"}, {"size": "576"}, {"size": "288"}]}}}}}, {"name": "model_13/tf.math.add_61/Add/y", "op": "Const", "attr": {"dtype": {"type": "DT_FLOAT"}, "value": {"tensor": {"dtype": "DT_FLOAT", "tensorShape": {"dim": [{"size": "288"}]}}}}}, {"name": "model_13/tf.concat_4/concat/axis", "op": "Const", "attr": {"value": {"tensor": {"dtype": "DT_INT32", "tensorShape": {}}}, "dtype": {"type": "DT_INT32"}}}, {"name": "model_13/tf.nn.convolution_38/convolution/filter", "op": "Const", "attr": {"dtype": {"type": "DT_FLOAT"}, "value": {"tensor": {"dtype": "DT_FLOAT", "tensorShape": {"dim": [{"size": "1"}, {"size": "1"}, {"size": "1152"}, {"size": "576"}]}}}}}, {"name": "model_13/tf.math.add_62/Add/y", "op": "Const", "attr": {"dtype": {"type": "DT_FLOAT"}, "value": {"tensor": {"dtype": "DT_FLOAT", "tensorShape": {"dim": [{"size": "576"}]}}}}}, {"name": "model_13/tf.concat_12/concat/axis", "op": "Const", "attr": {"value": {"tensor": {"dtype": "DT_INT32", "tensorShape": {}}}, "dtype": {"type": "DT_INT32"}}}, {"name": "model_13/tf.nn.convolution_68/convolution/filter", "op": "Const", "attr": {"value": {"tensor": {"dtype": "DT_FLOAT", "tensorShape": {"dim": [{"size": "1"}, {"size": "1"}, {"size": "960"}, {"size": "576"}]}}}, "dtype": {"type": "DT_FLOAT"}}}, {"name": "model_13/tf.math.add_95/Add/y", "op": "Const", "attr": {"value": {"tensor": {"dtype": "DT_FLOAT", "tensorShape": {"dim": [{"size": "576"}]}}}, "dtype": {"type": "DT_FLOAT"}}}, {"name": "model_13/tf.strided_slice_15/ones_like/tensor", "op": "Const", "attr": {"value": {"tensor": {"dtype": "DT_INT64", "tensorShape": {"dim": [{"size": "4"}]}}}, "dtype": {"type": "DT_INT64"}}}, {"name": "model_13/tf.strided_slice_15/StridedSlice/end", "op": "Const", "attr": {"value": {"tensor": {"dtype": "DT_INT64", "tensorShape": {"dim": [{"size": "4"}]}}}, "dtype": {"type": "DT_INT64"}}}, {"name": "model_13/tf.strided_slice_15/ones_like", "op": "Const", "attr": {"dtype": {"type": "DT_INT64"}, "value": {"tensor": {"dtype": "DT_INT64", "tensorShape": {"dim": [{"size": "4"}]}}}}}, {"name": "model_13/tf.nn.convolution_70/convolution/filter", "op": "Const", "attr": {"value": {"tensor": {"dtype": "DT_FLOAT", "tensorShape": {"dim": [{"size": "3"}, {"size": "3"}, {"size": "288"}, {"size": "288"}]}}}, "dtype": {"type": "DT_FLOAT"}}}, {"name": "model_13/tf.math.add_98/Add/y", "op": "Const", "attr": {"value": {"tensor": {"dtype": "DT_FLOAT", "tensorShape": {"dim": [{"size": "288"}]}}}, "dtype": {"type": "DT_FLOAT"}}}, {"name": "model_13/tf.nn.convolution_72/convolution/filter", "op": "Const", "attr": {"value": {"tensor": {"dtype": "DT_FLOAT", "tensorShape": {"dim": [{"size": "3"}, {"size": "3"}, {"size": "288"}, {"size": "288"}]}}}, "dtype": {"type": "DT_FLOAT"}}}, {"name": "model_13/tf.math.add_100/Add/y", "op": "Const", "attr": {"value": {"tensor": {"dtype": "DT_FLOAT", "tensorShape": {"dim": [{"size": "288"}]}}}, "dtype": {"type": "DT_FLOAT"}}}, {"name": "model_13/tf.nn.convolution_74/convolution/filter", "op": "Const", "attr": {"dtype": {"type": "DT_FLOAT"}, "value": {"tensor": {"dtype": "DT_FLOAT", "tensorShape": {"dim": [{"size": "3"}, {"size": "3"}, {"size": "288"}, {"size": "288"}]}}}}}, {"name": "model_13/tf.math.add_102/Add/y", "op": "Const", "attr": {"value": {"tensor": {"dtype": "DT_FLOAT", "tensorShape": {"dim": [{"size": "288"}]}}}, "dtype": {"type": "DT_FLOAT"}}}, {"name": "model_13/tf.nn.convolution_75/convolution/filter", "op": "Const", "attr": {"dtype": {"type": "DT_FLOAT"}, "value": {"tensor": {"dtype": "DT_FLOAT", "tensorShape": {"dim": [{"size": "3"}, {"size": "3"}, {"size": "288"}, {"size": "288"}]}}}}}, {"name": "model_13/tf.math.add_103/Add/y", "op": "Const", "attr": {"value": {"tensor": {"dtype": "DT_FLOAT", "tensorShape": {"dim": [{"size": "288"}]}}}, "dtype": {"type": "DT_FLOAT"}}}, {"name": "model_13/tf.concat_14/concat/axis", "op": "Const", "attr": {"dtype": {"type": "DT_INT32"}, "value": {"tensor": {"dtype": "DT_INT32", "tensorShape": {}}}}}, {"name": "model_13/tf.nn.convolution_76/convolution/filter", "op": "Const", "attr": {"dtype": {"type": "DT_FLOAT"}, "value": {"tensor": {"dtype": "DT_FLOAT", "tensorShape": {"dim": [{"size": "1"}, {"size": "1"}, {"size": "1152"}, {"size": "576"}]}}}}}, {"name": "model_13/tf.math.add_104/Add/y", "op": "Const", "attr": {"value": {"tensor": {"dtype": "DT_FLOAT", "tensorShape": {"dim": [{"size": "576"}]}}}, "dtype": {"type": "DT_FLOAT"}}}, {"name": "model_13/tf.compat.v1.nn.depthwise_conv2d_4/depthwise/filter_in", "op": "Const", "attr": {"dtype": {"type": "DT_FLOAT"}, "value": {"tensor": {"dtype": "DT_FLOAT", "tensorShape": {"dim": [{"size": "3"}, {"size": "3"}, {"size": "576"}, {"size": "1"}]}}}}}, {"name": "model_13/tf.math.add_106/Add/y", "op": "Const", "attr": {"dtype": {"type": "DT_FLOAT"}, "value": {"tensor": {"dtype": "DT_FLOAT", "tensorShape": {"dim": [{"size": "576"}]}}}}}, {"name": "model_13/tf.nn.convolution_79/convolution/filter", "op": "Const", "attr": {"dtype": {"type": "DT_FLOAT"}, "value": {"tensor": {"dtype": "DT_FLOAT", "tensorShape": {"dim": [{"size": "1"}, {"size": "1"}, {"size": "576"}, {"size": "192"}]}}}}}, {"name": "model_13/tf.math.add_108/Add/y", "op": "Const", "attr": {"dtype": {"type": "DT_FLOAT"}, "value": {"tensor": {"dtype": "DT_FLOAT", "tensorShape": {"dim": [{"size": "192"}]}}}}}, {"name": "model_13/tf.compat.v1.nn.depthwise_conv2d_5/depthwise/filter_in", "op": "Const", "attr": {"value": {"tensor": {"dtype": "DT_FLOAT", "tensorShape": {"dim": [{"size": "3"}, {"size": "3"}, {"size": "192"}, {"size": "1"}]}}}, "dtype": {"type": "DT_FLOAT"}}}, {"name": "model_13/tf.math.add_110/Add/y", "op": "Const", "attr": {"dtype": {"type": "DT_FLOAT"}, "value": {"tensor": {"dtype": "DT_FLOAT", "tensorShape": {"dim": [{"size": "192"}]}}}}}, {"name": "model_13/tf.nn.convolution_81/convolution/filter", "op": "Const", "attr": {"dtype": {"type": "DT_FLOAT"}, "value": {"tensor": {"dtype": "DT_FLOAT", "tensorShape": {"dim": [{"size": "1"}, {"size": "1"}, {"size": "192"}, {"size": "192"}]}}}}}, {"name": "model_13/tf.math.add_111/Add/y", "op": "Const", "attr": {"dtype": {"type": "DT_FLOAT"}, "value": {"tensor": {"dtype": "DT_FLOAT", "tensorShape": {"dim": [{"size": "192"}]}}}}}, {"name": "model_13/tf.nn.convolution_82/convolution/filter", "op": "Const", "attr": {"value": {"tensor": {"dtype": "DT_FLOAT", "tensorShape": {"dim": [{"size": "1"}, {"size": "1"}, {"size": "192"}, {"size": "63"}]}}}, "dtype": {"type": "DT_FLOAT"}}}, {"name": "model_13/tf.math.add_112/Add/y", "op": "Const", "attr": {"dtype": {"type": "DT_FLOAT"}, "value": {"tensor": {"dtype": "DT_FLOAT", "tensorShape": {"dim": [{"size": "63"}]}}}}}, {"name": "model_13/tf.concat_15/concat/axis", "op": "Const", "attr": {"value": {"tensor": {"dtype": "DT_INT32", "tensorShape": {}}}, "dtype": {"type": "DT_INT32"}}}, {"name": "model_13/tf.compat.v1.transpose_12/transpose/perm", "op": "Const", "attr": {"dtype": {"type": "DT_INT32"}, "value": {"tensor": {"dtype": "DT_INT32", "tensorShape": {"dim": [{"size": "4"}]}}}}}, {"name": "model_13/tf.reshape_8/Reshape/shape", "op": "Const", "attr": {"dtype": {"type": "DT_INT32"}, "value": {"tensor": {"dtype": "DT_INT32", "tensorShape": {"dim": [{"size": "3"}]}}}}}, {"name": "model_13/tf.concat_16/concat/axis", "op": "Const", "attr": {"value": {"tensor": {"dtype": "DT_INT32", "tensorShape": {}}}, "dtype": {"type": "DT_INT32"}}}, {"name": "model_13/tf.strided_slice_17/StridedSlice/begin", "op": "Const", "attr": {"dtype": {"type": "DT_INT64"}, "value": {"tensor": {"dtype": "DT_INT64", "tensorShape": {"dim": [{"size": "3"}]}}}}}, {"name": "model_13/tf.strided_slice_17/StridedSlice/end", "op": "Const", "attr": {"dtype": {"type": "DT_INT64"}, "value": {"tensor": {"dtype": "DT_INT64", "tensorShape": {"dim": [{"size": "3"}]}}}}}, {"name": "model_13/tf.strided_slice_17/StridedSlice/strides", "op": "Const", "attr": {"value": {"tensor": {"dtype": "DT_INT64", "tensorShape": {"dim": [{"size": "3"}]}}}, "dtype": {"type": "DT_INT64"}}}, {"name": "model_13/output0/concat/axis", "op": "Const", "attr": {"value": {"tensor": {"dtype": "DT_INT32", "tensorShape": {}}}, "dtype": {"type": "DT_INT32"}}}, {"name": "x", "op": "Placeholder", "attr": {"shape": {"shape": {"dim": [{"size": "1"}, {"size": "640"}, {"size": "640"}, {"size": "3"}]}}, "dtype": {"type": "DT_FLOAT"}}}, {"name": "model_13/tf.compat.v1.pad/Pad", "op": "Pad", "input": ["x", "model_13/tf.compat.v1.pad/Pad/paddings"], "attr": {"Tpaddings": {"type": "DT_INT32"}, "T": {"type": "DT_FLOAT"}}}, {"name": "model_13/tf.math.add/Add", "op": "_FusedConv2D", "input": ["model_13/tf.compat.v1.pad/Pad", "model_13/tf.nn.convolution/convolution/filter", "model_13/tf.math.add/Add/y"], "device": "/device:CPU:0", "attr": {"use_cudnn_on_gpu": {"b": true}, "TArgs": {"list": {"type": ["DT_FLOAT"]}}, "filter_format": {"s": "SFdJTw=="}, "num_args": {"i": "1"}, "num_host_args": {"i": "0"}, "T": {"type": "DT_FLOAT"}, "leakyrelu_alpha": {"f": 0.2}, "explicit_paddings": {"list": {}}, "dilations": {"list": {"i": ["1", "1", "1", "1"]}}, "strides": {"list": {"i": ["1", "2", "2", "1"]}}, "data_format": {"s": "TkhXQw=="}, "fused_ops": {"list": {"s": ["Qmlhc0FkZA=="]}}, "padding": {"s": "VkFMSUQ="}, "epsilon": {"f": 0.0}}}, {"name": "model_13/tf.math.sigmoid/Sigmoid", "op": "Sigmoid", "input": ["model_13/tf.math.add/Add"], "attr": {"T": {"type": "DT_FLOAT"}}}, {"name": "model_13/tf.math.multiply_3/Mul", "op": "Mul", "input": ["model_13/tf.math.add/Add", "model_13/tf.math.sigmoid/Sigmoid"], "attr": {"T": {"type": "DT_FLOAT"}}}, {"name": "model_13/tf.compat.v1.pad_1/Pad", "op": "Pad", "input": ["model_13/tf.math.multiply_3/Mul", "model_13/tf.compat.v1.pad_1/Pad/paddings"], "attr": {"T": {"type": "DT_FLOAT"}, "Tpaddings": {"type": "DT_INT32"}}}, {"name": "model_13/tf.math.add_1/Add", "op": "_FusedConv2D", "input": ["model_13/tf.compat.v1.pad_1/Pad", "model_13/tf.nn.convolution_1/convolution/filter", "model_13/tf.math.add_1/Add/y"], "device": "/device:CPU:0", "attr": {"num_args": {"i": "1"}, "data_format": {"s": "TkhXQw=="}, "fused_ops": {"list": {"s": ["Qmlhc0FkZA=="]}}, "strides": {"list": {"i": ["1", "2", "2", "1"]}}, "T": {"type": "DT_FLOAT"}, "num_host_args": {"i": "0"}, "dilations": {"list": {"i": ["1", "1", "1", "1"]}}, "explicit_paddings": {"list": {}}, "use_cudnn_on_gpu": {"b": true}, "TArgs": {"list": {"type": ["DT_FLOAT"]}}, "epsilon": {"f": 0.0}, "filter_format": {"s": "SFdJTw=="}, "leakyrelu_alpha": {"f": 0.2}, "padding": {"s": "VkFMSUQ="}}}, {"name": "model_13/tf.math.sigmoid_1/Sigmoid", "op": "Sigmoid", "input": ["model_13/tf.math.add_1/Add"], "attr": {"T": {"type": "DT_FLOAT"}}}, {"name": "model_13/tf.math.multiply_7/Mul", "op": "Mul", "input": ["model_13/tf.math.add_1/Add", "model_13/tf.math.sigmoid_1/Sigmoid"], "attr": {"T": {"type": "DT_FLOAT"}}}, {"name": "model_13/tf.math.add_2/Add", "op": "_FusedConv2D", "input": ["model_13/tf.math.multiply_7/Mul", "model_13/tf.nn.convolution_2/convolution/filter", "model_13/tf.math.add_2/Add/y"], "device": "/device:CPU:0", "attr": {"dilations": {"list": {"i": ["1", "1", "1", "1"]}}, "epsilon": {"f": 0.0}, "T": {"type": "DT_FLOAT"}, "explicit_paddings": {"list": {}}, "num_args": {"i": "1"}, "filter_format": {"s": "SFdJTw=="}, "strides": {"list": {"i": ["1", "1", "1", "1"]}}, "TArgs": {"list": {"type": ["DT_FLOAT"]}}, "leakyrelu_alpha": {"f": 0.2}, "padding": {"s": "U0FNRQ=="}, "use_cudnn_on_gpu": {"b": true}, "data_format": {"s": "TkhXQw=="}, "fused_ops": {"list": {"s": ["Qmlhc0FkZA=="]}}, "num_host_args": {"i": "0"}}}, {"name": "model_13/tf.math.sigmoid_2/Sigmoid", "op": "Sigmoid", "input": ["model_13/tf.math.add_2/Add"], "attr": {"T": {"type": "DT_FLOAT"}}}, {"name": "model_13/tf.math.multiply_11/Mul", "op": "Mul", "input": ["model_13/tf.math.add_2/Add", "model_13/tf.math.sigmoid_2/Sigmoid"], "attr": {"T": {"type": "DT_FLOAT"}}}, {"name": "model_13/tf.strided_slice/StridedSlice", "op": "StridedSlice", "input": ["model_13/tf.math.multiply_11/Mul", "model_13/tf.strided_slice/ones_like/tensor", "model_13/tf.strided_slice/StridedSlice/end", "model_13/tf.strided_slice/ones_like"], "attr": {"end_mask": {"i": "7"}, "new_axis_mask": {"i": "0"}, "ellipsis_mask": {"i": "0"}, "begin_mask": {"i": "15"}, "shrink_axis_mask": {"i": "0"}, "Index": {"type": "DT_INT64"}, "T": {"type": "DT_FLOAT"}}}, {"name": "model_13/tf.strided_slice_1/StridedSlice", "op": "StridedSlice", "input": ["model_13/tf.math.multiply_11/Mul", "model_13/tf.strided_slice_1/ones_like/tensor", "model_13/tf.strided_slice_1/StridedSlice/end", "model_13/tf.strided_slice_1/ones_like"], "attr": {"new_axis_mask": {"i": "0"}, "shrink_axis_mask": {"i": "0"}, "Index": {"type": "DT_INT64"}, "begin_mask": {"i": "7"}, "end_mask": {"i": "7"}, "T": {"type": "DT_FLOAT"}, "ellipsis_mask": {"i": "0"}}}, {"name": "model_13/tf.math.add_3/Add", "op": "_FusedConv2D", "input": ["model_13/tf.strided_slice_1/StridedSlice", "model_13/tf.nn.convolution_3/convolution/filter", "model_13/tf.math.add_3/Add/y"], "device": "/device:CPU:0", "attr": {"TArgs": {"list": {"type": ["DT_FLOAT"]}}, "data_format": {"s": "TkhXQw=="}, "strides": {"list": {"i": ["1", "1", "1", "1"]}}, "explicit_paddings": {"list": {}}, "fused_ops": {"list": {"s": ["Qmlhc0FkZA=="]}}, "filter_format": {"s": "SFdJTw=="}, "leakyrelu_alpha": {"f": 0.2}, "T": {"type": "DT_FLOAT"}, "epsilon": {"f": 0.0}, "num_host_args": {"i": "0"}, "padding": {"s": "U0FNRQ=="}, "use_cudnn_on_gpu": {"b": true}, "dilations": {"list": {"i": ["1", "1", "1", "1"]}}, "num_args": {"i": "1"}}}, {"name": "model_13/tf.math.sigmoid_3/Sigmoid", "op": "Sigmoid", "input": ["model_13/tf.math.add_3/Add"], "attr": {"T": {"type": "DT_FLOAT"}}}, {"name": "model_13/tf.math.multiply_15/Mul", "op": "Mul", "input": ["model_13/tf.math.add_3/Add", "model_13/tf.math.sigmoid_3/Sigmoid"], "attr": {"T": {"type": "DT_FLOAT"}}}, {"name": "model_13/tf.math.add_4/Add", "op": "_FusedConv2D", "input": ["model_13/tf.math.multiply_15/Mul", "model_13/tf.nn.convolution_4/convolution/filter", "model_13/tf.math.add_4/Add/y"], "device": "/device:CPU:0", "attr": {"TArgs": {"list": {"type": ["DT_FLOAT"]}}, "leakyrelu_alpha": {"f": 0.2}, "num_args": {"i": "1"}, "num_host_args": {"i": "0"}, "T": {"type": "DT_FLOAT"}, "dilations": {"list": {"i": ["1", "1", "1", "1"]}}, "epsilon": {"f": 0.0}, "strides": {"list": {"i": ["1", "1", "1", "1"]}}, "explicit_paddings": {"list": {}}, "use_cudnn_on_gpu": {"b": true}, "padding": {"s": "U0FNRQ=="}, "data_format": {"s": "TkhXQw=="}, "filter_format": {"s": "SFdJTw=="}, "fused_ops": {"list": {"s": ["Qmlhc0FkZA=="]}}}}, {"name": "model_13/tf.math.sigmoid_4/Sigmoid", "op": "Sigmoid", "input": ["model_13/tf.math.add_4/Add"], "attr": {"T": {"type": "DT_FLOAT"}}}, {"name": "model_13/tf.math.multiply_19/Mul", "op": "Mul", "input": ["model_13/tf.math.add_4/Add", "model_13/tf.math.sigmoid_4/Sigmoid"], "attr": {"T": {"type": "DT_FLOAT"}}}, {"name": "model_13/tf.math.add_6/Add", "op": "AddV2", "input": ["model_13/tf.strided_slice_1/StridedSlice", "model_13/tf.math.multiply_19/Mul"], "attr": {"T": {"type": "DT_FLOAT"}}}, {"name": "model_13/tf.math.add_7/Add", "op": "_FusedConv2D", "input": ["model_13/tf.math.add_6/Add", "model_13/tf.nn.convolution_5/convolution/filter", "model_13/tf.math.add_7/Add/y"], "device": "/device:CPU:0", "attr": {"dilations": {"list": {"i": ["1", "1", "1", "1"]}}, "strides": {"list": {"i": ["1", "1", "1", "1"]}}, "data_format": {"s": "TkhXQw=="}, "padding": {"s": "U0FNRQ=="}, "num_host_args": {"i": "0"}, "epsilon": {"f": 0.0}, "fused_ops": {"list": {"s": ["Qmlhc0FkZA=="]}}, "leakyrelu_alpha": {"f": 0.2}, "use_cudnn_on_gpu": {"b": true}, "TArgs": {"list": {"type": ["DT_FLOAT"]}}, "filter_format": {"s": "SFdJTw=="}, "T": {"type": "DT_FLOAT"}, "explicit_paddings": {"list": {}}, "num_args": {"i": "1"}}}, {"name": "model_13/tf.math.sigmoid_5/Sigmoid", "op": "Sigmoid", "input": ["model_13/tf.math.add_7/Add"], "attr": {"T": {"type": "DT_FLOAT"}}}, {"name": "model_13/tf.math.multiply_25/Mul", "op": "Mul", "input": ["model_13/tf.math.add_7/Add", "model_13/tf.math.sigmoid_5/Sigmoid"], "attr": {"T": {"type": "DT_FLOAT"}}}, {"name": "model_13/tf.math.add_8/Add", "op": "_FusedConv2D", "input": ["model_13/tf.math.multiply_25/Mul", "model_13/tf.nn.convolution_6/convolution/filter", "model_13/tf.math.add_8/Add/y"], "device": "/device:CPU:0", "attr": {"explicit_paddings": {"list": {}}, "num_args": {"i": "1"}, "data_format": {"s": "TkhXQw=="}, "epsilon": {"f": 0.0}, "filter_format": {"s": "SFdJTw=="}, "padding": {"s": "U0FNRQ=="}, "T": {"type": "DT_FLOAT"}, "dilations": {"list": {"i": ["1", "1", "1", "1"]}}, "strides": {"list": {"i": ["1", "1", "1", "1"]}}, "fused_ops": {"list": {"s": ["Qmlhc0FkZA=="]}}, "TArgs": {"list": {"type": ["DT_FLOAT"]}}, "leakyrelu_alpha": {"f": 0.2}, "use_cudnn_on_gpu": {"b": true}, "num_host_args": {"i": "0"}}}, {"name": "model_13/tf.math.sigmoid_6/Sigmoid", "op": "Sigmoid", "input": ["model_13/tf.math.add_8/Add"], "attr": {"T": {"type": "DT_FLOAT"}}}, {"name": "model_13/tf.math.multiply_29/Mul", "op": "Mul", "input": ["model_13/tf.math.add_8/Add", "model_13/tf.math.sigmoid_6/Sigmoid"], "attr": {"T": {"type": "DT_FLOAT"}}}, {"name": "model_13/tf.math.add_10/Add", "op": "AddV2", "input": ["model_13/tf.math.add_6/Add", "model_13/tf.math.multiply_29/Mul"], "attr": {"T": {"type": "DT_FLOAT"}}}, {"name": "model_13/tf.concat/concat", "op": "ConcatV2", "input": ["model_13/tf.strided_slice/StridedSlice", "model_13/tf.strided_slice_1/StridedSlice", "model_13/tf.math.add_6/Add", "model_13/tf.math.add_10/Add", "model_13/tf.concat/concat/axis"], "attr": {"T": {"type": "DT_FLOAT"}, "N": {"i": "4"}, "Tidx": {"type": "DT_INT32"}}}, {"name": "model_13/tf.math.add_11/Add", "op": "_FusedConv2D", "input": ["model_13/tf.concat/concat", "model_13/tf.nn.convolution_7/convolution/filter", "model_13/tf.math.add_11/Add/y"], "device": "/device:CPU:0", "attr": {"data_format": {"s": "TkhXQw=="}, "num_args": {"i": "1"}, "filter_format": {"s": "SFdJTw=="}, "num_host_args": {"i": "0"}, "use_cudnn_on_gpu": {"b": true}, "explicit_paddings": {"list": {}}, "dilations": {"list": {"i": ["1", "1", "1", "1"]}}, "fused_ops": {"list": {"s": ["Qmlhc0FkZA=="]}}, "leakyrelu_alpha": {"f": 0.2}, "padding": {"s": "U0FNRQ=="}, "epsilon": {"f": 0.0}, "TArgs": {"list": {"type": ["DT_FLOAT"]}}, "strides": {"list": {"i": ["1", "1", "1", "1"]}}, "T": {"type": "DT_FLOAT"}}}, {"name": "model_13/tf.math.sigmoid_7/Sigmoid", "op": "Sigmoid", "input": ["model_13/tf.math.add_11/Add"], "attr": {"T": {"type": "DT_FLOAT"}}}, {"name": "model_13/tf.math.multiply_35/Mul", "op": "Mul", "input": ["model_13/tf.math.add_11/Add", "model_13/tf.math.sigmoid_7/Sigmoid"], "attr": {"T": {"type": "DT_FLOAT"}}}, {"name": "model_13/tf.compat.v1.pad_2/Pad", "op": "Pad", "input": ["model_13/tf.math.multiply_35/Mul", "model_13/tf.compat.v1.pad_2/Pad/paddings"], "attr": {"Tpaddings": {"type": "DT_INT32"}, "T": {"type": "DT_FLOAT"}}}, {"name": "model_13/tf.math.add_12/Add", "op": "_FusedConv2D", "input": ["model_13/tf.compat.v1.pad_2/Pad", "model_13/tf.nn.convolution_8/convolution/filter", "model_13/tf.math.add_12/Add/y"], "device": "/device:CPU:0", "attr": {"leakyrelu_alpha": {"f": 0.2}, "T": {"type": "DT_FLOAT"}, "num_args": {"i": "1"}, "epsilon": {"f": 0.0}, "dilations": {"list": {"i": ["1", "1", "1", "1"]}}, "explicit_paddings": {"list": {}}, "strides": {"list": {"i": ["1", "2", "2", "1"]}}, "filter_format": {"s": "SFdJTw=="}, "use_cudnn_on_gpu": {"b": true}, "TArgs": {"list": {"type": ["DT_FLOAT"]}}, "num_host_args": {"i": "0"}, "padding": {"s": "VkFMSUQ="}, "data_format": {"s": "TkhXQw=="}, "fused_ops": {"list": {"s": ["Qmlhc0FkZA=="]}}}}, {"name": "model_13/tf.math.sigmoid_8/Sigmoid", "op": "Sigmoid", "input": ["model_13/tf.math.add_12/Add"], "attr": {"T": {"type": "DT_FLOAT"}}}, {"name": "model_13/tf.math.multiply_39/Mul", "op": "Mul", "input": ["model_13/tf.math.add_12/Add", "model_13/tf.math.sigmoid_8/Sigmoid"], "attr": {"T": {"type": "DT_FLOAT"}}}, {"name": "model_13/tf.math.add_13/Add", "op": "_FusedConv2D", "input": ["model_13/tf.math.multiply_39/Mul", "model_13/tf.nn.convolution_9/convolution/filter", "model_13/tf.math.add_13/Add/y"], "device": "/device:CPU:0", "attr": {"TArgs": {"list": {"type": ["DT_FLOAT"]}}, "num_host_args": {"i": "0"}, "filter_format": {"s": "SFdJTw=="}, "data_format": {"s": "TkhXQw=="}, "T": {"type": "DT_FLOAT"}, "use_cudnn_on_gpu": {"b": true}, "leakyrelu_alpha": {"f": 0.2}, "fused_ops": {"list": {"s": ["Qmlhc0FkZA=="]}}, "dilations": {"list": {"i": ["1", "1", "1", "1"]}}, "padding": {"s": "U0FNRQ=="}, "epsilon": {"f": 0.0}, "strides": {"list": {"i": ["1", "1", "1", "1"]}}, "explicit_paddings": {"list": {}}, "num_args": {"i": "1"}}}, {"name": "model_13/tf.math.sigmoid_9/Sigmoid", "op": "Sigmoid", "input": ["model_13/tf.math.add_13/Add"], "attr": {"T": {"type": "DT_FLOAT"}}}, {"name": "model_13/tf.math.multiply_43/Mul", "op": "Mul", "input": ["model_13/tf.math.add_13/Add", "model_13/tf.math.sigmoid_9/Sigmoid"], "attr": {"T": {"type": "DT_FLOAT"}}}, {"name": "model_13/tf.strided_slice_2/StridedSlice", "op": "StridedSlice", "input": ["model_13/tf.math.multiply_43/Mul", "model_13/tf.strided_slice_2/ones_like/tensor", "model_13/tf.strided_slice_2/StridedSlice/end", "model_13/tf.strided_slice_2/ones_like"], "attr": {"end_mask": {"i": "7"}, "new_axis_mask": {"i": "0"}, "T": {"type": "DT_FLOAT"}, "ellipsis_mask": {"i": "0"}, "shrink_axis_mask": {"i": "0"}, "Index": {"type": "DT_INT64"}, "begin_mask": {"i": "15"}}}, {"name": "model_13/tf.strided_slice_3/StridedSlice", "op": "StridedSlice", "input": ["model_13/tf.math.multiply_43/Mul", "model_13/tf.strided_slice_3/ones_like/tensor", "model_13/tf.strided_slice_3/StridedSlice/end", "model_13/tf.strided_slice_3/ones_like"], "attr": {"end_mask": {"i": "7"}, "Index": {"type": "DT_INT64"}, "ellipsis_mask": {"i": "0"}, "new_axis_mask": {"i": "0"}, "begin_mask": {"i": "7"}, "T": {"type": "DT_FLOAT"}, "shrink_axis_mask": {"i": "0"}}}, {"name": "model_13/tf.math.add_14/Add", "op": "_FusedConv2D", "input": ["model_13/tf.strided_slice_3/StridedSlice", "model_13/tf.nn.convolution_10/convolution/filter", "model_13/tf.math.add_14/Add/y"], "device": "/device:CPU:0", "attr": {"dilations": {"list": {"i": ["1", "1", "1", "1"]}}, "epsilon": {"f": 0.0}, "data_format": {"s": "TkhXQw=="}, "explicit_paddings": {"list": {}}, "strides": {"list": {"i": ["1", "1", "1", "1"]}}, "TArgs": {"list": {"type": ["DT_FLOAT"]}}, "num_host_args": {"i": "0"}, "T": {"type": "DT_FLOAT"}, "filter_format": {"s": "SFdJTw=="}, "num_args": {"i": "1"}, "padding": {"s": "U0FNRQ=="}, "use_cudnn_on_gpu": {"b": true}, "leakyrelu_alpha": {"f": 0.2}, "fused_ops": {"list": {"s": ["Qmlhc0FkZA=="]}}}}, {"name": "model_13/tf.math.sigmoid_10/Sigmoid", "op": "Sigmoid", "input": ["model_13/tf.math.add_14/Add"], "attr": {"T": {"type": "DT_FLOAT"}}}, {"name": "model_13/tf.math.multiply_47/Mul", "op": "Mul", "input": ["model_13/tf.math.add_14/Add", "model_13/tf.math.sigmoid_10/Sigmoid"], "attr": {"T": {"type": "DT_FLOAT"}}}, {"name": "model_13/tf.math.add_15/Add", "op": "_FusedConv2D", "input": ["model_13/tf.math.multiply_47/Mul", "model_13/tf.nn.convolution_11/convolution/filter", "model_13/tf.math.add_15/Add/y"], "device": "/device:CPU:0", "attr": {"fused_ops": {"list": {"s": ["Qmlhc0FkZA=="]}}, "strides": {"list": {"i": ["1", "1", "1", "1"]}}, "filter_format": {"s": "SFdJTw=="}, "explicit_paddings": {"list": {}}, "leakyrelu_alpha": {"f": 0.2}, "num_args": {"i": "1"}, "num_host_args": {"i": "0"}, "data_format": {"s": "TkhXQw=="}, "use_cudnn_on_gpu": {"b": true}, "T": {"type": "DT_FLOAT"}, "epsilon": {"f": 0.0}, "dilations": {"list": {"i": ["1", "1", "1", "1"]}}, "padding": {"s": "U0FNRQ=="}, "TArgs": {"list": {"type": ["DT_FLOAT"]}}}}, {"name": "model_13/tf.math.sigmoid_11/Sigmoid", "op": "Sigmoid", "input": ["model_13/tf.math.add_15/Add"], "attr": {"T": {"type": "DT_FLOAT"}}}, {"name": "model_13/tf.math.multiply_51/Mul", "op": "Mul", "input": ["model_13/tf.math.add_15/Add", "model_13/tf.math.sigmoid_11/Sigmoid"], "attr": {"T": {"type": "DT_FLOAT"}}}, {"name": "model_13/tf.math.add_17/Add", "op": "AddV2", "input": ["model_13/tf.strided_slice_3/StridedSlice", "model_13/tf.math.multiply_51/Mul"], "attr": {"T": {"type": "DT_FLOAT"}}}, {"name": "model_13/tf.math.add_18/Add", "op": "_FusedConv2D", "input": ["model_13/tf.math.add_17/Add", "model_13/tf.nn.convolution_12/convolution/filter", "model_13/tf.math.add_18/Add/y"], "device": "/device:CPU:0", "attr": {"fused_ops": {"list": {"s": ["Qmlhc0FkZA=="]}}, "leakyrelu_alpha": {"f": 0.2}, "num_args": {"i": "1"}, "data_format": {"s": "TkhXQw=="}, "num_host_args": {"i": "0"}, "epsilon": {"f": 0.0}, "use_cudnn_on_gpu": {"b": true}, "filter_format": {"s": "SFdJTw=="}, "padding": {"s": "U0FNRQ=="}, "TArgs": {"list": {"type": ["DT_FLOAT"]}}, "T": {"type": "DT_FLOAT"}, "strides": {"list": {"i": ["1", "1", "1", "1"]}}, "explicit_paddings": {"list": {}}, "dilations": {"list": {"i": ["1", "1", "1", "1"]}}}}, {"name": "model_13/tf.math.sigmoid_12/Sigmoid", "op": "Sigmoid", "input": ["model_13/tf.math.add_18/Add"], "attr": {"T": {"type": "DT_FLOAT"}}}, {"name": "model_13/tf.math.multiply_57/Mul", "op": "Mul", "input": ["model_13/tf.math.add_18/Add", "model_13/tf.math.sigmoid_12/Sigmoid"], "attr": {"T": {"type": "DT_FLOAT"}}}, {"name": "model_13/tf.math.add_19/Add", "op": "_FusedConv2D", "input": ["model_13/tf.math.multiply_57/Mul", "model_13/tf.nn.convolution_13/convolution/filter", "model_13/tf.math.add_19/Add/y"], "device": "/device:CPU:0", "attr": {"leakyrelu_alpha": {"f": 0.2}, "use_cudnn_on_gpu": {"b": true}, "filter_format": {"s": "SFdJTw=="}, "dilations": {"list": {"i": ["1", "1", "1", "1"]}}, "fused_ops": {"list": {"s": ["Qmlhc0FkZA=="]}}, "padding": {"s": "U0FNRQ=="}, "TArgs": {"list": {"type": ["DT_FLOAT"]}}, "num_host_args": {"i": "0"}, "strides": {"list": {"i": ["1", "1", "1", "1"]}}, "epsilon": {"f": 0.0}, "num_args": {"i": "1"}, "explicit_paddings": {"list": {}}, "data_format": {"s": "TkhXQw=="}, "T": {"type": "DT_FLOAT"}}}, {"name": "model_13/tf.math.sigmoid_13/Sigmoid", "op": "Sigmoid", "input": ["model_13/tf.math.add_19/Add"], "attr": {"T": {"type": "DT_FLOAT"}}}, {"name": "model_13/tf.math.multiply_61/Mul", "op": "Mul", "input": ["model_13/tf.math.add_19/Add", "model_13/tf.math.sigmoid_13/Sigmoid"], "attr": {"T": {"type": "DT_FLOAT"}}}, {"name": "model_13/tf.math.add_21/Add", "op": "AddV2", "input": ["model_13/tf.math.add_17/Add", "model_13/tf.math.multiply_61/Mul"], "attr": {"T": {"type": "DT_FLOAT"}}}, {"name": "model_13/tf.math.add_22/Add", "op": "_FusedConv2D", "input": ["model_13/tf.math.add_21/Add", "model_13/tf.nn.convolution_14/convolution/filter", "model_13/tf.math.add_22/Add/y"], "device": "/device:CPU:0", "attr": {"leakyrelu_alpha": {"f": 0.2}, "TArgs": {"list": {"type": ["DT_FLOAT"]}}, "fused_ops": {"list": {"s": ["Qmlhc0FkZA=="]}}, "strides": {"list": {"i": ["1", "1", "1", "1"]}}, "T": {"type": "DT_FLOAT"}, "use_cudnn_on_gpu": {"b": true}, "data_format": {"s": "TkhXQw=="}, "padding": {"s": "U0FNRQ=="}, "dilations": {"list": {"i": ["1", "1", "1", "1"]}}, "explicit_paddings": {"list": {}}, "num_args": {"i": "1"}, "epsilon": {"f": 0.0}, "filter_format": {"s": "SFdJTw=="}, "num_host_args": {"i": "0"}}}, {"name": "model_13/tf.math.sigmoid_14/Sigmoid", "op": "Sigmoid", "input": ["model_13/tf.math.add_22/Add"], "attr": {"T": {"type": "DT_FLOAT"}}}, {"name": "model_13/tf.math.multiply_67/Mul", "op": "Mul", "input": ["model_13/tf.math.add_22/Add", "model_13/tf.math.sigmoid_14/Sigmoid"], "attr": {"T": {"type": "DT_FLOAT"}}}, {"name": "model_13/tf.math.add_23/Add", "op": "_FusedConv2D", "input": ["model_13/tf.math.multiply_67/Mul", "model_13/tf.nn.convolution_15/convolution/filter", "model_13/tf.math.add_23/Add/y"], "device": "/device:CPU:0", "attr": {"padding": {"s": "U0FNRQ=="}, "dilations": {"list": {"i": ["1", "1", "1", "1"]}}, "use_cudnn_on_gpu": {"b": true}, "explicit_paddings": {"list": {}}, "TArgs": {"list": {"type": ["DT_FLOAT"]}}, "data_format": {"s": "TkhXQw=="}, "num_host_args": {"i": "0"}, "fused_ops": {"list": {"s": ["Qmlhc0FkZA=="]}}, "num_args": {"i": "1"}, "epsilon": {"f": 0.0}, "strides": {"list": {"i": ["1", "1", "1", "1"]}}, "filter_format": {"s": "SFdJTw=="}, "leakyrelu_alpha": {"f": 0.2}, "T": {"type": "DT_FLOAT"}}}, {"name": "model_13/tf.math.sigmoid_15/Sigmoid", "op": "Sigmoid", "input": ["model_13/tf.math.add_23/Add"], "attr": {"T": {"type": "DT_FLOAT"}}}, {"name": "model_13/tf.math.multiply_71/Mul", "op": "Mul", "input": ["model_13/tf.math.add_23/Add", "model_13/tf.math.sigmoid_15/Sigmoid"], "attr": {"T": {"type": "DT_FLOAT"}}}, {"name": "model_13/tf.math.add_25/Add", "op": "AddV2", "input": ["model_13/tf.math.add_21/Add", "model_13/tf.math.multiply_71/Mul"], "attr": {"T": {"type": "DT_FLOAT"}}}, {"name": "model_13/tf.math.add_26/Add", "op": "_FusedConv2D", "input": ["model_13/tf.math.add_25/Add", "model_13/tf.nn.convolution_16/convolution/filter", "model_13/tf.math.add_26/Add/y"], "device": "/device:CPU:0", "attr": {"fused_ops": {"list": {"s": ["Qmlhc0FkZA=="]}}, "num_host_args": {"i": "0"}, "explicit_paddings": {"list": {}}, "data_format": {"s": "TkhXQw=="}, "TArgs": {"list": {"type": ["DT_FLOAT"]}}, "T": {"type": "DT_FLOAT"}, "strides": {"list": {"i": ["1", "1", "1", "1"]}}, "padding": {"s": "U0FNRQ=="}, "dilations": {"list": {"i": ["1", "1", "1", "1"]}}, "filter_format": {"s": "SFdJTw=="}, "epsilon": {"f": 0.0}, "leakyrelu_alpha": {"f": 0.2}, "num_args": {"i": "1"}, "use_cudnn_on_gpu": {"b": true}}}, {"name": "model_13/tf.math.sigmoid_16/Sigmoid", "op": "Sigmoid", "input": ["model_13/tf.math.add_26/Add"], "attr": {"T": {"type": "DT_FLOAT"}}}, {"name": "model_13/tf.math.multiply_77/Mul", "op": "Mul", "input": ["model_13/tf.math.add_26/Add", "model_13/tf.math.sigmoid_16/Sigmoid"], "attr": {"T": {"type": "DT_FLOAT"}}}, {"name": "model_13/tf.math.add_27/Add", "op": "_FusedConv2D", "input": ["model_13/tf.math.multiply_77/Mul", "model_13/tf.nn.convolution_17/convolution/filter", "model_13/tf.math.add_27/Add/y"], "device": "/device:CPU:0", "attr": {"explicit_paddings": {"list": {}}, "padding": {"s": "U0FNRQ=="}, "dilations": {"list": {"i": ["1", "1", "1", "1"]}}, "data_format": {"s": "TkhXQw=="}, "filter_format": {"s": "SFdJTw=="}, "fused_ops": {"list": {"s": ["Qmlhc0FkZA=="]}}, "use_cudnn_on_gpu": {"b": true}, "T": {"type": "DT_FLOAT"}, "epsilon": {"f": 0.0}, "num_args": {"i": "1"}, "TArgs": {"list": {"type": ["DT_FLOAT"]}}, "leakyrelu_alpha": {"f": 0.2}, "strides": {"list": {"i": ["1", "1", "1", "1"]}}, "num_host_args": {"i": "0"}}}, {"name": "model_13/tf.math.sigmoid_17/Sigmoid", "op": "Sigmoid", "input": ["model_13/tf.math.add_27/Add"], "attr": {"T": {"type": "DT_FLOAT"}}}, {"name": "model_13/tf.math.multiply_81/Mul", "op": "Mul", "input": ["model_13/tf.math.add_27/Add", "model_13/tf.math.sigmoid_17/Sigmoid"], "attr": {"T": {"type": "DT_FLOAT"}}}, {"name": "model_13/tf.math.add_29/Add", "op": "AddV2", "input": ["model_13/tf.math.add_25/Add", "model_13/tf.math.multiply_81/Mul"], "attr": {"T": {"type": "DT_FLOAT"}}}, {"name": "model_13/tf.concat_1/concat", "op": "ConcatV2", "input": ["model_13/tf.strided_slice_2/StridedSlice", "model_13/tf.strided_slice_3/StridedSlice", "model_13/tf.math.add_17/Add", "model_13/tf.math.add_21/Add", "model_13/tf.math.add_25/Add", "model_13/tf.math.add_29/Add", "model_13/tf.concat_1/concat/axis"], "attr": {"T": {"type": "DT_FLOAT"}, "N": {"i": "6"}, "Tidx": {"type": "DT_INT32"}}}, {"name": "model_13/tf.math.add_30/Add", "op": "_FusedConv2D", "input": ["model_13/tf.concat_1/concat", "model_13/tf.nn.convolution_18/convolution/filter", "model_13/tf.math.add_30/Add/y"], "device": "/device:CPU:0", "attr": {"fused_ops": {"list": {"s": ["Qmlhc0FkZA=="]}}, "T": {"type": "DT_FLOAT"}, "filter_format": {"s": "SFdJTw=="}, "epsilon": {"f": 0.0}, "strides": {"list": {"i": ["1", "1", "1", "1"]}}, "explicit_paddings": {"list": {}}, "padding": {"s": "U0FNRQ=="}, "TArgs": {"list": {"type": ["DT_FLOAT"]}}, "use_cudnn_on_gpu": {"b": true}, "dilations": {"list": {"i": ["1", "1", "1", "1"]}}, "num_host_args": {"i": "0"}, "num_args": {"i": "1"}, "data_format": {"s": "TkhXQw=="}, "leakyrelu_alpha": {"f": 0.2}}}, {"name": "model_13/tf.math.sigmoid_18/Sigmoid", "op": "Sigmoid", "input": ["model_13/tf.math.add_30/Add"], "attr": {"T": {"type": "DT_FLOAT"}}}, {"name": "model_13/tf.math.multiply_87/Mul", "op": "Mul", "input": ["model_13/tf.math.add_30/Add", "model_13/tf.math.sigmoid_18/Sigmoid"], "attr": {"T": {"type": "DT_FLOAT"}}}, {"name": "model_13/tf.compat.v1.pad_3/Pad", "op": "Pad", "input": ["model_13/tf.math.multiply_87/Mul", "model_13/tf.compat.v1.pad_3/Pad/paddings"], "attr": {"Tpaddings": {"type": "DT_INT32"}, "T": {"type": "DT_FLOAT"}}}, {"name": "model_13/tf.math.add_31/Add", "op": "_FusedConv2D", "input": ["model_13/tf.compat.v1.pad_3/Pad", "model_13/tf.nn.convolution_19/convolution/filter", "model_13/tf.math.add_31/Add/y"], "device": "/device:CPU:0", "attr": {"strides": {"list": {"i": ["1", "2", "2", "1"]}}, "leakyrelu_alpha": {"f": 0.2}, "data_format": {"s": "TkhXQw=="}, "fused_ops": {"list": {"s": ["Qmlhc0FkZA=="]}}, "num_args": {"i": "1"}, "padding": {"s": "VkFMSUQ="}, "T": {"type": "DT_FLOAT"}, "epsilon": {"f": 0.0}, "use_cudnn_on_gpu": {"b": true}, "TArgs": {"list": {"type": ["DT_FLOAT"]}}, "dilations": {"list": {"i": ["1", "1", "1", "1"]}}, "explicit_paddings": {"list": {}}, "filter_format": {"s": "SFdJTw=="}, "num_host_args": {"i": "0"}}}, {"name": "model_13/tf.math.sigmoid_19/Sigmoid", "op": "Sigmoid", "input": ["model_13/tf.math.add_31/Add"], "attr": {"T": {"type": "DT_FLOAT"}}}, {"name": "model_13/tf.math.multiply_91/Mul", "op": "Mul", "input": ["model_13/tf.math.add_31/Add", "model_13/tf.math.sigmoid_19/Sigmoid"], "attr": {"T": {"type": "DT_FLOAT"}}}, {"name": "model_13/tf.math.add_32/Add", "op": "_FusedConv2D", "input": ["model_13/tf.math.multiply_91/Mul", "model_13/tf.nn.convolution_20/convolution/filter", "model_13/tf.math.add_32/Add/y"], "device": "/device:CPU:0", "attr": {"use_cudnn_on_gpu": {"b": true}, "padding": {"s": "U0FNRQ=="}, "epsilon": {"f": 0.0}, "strides": {"list": {"i": ["1", "1", "1", "1"]}}, "explicit_paddings": {"list": {}}, "filter_format": {"s": "SFdJTw=="}, "leakyrelu_alpha": {"f": 0.2}, "num_args": {"i": "1"}, "T": {"type": "DT_FLOAT"}, "TArgs": {"list": {"type": ["DT_FLOAT"]}}, "fused_ops": {"list": {"s": ["Qmlhc0FkZA=="]}}, "data_format": {"s": "TkhXQw=="}, "dilations": {"list": {"i": ["1", "1", "1", "1"]}}, "num_host_args": {"i": "0"}}}, {"name": "model_13/tf.math.sigmoid_20/Sigmoid", "op": "Sigmoid", "input": ["model_13/tf.math.add_32/Add"], "attr": {"T": {"type": "DT_FLOAT"}}}, {"name": "model_13/tf.math.multiply_95/Mul", "op": "Mul", "input": ["model_13/tf.math.add_32/Add", "model_13/tf.math.sigmoid_20/Sigmoid"], "attr": {"T": {"type": "DT_FLOAT"}}}, {"name": "model_13/tf.strided_slice_4/StridedSlice", "op": "StridedSlice", "input": ["model_13/tf.math.multiply_95/Mul", "model_13/tf.strided_slice_4/ones_like/tensor", "model_13/tf.strided_slice_4/StridedSlice/end", "model_13/tf.strided_slice_4/ones_like"], "attr": {"shrink_axis_mask": {"i": "0"}, "ellipsis_mask": {"i": "0"}, "T": {"type": "DT_FLOAT"}, "begin_mask": {"i": "15"}, "end_mask": {"i": "7"}, "Index": {"type": "DT_INT64"}, "new_axis_mask": {"i": "0"}}}, {"name": "model_13/tf.strided_slice_5/StridedSlice", "op": "StridedSlice", "input": ["model_13/tf.math.multiply_95/Mul", "model_13/tf.strided_slice_5/ones_like/tensor", "model_13/tf.strided_slice_5/StridedSlice/end", "model_13/tf.strided_slice_5/ones_like"], "attr": {"ellipsis_mask": {"i": "0"}, "begin_mask": {"i": "7"}, "shrink_axis_mask": {"i": "0"}, "end_mask": {"i": "7"}, "new_axis_mask": {"i": "0"}, "Index": {"type": "DT_INT64"}, "T": {"type": "DT_FLOAT"}}}, {"name": "model_13/tf.math.add_33/Add", "op": "_FusedConv2D", "input": ["model_13/tf.strided_slice_5/StridedSlice", "model_13/tf.nn.convolution_21/convolution/filter", "model_13/tf.math.add_33/Add/y"], "device": "/device:CPU:0", "attr": {"TArgs": {"list": {"type": ["DT_FLOAT"]}}, "leakyrelu_alpha": {"f": 0.2}, "strides": {"list": {"i": ["1", "1", "1", "1"]}}, "dilations": {"list": {"i": ["1", "1", "1", "1"]}}, "num_host_args": {"i": "0"}, "explicit_paddings": {"list": {}}, "padding": {"s": "U0FNRQ=="}, "num_args": {"i": "1"}, "data_format": {"s": "TkhXQw=="}, "epsilon": {"f": 0.0}, "filter_format": {"s": "SFdJTw=="}, "T": {"type": "DT_FLOAT"}, "use_cudnn_on_gpu": {"b": true}, "fused_ops": {"list": {"s": ["Qmlhc0FkZA=="]}}}}, {"name": "model_13/tf.math.sigmoid_21/Sigmoid", "op": "Sigmoid", "input": ["model_13/tf.math.add_33/Add"], "attr": {"T": {"type": "DT_FLOAT"}}}, {"name": "model_13/tf.math.multiply_99/Mul", "op": "Mul", "input": ["model_13/tf.math.add_33/Add", "model_13/tf.math.sigmoid_21/Sigmoid"], "attr": {"T": {"type": "DT_FLOAT"}}}, {"name": "model_13/tf.math.add_34/Add", "op": "_FusedConv2D", "input": ["model_13/tf.math.multiply_99/Mul", "model_13/tf.nn.convolution_22/convolution/filter", "model_13/tf.math.add_34/Add/y"], "device": "/device:CPU:0", "attr": {"padding": {"s": "U0FNRQ=="}, "TArgs": {"list": {"type": ["DT_FLOAT"]}}, "num_host_args": {"i": "0"}, "epsilon": {"f": 0.0}, "data_format": {"s": "TkhXQw=="}, "fused_ops": {"list": {"s": ["Qmlhc0FkZA=="]}}, "leakyrelu_alpha": {"f": 0.2}, "use_cudnn_on_gpu": {"b": true}, "num_args": {"i": "1"}, "dilations": {"list": {"i": ["1", "1", "1", "1"]}}, "strides": {"list": {"i": ["1", "1", "1", "1"]}}, "filter_format": {"s": "SFdJTw=="}, "T": {"type": "DT_FLOAT"}, "explicit_paddings": {"list": {}}}}, {"name": "model_13/tf.math.sigmoid_22/Sigmoid", "op": "Sigmoid", "input": ["model_13/tf.math.add_34/Add"], "attr": {"T": {"type": "DT_FLOAT"}}}, {"name": "model_13/tf.math.multiply_103/Mul", "op": "Mul", "input": ["model_13/tf.math.add_34/Add", "model_13/tf.math.sigmoid_22/Sigmoid"], "attr": {"T": {"type": "DT_FLOAT"}}}, {"name": "model_13/tf.math.add_36/Add", "op": "AddV2", "input": ["model_13/tf.strided_slice_5/StridedSlice", "model_13/tf.math.multiply_103/Mul"], "attr": {"T": {"type": "DT_FLOAT"}}}, {"name": "model_13/tf.math.add_37/Add", "op": "_FusedConv2D", "input": ["model_13/tf.math.add_36/Add", "model_13/tf.nn.convolution_23/convolution/filter", "model_13/tf.math.add_37/Add/y"], "device": "/device:CPU:0", "attr": {"strides": {"list": {"i": ["1", "1", "1", "1"]}}, "use_cudnn_on_gpu": {"b": true}, "data_format": {"s": "TkhXQw=="}, "explicit_paddings": {"list": {}}, "fused_ops": {"list": {"s": ["Qmlhc0FkZA=="]}}, "dilations": {"list": {"i": ["1", "1", "1", "1"]}}, "epsilon": {"f": 0.0}, "filter_format": {"s": "SFdJTw=="}, "num_args": {"i": "1"}, "leakyrelu_alpha": {"f": 0.2}, "T": {"type": "DT_FLOAT"}, "padding": {"s": "U0FNRQ=="}, "TArgs": {"list": {"type": ["DT_FLOAT"]}}, "num_host_args": {"i": "0"}}}, {"name": "model_13/tf.math.sigmoid_23/Sigmoid", "op": "Sigmoid", "input": ["model_13/tf.math.add_37/Add"], "attr": {"T": {"type": "DT_FLOAT"}}}, {"name": "model_13/tf.math.multiply_109/Mul", "op": "Mul", "input": ["model_13/tf.math.add_37/Add", "model_13/tf.math.sigmoid_23/Sigmoid"], "attr": {"T": {"type": "DT_FLOAT"}}}, {"name": "model_13/tf.math.add_38/Add", "op": "_FusedConv2D", "input": ["model_13/tf.math.multiply_109/Mul", "model_13/tf.nn.convolution_24/convolution/filter", "model_13/tf.math.add_38/Add/y"], "device": "/device:CPU:0", "attr": {"dilations": {"list": {"i": ["1", "1", "1", "1"]}}, "leakyrelu_alpha": {"f": 0.2}, "strides": {"list": {"i": ["1", "1", "1", "1"]}}, "explicit_paddings": {"list": {}}, "padding": {"s": "U0FNRQ=="}, "epsilon": {"f": 0.0}, "use_cudnn_on_gpu": {"b": true}, "T": {"type": "DT_FLOAT"}, "TArgs": {"list": {"type": ["DT_FLOAT"]}}, "num_args": {"i": "1"}, "fused_ops": {"list": {"s": ["Qmlhc0FkZA=="]}}, "filter_format": {"s": "SFdJTw=="}, "data_format": {"s": "TkhXQw=="}, "num_host_args": {"i": "0"}}}, {"name": "model_13/tf.math.sigmoid_24/Sigmoid", "op": "Sigmoid", "input": ["model_13/tf.math.add_38/Add"], "attr": {"T": {"type": "DT_FLOAT"}}}, {"name": "model_13/tf.math.multiply_113/Mul", "op": "Mul", "input": ["model_13/tf.math.add_38/Add", "model_13/tf.math.sigmoid_24/Sigmoid"], "attr": {"T": {"type": "DT_FLOAT"}}}, {"name": "model_13/tf.math.add_40/Add", "op": "AddV2", "input": ["model_13/tf.math.add_36/Add", "model_13/tf.math.multiply_113/Mul"], "attr": {"T": {"type": "DT_FLOAT"}}}, {"name": "model_13/tf.math.add_41/Add", "op": "_FusedConv2D", "input": ["model_13/tf.math.add_40/Add", "model_13/tf.nn.convolution_25/convolution/filter", "model_13/tf.math.add_41/Add/y"], "device": "/device:CPU:0", "attr": {"explicit_paddings": {"list": {}}, "padding": {"s": "U0FNRQ=="}, "dilations": {"list": {"i": ["1", "1", "1", "1"]}}, "T": {"type": "DT_FLOAT"}, "epsilon": {"f": 0.0}, "fused_ops": {"list": {"s": ["Qmlhc0FkZA=="]}}, "leakyrelu_alpha": {"f": 0.2}, "num_args": {"i": "1"}, "data_format": {"s": "TkhXQw=="}, "TArgs": {"list": {"type": ["DT_FLOAT"]}}, "use_cudnn_on_gpu": {"b": true}, "num_host_args": {"i": "0"}, "filter_format": {"s": "SFdJTw=="}, "strides": {"list": {"i": ["1", "1", "1", "1"]}}}}, {"name": "model_13/tf.math.sigmoid_25/Sigmoid", "op": "Sigmoid", "input": ["model_13/tf.math.add_41/Add"], "attr": {"T": {"type": "DT_FLOAT"}}}, {"name": "model_13/tf.math.multiply_119/Mul", "op": "Mul", "input": ["model_13/tf.math.add_41/Add", "model_13/tf.math.sigmoid_25/Sigmoid"], "attr": {"T": {"type": "DT_FLOAT"}}}, {"name": "model_13/tf.math.add_42/Add", "op": "_FusedConv2D", "input": ["model_13/tf.math.multiply_119/Mul", "model_13/tf.nn.convolution_26/convolution/filter", "model_13/tf.math.add_42/Add/y"], "device": "/device:CPU:0", "attr": {"num_host_args": {"i": "0"}, "strides": {"list": {"i": ["1", "1", "1", "1"]}}, "fused_ops": {"list": {"s": ["Qmlhc0FkZA=="]}}, "explicit_paddings": {"list": {}}, "T": {"type": "DT_FLOAT"}, "epsilon": {"f": 0.0}, "use_cudnn_on_gpu": {"b": true}, "padding": {"s": "U0FNRQ=="}, "dilations": {"list": {"i": ["1", "1", "1", "1"]}}, "num_args": {"i": "1"}, "TArgs": {"list": {"type": ["DT_FLOAT"]}}, "filter_format": {"s": "SFdJTw=="}, "leakyrelu_alpha": {"f": 0.2}, "data_format": {"s": "TkhXQw=="}}}, {"name": "model_13/tf.math.sigmoid_26/Sigmoid", "op": "Sigmoid", "input": ["model_13/tf.math.add_42/Add"], "attr": {"T": {"type": "DT_FLOAT"}}}, {"name": "model_13/tf.math.multiply_123/Mul", "op": "Mul", "input": ["model_13/tf.math.add_42/Add", "model_13/tf.math.sigmoid_26/Sigmoid"], "attr": {"T": {"type": "DT_FLOAT"}}}, {"name": "model_13/tf.math.add_44/Add", "op": "AddV2", "input": ["model_13/tf.math.add_40/Add", "model_13/tf.math.multiply_123/Mul"], "attr": {"T": {"type": "DT_FLOAT"}}}, {"name": "model_13/tf.math.add_45/Add", "op": "_FusedConv2D", "input": ["model_13/tf.math.add_44/Add", "model_13/tf.nn.convolution_27/convolution/filter", "model_13/tf.math.add_45/Add/y"], "device": "/device:CPU:0", "attr": {"epsilon": {"f": 0.0}, "T": {"type": "DT_FLOAT"}, "explicit_paddings": {"list": {}}, "data_format": {"s": "TkhXQw=="}, "num_host_args": {"i": "0"}, "strides": {"list": {"i": ["1", "1", "1", "1"]}}, "padding": {"s": "U0FNRQ=="}, "filter_format": {"s": "SFdJTw=="}, "leakyrelu_alpha": {"f": 0.2}, "TArgs": {"list": {"type": ["DT_FLOAT"]}}, "use_cudnn_on_gpu": {"b": true}, "dilations": {"list": {"i": ["1", "1", "1", "1"]}}, "fused_ops": {"list": {"s": ["Qmlhc0FkZA=="]}}, "num_args": {"i": "1"}}}, {"name": "model_13/tf.math.sigmoid_27/Sigmoid", "op": "Sigmoid", "input": ["model_13/tf.math.add_45/Add"], "attr": {"T": {"type": "DT_FLOAT"}}}, {"name": "model_13/tf.math.multiply_129/Mul", "op": "Mul", "input": ["model_13/tf.math.add_45/Add", "model_13/tf.math.sigmoid_27/Sigmoid"], "attr": {"T": {"type": "DT_FLOAT"}}}, {"name": "model_13/tf.math.add_46/Add", "op": "_FusedConv2D", "input": ["model_13/tf.math.multiply_129/Mul", "model_13/tf.nn.convolution_28/convolution/filter", "model_13/tf.math.add_46/Add/y"], "device": "/device:CPU:0", "attr": {"dilations": {"list": {"i": ["1", "1", "1", "1"]}}, "num_args": {"i": "1"}, "num_host_args": {"i": "0"}, "data_format": {"s": "TkhXQw=="}, "T": {"type": "DT_FLOAT"}, "filter_format": {"s": "SFdJTw=="}, "epsilon": {"f": 0.0}, "TArgs": {"list": {"type": ["DT_FLOAT"]}}, "use_cudnn_on_gpu": {"b": true}, "padding": {"s": "U0FNRQ=="}, "leakyrelu_alpha": {"f": 0.2}, "explicit_paddings": {"list": {}}, "fused_ops": {"list": {"s": ["Qmlhc0FkZA=="]}}, "strides": {"list": {"i": ["1", "1", "1", "1"]}}}}, {"name": "model_13/tf.math.sigmoid_28/Sigmoid", "op": "Sigmoid", "input": ["model_13/tf.math.add_46/Add"], "attr": {"T": {"type": "DT_FLOAT"}}}, {"name": "model_13/tf.math.multiply_133/Mul", "op": "Mul", "input": ["model_13/tf.math.add_46/Add", "model_13/tf.math.sigmoid_28/Sigmoid"], "attr": {"T": {"type": "DT_FLOAT"}}}, {"name": "model_13/tf.math.add_48/Add", "op": "AddV2", "input": ["model_13/tf.math.add_44/Add", "model_13/tf.math.multiply_133/Mul"], "attr": {"T": {"type": "DT_FLOAT"}}}, {"name": "model_13/tf.concat_2/concat", "op": "ConcatV2", "input": ["model_13/tf.strided_slice_4/StridedSlice", "model_13/tf.strided_slice_5/StridedSlice", "model_13/tf.math.add_36/Add", "model_13/tf.math.add_40/Add", "model_13/tf.math.add_44/Add", "model_13/tf.math.add_48/Add", "model_13/tf.concat_2/concat/axis"], "attr": {"Tidx": {"type": "DT_INT32"}, "T": {"type": "DT_FLOAT"}, "N": {"i": "6"}}}, {"name": "model_13/tf.math.add_49/Add", "op": "_FusedConv2D", "input": ["model_13/tf.concat_2/concat", "model_13/tf.nn.convolution_29/convolution/filter", "model_13/tf.math.add_49/Add/y"], "device": "/device:CPU:0", "attr": {"num_host_args": {"i": "0"}, "padding": {"s": "U0FNRQ=="}, "dilations": {"list": {"i": ["1", "1", "1", "1"]}}, "T": {"type": "DT_FLOAT"}, "filter_format": {"s": "SFdJTw=="}, "epsilon": {"f": 0.0}, "fused_ops": {"list": {"s": ["Qmlhc0FkZA=="]}}, "leakyrelu_alpha": {"f": 0.2}, "TArgs": {"list": {"type": ["DT_FLOAT"]}}, "data_format": {"s": "TkhXQw=="}, "explicit_paddings": {"list": {}}, "num_args": {"i": "1"}, "use_cudnn_on_gpu": {"b": true}, "strides": {"list": {"i": ["1", "1", "1", "1"]}}}}, {"name": "model_13/tf.math.sigmoid_29/Sigmoid", "op": "Sigmoid", "input": ["model_13/tf.math.add_49/Add"], "attr": {"T": {"type": "DT_FLOAT"}}}, {"name": "model_13/tf.math.multiply_139/Mul", "op": "Mul", "input": ["model_13/tf.math.add_49/Add", "model_13/tf.math.sigmoid_29/Sigmoid"], "attr": {"T": {"type": "DT_FLOAT"}}}, {"name": "model_13/tf.compat.v1.pad_4/Pad", "op": "Pad", "input": ["model_13/tf.math.multiply_139/Mul", "model_13/tf.compat.v1.pad_4/Pad/paddings"], "attr": {"T": {"type": "DT_FLOAT"}, "Tpaddings": {"type": "DT_INT32"}}}, {"name": "model_13/tf.math.add_50/Add", "op": "_FusedConv2D", "input": ["model_13/tf.compat.v1.pad_4/Pad", "model_13/tf.nn.convolution_30/convolution/filter", "model_13/tf.math.add_50/Add/y"], "device": "/device:CPU:0", "attr": {"epsilon": {"f": 0.0}, "T": {"type": "DT_FLOAT"}, "explicit_paddings": {"list": {}}, "num_args": {"i": "1"}, "dilations": {"list": {"i": ["1", "1", "1", "1"]}}, "filter_format": {"s": "SFdJTw=="}, "TArgs": {"list": {"type": ["DT_FLOAT"]}}, "data_format": {"s": "TkhXQw=="}, "fused_ops": {"list": {"s": ["Qmlhc0FkZA=="]}}, "use_cudnn_on_gpu": {"b": true}, "strides": {"list": {"i": ["1", "2", "2", "1"]}}, "padding": {"s": "VkFMSUQ="}, "leakyrelu_alpha": {"f": 0.2}, "num_host_args": {"i": "0"}}}, {"name": "model_13/tf.math.sigmoid_30/Sigmoid", "op": "Sigmoid", "input": ["model_13/tf.math.add_50/Add"], "attr": {"T": {"type": "DT_FLOAT"}}}, {"name": "model_13/tf.math.multiply_143/Mul", "op": "Mul", "input": ["model_13/tf.math.add_50/Add", "model_13/tf.math.sigmoid_30/Sigmoid"], "attr": {"T": {"type": "DT_FLOAT"}}}, {"name": "model_13/tf.math.add_51/Add", "op": "_FusedConv2D", "input": ["model_13/tf.math.multiply_143/Mul", "model_13/tf.nn.convolution_31/convolution/filter", "model_13/tf.math.add_51/Add/y"], "device": "/device:CPU:0", "attr": {"data_format": {"s": "TkhXQw=="}, "dilations": {"list": {"i": ["1", "1", "1", "1"]}}, "TArgs": {"list": {"type": ["DT_FLOAT"]}}, "filter_format": {"s": "SFdJTw=="}, "num_host_args": {"i": "0"}, "strides": {"list": {"i": ["1", "1", "1", "1"]}}, "T": {"type": "DT_FLOAT"}, "use_cudnn_on_gpu": {"b": true}, "epsilon": {"f": 0.0}, "leakyrelu_alpha": {"f": 0.2}, "padding": {"s": "U0FNRQ=="}, "fused_ops": {"list": {"s": ["Qmlhc0FkZA=="]}}, "explicit_paddings": {"list": {}}, "num_args": {"i": "1"}}}, {"name": "model_13/tf.math.sigmoid_31/Sigmoid", "op": "Sigmoid", "input": ["model_13/tf.math.add_51/Add"], "attr": {"T": {"type": "DT_FLOAT"}}}, {"name": "model_13/tf.math.multiply_147/Mul", "op": "Mul", "input": ["model_13/tf.math.add_51/Add", "model_13/tf.math.sigmoid_31/Sigmoid"], "attr": {"T": {"type": "DT_FLOAT"}}}, {"name": "model_13/tf.strided_slice_6/StridedSlice", "op": "StridedSlice", "input": ["model_13/tf.math.multiply_147/Mul", "model_13/tf.strided_slice_6/ones_like/tensor", "model_13/tf.strided_slice_6/StridedSlice/end", "model_13/tf.strided_slice_6/ones_like"], "attr": {"shrink_axis_mask": {"i": "0"}, "end_mask": {"i": "7"}, "T": {"type": "DT_FLOAT"}, "ellipsis_mask": {"i": "0"}, "new_axis_mask": {"i": "0"}, "begin_mask": {"i": "15"}, "Index": {"type": "DT_INT64"}}}, {"name": "model_13/tf.strided_slice_7/StridedSlice", "op": "StridedSlice", "input": ["model_13/tf.math.multiply_147/Mul", "model_13/tf.strided_slice_7/ones_like/tensor", "model_13/tf.strided_slice_7/StridedSlice/end", "model_13/tf.strided_slice_7/ones_like"], "attr": {"new_axis_mask": {"i": "0"}, "ellipsis_mask": {"i": "0"}, "end_mask": {"i": "7"}, "shrink_axis_mask": {"i": "0"}, "begin_mask": {"i": "7"}, "Index": {"type": "DT_INT64"}, "T": {"type": "DT_FLOAT"}}}, {"name": "model_13/tf.math.add_52/Add", "op": "_FusedConv2D", "input": ["model_13/tf.strided_slice_7/StridedSlice", "model_13/tf.nn.convolution_32/convolution/filter", "model_13/tf.math.add_52/Add/y"], "device": "/device:CPU:0", "attr": {"epsilon": {"f": 0.0}, "fused_ops": {"list": {"s": ["Qmlhc0FkZA=="]}}, "leakyrelu_alpha": {"f": 0.2}, "TArgs": {"list": {"type": ["DT_FLOAT"]}}, "data_format": {"s": "TkhXQw=="}, "use_cudnn_on_gpu": {"b": true}, "filter_format": {"s": "SFdJTw=="}, "strides": {"list": {"i": ["1", "1", "1", "1"]}}, "padding": {"s": "U0FNRQ=="}, "num_args": {"i": "1"}, "T": {"type": "DT_FLOAT"}, "num_host_args": {"i": "0"}, "dilations": {"list": {"i": ["1", "1", "1", "1"]}}, "explicit_paddings": {"list": {}}}}, {"name": "model_13/tf.math.sigmoid_32/Sigmoid", "op": "Sigmoid", "input": ["model_13/tf.math.add_52/Add"], "attr": {"T": {"type": "DT_FLOAT"}}}, {"name": "model_13/tf.math.multiply_151/Mul", "op": "Mul", "input": ["model_13/tf.math.add_52/Add", "model_13/tf.math.sigmoid_32/Sigmoid"], "attr": {"T": {"type": "DT_FLOAT"}}}, {"name": "model_13/tf.math.add_53/Add", "op": "_FusedConv2D", "input": ["model_13/tf.math.multiply_151/Mul", "model_13/tf.nn.convolution_33/convolution/filter", "model_13/tf.math.add_53/Add/y"], "device": "/device:CPU:0", "attr": {"padding": {"s": "U0FNRQ=="}, "epsilon": {"f": 0.0}, "T": {"type": "DT_FLOAT"}, "explicit_paddings": {"list": {}}, "TArgs": {"list": {"type": ["DT_FLOAT"]}}, "strides": {"list": {"i": ["1", "1", "1", "1"]}}, "fused_ops": {"list": {"s": ["Qmlhc0FkZA=="]}}, "dilations": {"list": {"i": ["1", "1", "1", "1"]}}, "data_format": {"s": "TkhXQw=="}, "use_cudnn_on_gpu": {"b": true}, "leakyrelu_alpha": {"f": 0.2}, "filter_format": {"s": "SFdJTw=="}, "num_host_args": {"i": "0"}, "num_args": {"i": "1"}}}, {"name": "model_13/tf.math.sigmoid_33/Sigmoid", "op": "Sigmoid", "input": ["model_13/tf.math.add_53/Add"], "attr": {"T": {"type": "DT_FLOAT"}}}, {"name": "model_13/tf.math.multiply_155/Mul", "op": "Mul", "input": ["model_13/tf.math.add_53/Add", "model_13/tf.math.sigmoid_33/Sigmoid"], "attr": {"T": {"type": "DT_FLOAT"}}}, {"name": "model_13/tf.math.add_55/Add", "op": "AddV2", "input": ["model_13/tf.strided_slice_7/StridedSlice", "model_13/tf.math.multiply_155/Mul"], "attr": {"T": {"type": "DT_FLOAT"}}}, {"name": "model_13/tf.math.add_56/Add", "op": "_FusedConv2D", "input": ["model_13/tf.math.add_55/Add", "model_13/tf.nn.convolution_34/convolution/filter", "model_13/tf.math.add_56/Add/y"], "device": "/device:CPU:0", "attr": {"filter_format": {"s": "SFdJTw=="}, "data_format": {"s": "TkhXQw=="}, "strides": {"list": {"i": ["1", "1", "1", "1"]}}, "epsilon": {"f": 0.0}, "dilations": {"list": {"i": ["1", "1", "1", "1"]}}, "TArgs": {"list": {"type": ["DT_FLOAT"]}}, "num_host_args": {"i": "0"}, "leakyrelu_alpha": {"f": 0.2}, "fused_ops": {"list": {"s": ["Qmlhc0FkZA=="]}}, "explicit_paddings": {"list": {}}, "T": {"type": "DT_FLOAT"}, "use_cudnn_on_gpu": {"b": true}, "padding": {"s": "U0FNRQ=="}, "num_args": {"i": "1"}}}, {"name": "model_13/tf.math.sigmoid_34/Sigmoid", "op": "Sigmoid", "input": ["model_13/tf.math.add_56/Add"], "attr": {"T": {"type": "DT_FLOAT"}}}, {"name": "model_13/tf.math.multiply_161/Mul", "op": "Mul", "input": ["model_13/tf.math.add_56/Add", "model_13/tf.math.sigmoid_34/Sigmoid"], "attr": {"T": {"type": "DT_FLOAT"}}}, {"name": "model_13/tf.math.add_57/Add", "op": "_FusedConv2D", "input": ["model_13/tf.math.multiply_161/Mul", "model_13/tf.nn.convolution_35/convolution/filter", "model_13/tf.math.add_57/Add/y"], "device": "/device:CPU:0", "attr": {"TArgs": {"list": {"type": ["DT_FLOAT"]}}, "data_format": {"s": "TkhXQw=="}, "padding": {"s": "U0FNRQ=="}, "leakyrelu_alpha": {"f": 0.2}, "use_cudnn_on_gpu": {"b": true}, "filter_format": {"s": "SFdJTw=="}, "num_args": {"i": "1"}, "dilations": {"list": {"i": ["1", "1", "1", "1"]}}, "epsilon": {"f": 0.0}, "T": {"type": "DT_FLOAT"}, "num_host_args": {"i": "0"}, "strides": {"list": {"i": ["1", "1", "1", "1"]}}, "explicit_paddings": {"list": {}}, "fused_ops": {"list": {"s": ["Qmlhc0FkZA=="]}}}}, {"name": "model_13/tf.math.sigmoid_35/Sigmoid", "op": "Sigmoid", "input": ["model_13/tf.math.add_57/Add"], "attr": {"T": {"type": "DT_FLOAT"}}}, {"name": "model_13/tf.math.multiply_165/Mul", "op": "Mul", "input": ["model_13/tf.math.add_57/Add", "model_13/tf.math.sigmoid_35/Sigmoid"], "attr": {"T": {"type": "DT_FLOAT"}}}, {"name": "model_13/tf.math.add_59/Add", "op": "AddV2", "input": ["model_13/tf.math.add_55/Add", "model_13/tf.math.multiply_165/Mul"], "attr": {"T": {"type": "DT_FLOAT"}}}, {"name": "model_13/tf.concat_3/concat", "op": "ConcatV2", "input": ["model_13/tf.strided_slice_6/StridedSlice", "model_13/tf.strided_slice_7/StridedSlice", "model_13/tf.math.add_55/Add", "model_13/tf.math.add_59/Add", "model_13/tf.concat_3/concat/axis"], "attr": {"T": {"type": "DT_FLOAT"}, "Tidx": {"type": "DT_INT32"}, "N": {"i": "4"}}}, {"name": "model_13/tf.math.add_60/Add", "op": "_FusedConv2D", "input": ["model_13/tf.concat_3/concat", "model_13/tf.nn.convolution_36/convolution/filter", "model_13/tf.math.add_60/Add/y"], "device": "/device:CPU:0", "attr": {"dilations": {"list": {"i": ["1", "1", "1", "1"]}}, "num_host_args": {"i": "0"}, "padding": {"s": "U0FNRQ=="}, "fused_ops": {"list": {"s": ["Qmlhc0FkZA=="]}}, "num_args": {"i": "1"}, "TArgs": {"list": {"type": ["DT_FLOAT"]}}, "explicit_paddings": {"list": {}}, "data_format": {"s": "TkhXQw=="}, "strides": {"list": {"i": ["1", "1", "1", "1"]}}, "epsilon": {"f": 0.0}, "use_cudnn_on_gpu": {"b": true}, "T": {"type": "DT_FLOAT"}, "filter_format": {"s": "SFdJTw=="}, "leakyrelu_alpha": {"f": 0.2}}}, {"name": "model_13/tf.math.sigmoid_36/Sigmoid", "op": "Sigmoid", "input": ["model_13/tf.math.add_60/Add"], "attr": {"T": {"type": "DT_FLOAT"}}}, {"name": "model_13/tf.math.multiply_171/Mul", "op": "Mul", "input": ["model_13/tf.math.add_60/Add", "model_13/tf.math.sigmoid_36/Sigmoid"], "attr": {"T": {"type": "DT_FLOAT"}}}, {"name": "model_13/tf.math.add_61/Add", "op": "_FusedConv2D", "input": ["model_13/tf.math.multiply_171/Mul", "model_13/tf.nn.convolution_37/convolution/filter", "model_13/tf.math.add_61/Add/y"], "device": "/device:CPU:0", "attr": {"dilations": {"list": {"i": ["1", "1", "1", "1"]}}, "num_host_args": {"i": "0"}, "padding": {"s": "U0FNRQ=="}, "fused_ops": {"list": {"s": ["Qmlhc0FkZA=="]}}, "use_cudnn_on_gpu": {"b": true}, "num_args": {"i": "1"}, "strides": {"list": {"i": ["1", "1", "1", "1"]}}, "leakyrelu_alpha": {"f": 0.2}, "T": {"type": "DT_FLOAT"}, "TArgs": {"list": {"type": ["DT_FLOAT"]}}, "filter_format": {"s": "SFdJTw=="}, "epsilon": {"f": 0.0}, "data_format": {"s": "TkhXQw=="}, "explicit_paddings": {"list": {}}}}, {"name": "model_13/tf.math.sigmoid_37/Sigmoid", "op": "Sigmoid", "input": ["model_13/tf.math.add_61/Add"], "attr": {"T": {"type": "DT_FLOAT"}}}, {"name": "model_13/tf.math.multiply_175/Mul", "op": "Mul", "input": ["model_13/tf.math.add_61/Add", "model_13/tf.math.sigmoid_37/Sigmoid"], "attr": {"T": {"type": "DT_FLOAT"}}}, {"name": "model_13/tf.compat.v1.nn.pool/max_pool", "op": "MaxPool", "input": ["model_13/tf.math.multiply_175/Mul"], "attr": {"data_format": {"s": "TkhXQw=="}, "ksize": {"list": {"i": ["1", "5", "5", "1"]}}, "padding": {"s": "U0FNRQ=="}, "T": {"type": "DT_FLOAT"}, "explicit_paddings": {"list": {}}, "strides": {"list": {"i": ["1", "1", "1", "1"]}}}}, {"name": "model_13/tf.compat.v1.nn.pool_1/max_pool", "op": "MaxPool", "input": ["model_13/tf.compat.v1.nn.pool/max_pool"], "attr": {"padding": {"s": "U0FNRQ=="}, "data_format": {"s": "TkhXQw=="}, "ksize": {"list": {"i": ["1", "5", "5", "1"]}}, "T": {"type": "DT_FLOAT"}, "strides": {"list": {"i": ["1", "1", "1", "1"]}}, "explicit_paddings": {"list": {}}}}, {"name": "model_13/tf.compat.v1.nn.pool_2/max_pool", "op": "MaxPool", "input": ["model_13/tf.compat.v1.nn.pool_1/max_pool"], "attr": {"padding": {"s": "U0FNRQ=="}, "explicit_paddings": {"list": {}}, "T": {"type": "DT_FLOAT"}, "strides": {"list": {"i": ["1", "1", "1", "1"]}}, "data_format": {"s": "TkhXQw=="}, "ksize": {"list": {"i": ["1", "5", "5", "1"]}}}}, {"name": "model_13/tf.concat_4/concat", "op": "ConcatV2", "input": ["model_13/tf.math.multiply_175/Mul", "model_13/tf.compat.v1.nn.pool/max_pool", "model_13/tf.compat.v1.nn.pool_1/max_pool", "model_13/tf.compat.v1.nn.pool_2/max_pool", "model_13/tf.concat_4/concat/axis"], "attr": {"Tidx": {"type": "DT_INT32"}, "T": {"type": "DT_FLOAT"}, "N": {"i": "4"}}}, {"name": "model_13/tf.math.add_62/Add", "op": "_FusedConv2D", "input": ["model_13/tf.concat_4/concat", "model_13/tf.nn.convolution_38/convolution/filter", "model_13/tf.math.add_62/Add/y"], "device": "/device:CPU:0", "attr": {"explicit_paddings": {"list": {}}, "epsilon": {"f": 0.0}, "dilations": {"list": {"i": ["1", "1", "1", "1"]}}, "padding": {"s": "U0FNRQ=="}, "T": {"type": "DT_FLOAT"}, "num_args": {"i": "1"}, "data_format": {"s": "TkhXQw=="}, "filter_format": {"s": "SFdJTw=="}, "use_cudnn_on_gpu": {"b": true}, "leakyrelu_alpha": {"f": 0.2}, "strides": {"list": {"i": ["1", "1", "1", "1"]}}, "fused_ops": {"list": {"s": ["Qmlhc0FkZA=="]}}, "num_host_args": {"i": "0"}, "TArgs": {"list": {"type": ["DT_FLOAT"]}}}}, {"name": "model_13/tf.math.sigmoid_38/Sigmoid", "op": "Sigmoid", "input": ["model_13/tf.math.add_62/Add"], "attr": {"T": {"type": "DT_FLOAT"}}}, {"name": "model_13/tf.math.multiply_179/Mul", "op": "Mul", "input": ["model_13/tf.math.add_62/Add", "model_13/tf.math.sigmoid_38/Sigmoid"], "attr": {"T": {"type": "DT_FLOAT"}}}, {"name": "model_13/tf.image.resize/resize/ResizeNearestNeighbor", "op": "ResizeNearestNeighbor", "input": ["model_13/tf.math.multiply_179/Mul", "model_13/tf.image.resize/resize/size"], "attr": {"half_pixel_centers": {"b": true}, "align_corners": {"b": false}, "T": {"type": "DT_FLOAT"}}}, {"name": "model_13/tf.concat_5/concat", "op": "ConcatV2", "input": ["model_13/tf.image.resize/resize/ResizeNearestNeighbor", "model_13/tf.math.multiply_139/Mul", "model_13/tf.concat_5/concat/axis"], "attr": {"T": {"type": "DT_FLOAT"}, "N": {"i": "2"}, "Tidx": {"type": "DT_INT32"}}}, {"name": "model_13/tf.math.add_63/Add", "op": "_FusedConv2D", "input": ["model_13/tf.concat_5/concat", "model_13/tf.nn.convolution_39/convolution/filter", "model_13/tf.math.add_63/Add/y"], "device": "/device:CPU:0", "attr": {"epsilon": {"f": 0.0}, "data_format": {"s": "TkhXQw=="}, "explicit_paddings": {"list": {}}, "use_cudnn_on_gpu": {"b": true}, "leakyrelu_alpha": {"f": 0.2}, "fused_ops": {"list": {"s": ["Qmlhc0FkZA=="]}}, "T": {"type": "DT_FLOAT"}, "filter_format": {"s": "SFdJTw=="}, "num_args": {"i": "1"}, "padding": {"s": "U0FNRQ=="}, "strides": {"list": {"i": ["1", "1", "1", "1"]}}, "num_host_args": {"i": "0"}, "dilations": {"list": {"i": ["1", "1", "1", "1"]}}, "TArgs": {"list": {"type": ["DT_FLOAT"]}}}}, {"name": "model_13/tf.math.sigmoid_39/Sigmoid", "op": "Sigmoid", "input": ["model_13/tf.math.add_63/Add"], "attr": {"T": {"type": "DT_FLOAT"}}}, {"name": "model_13/tf.math.multiply_183/Mul", "op": "Mul", "input": ["model_13/tf.math.add_63/Add", "model_13/tf.math.sigmoid_39/Sigmoid"], "attr": {"T": {"type": "DT_FLOAT"}}}, {"name": "model_13/tf.strided_slice_8/StridedSlice", "op": "StridedSlice", "input": ["model_13/tf.math.multiply_183/Mul", "model_13/tf.strided_slice_8/ones_like/tensor", "model_13/tf.strided_slice_8/StridedSlice/end", "model_13/tf.strided_slice_8/ones_like"], "attr": {"Index": {"type": "DT_INT64"}, "new_axis_mask": {"i": "0"}, "begin_mask": {"i": "15"}, "ellipsis_mask": {"i": "0"}, "T": {"type": "DT_FLOAT"}, "shrink_axis_mask": {"i": "0"}, "end_mask": {"i": "7"}}}, {"name": "model_13/tf.strided_slice_9/StridedSlice", "op": "StridedSlice", "input": ["model_13/tf.math.multiply_183/Mul", "model_13/tf.strided_slice_9/ones_like/tensor", "model_13/tf.strided_slice_9/StridedSlice/end", "model_13/tf.strided_slice_9/ones_like"], "attr": {"ellipsis_mask": {"i": "0"}, "new_axis_mask": {"i": "0"}, "T": {"type": "DT_FLOAT"}, "end_mask": {"i": "7"}, "begin_mask": {"i": "7"}, "Index": {"type": "DT_INT64"}, "shrink_axis_mask": {"i": "0"}}}, {"name": "model_13/tf.math.add_64/Add", "op": "_FusedConv2D", "input": ["model_13/tf.strided_slice_9/StridedSlice", "model_13/tf.nn.convolution_40/convolution/filter", "model_13/tf.math.add_64/Add/y"], "device": "/device:CPU:0", "attr": {"epsilon": {"f": 0.0}, "filter_format": {"s": "SFdJTw=="}, "num_host_args": {"i": "0"}, "data_format": {"s": "TkhXQw=="}, "TArgs": {"list": {"type": ["DT_FLOAT"]}}, "strides": {"list": {"i": ["1", "1", "1", "1"]}}, "leakyrelu_alpha": {"f": 0.2}, "use_cudnn_on_gpu": {"b": true}, "T": {"type": "DT_FLOAT"}, "fused_ops": {"list": {"s": ["Qmlhc0FkZA=="]}}, "padding": {"s": "U0FNRQ=="}, "dilations": {"list": {"i": ["1", "1", "1", "1"]}}, "num_args": {"i": "1"}, "explicit_paddings": {"list": {}}}}, {"name": "model_13/tf.math.sigmoid_40/Sigmoid", "op": "Sigmoid", "input": ["model_13/tf.math.add_64/Add"], "attr": {"T": {"type": "DT_FLOAT"}}}, {"name": "model_13/tf.math.multiply_187/Mul", "op": "Mul", "input": ["model_13/tf.math.add_64/Add", "model_13/tf.math.sigmoid_40/Sigmoid"], "attr": {"T": {"type": "DT_FLOAT"}}}, {"name": "model_13/tf.math.add_65/Add", "op": "_FusedConv2D", "input": ["model_13/tf.math.multiply_187/Mul", "model_13/tf.nn.convolution_41/convolution/filter", "model_13/tf.math.add_65/Add/y"], "device": "/device:CPU:0", "attr": {"data_format": {"s": "TkhXQw=="}, "num_args": {"i": "1"}, "explicit_paddings": {"list": {}}, "strides": {"list": {"i": ["1", "1", "1", "1"]}}, "fused_ops": {"list": {"s": ["Qmlhc0FkZA=="]}}, "use_cudnn_on_gpu": {"b": true}, "filter_format": {"s": "SFdJTw=="}, "T": {"type": "DT_FLOAT"}, "dilations": {"list": {"i": ["1", "1", "1", "1"]}}, "epsilon": {"f": 0.0}, "padding": {"s": "U0FNRQ=="}, "num_host_args": {"i": "0"}, "leakyrelu_alpha": {"f": 0.2}, "TArgs": {"list": {"type": ["DT_FLOAT"]}}}}, {"name": "model_13/tf.math.sigmoid_41/Sigmoid", "op": "Sigmoid", "input": ["model_13/tf.math.add_65/Add"], "attr": {"T": {"type": "DT_FLOAT"}}}, {"name": "model_13/tf.math.multiply_191/Mul", "op": "Mul", "input": ["model_13/tf.math.add_65/Add", "model_13/tf.math.sigmoid_41/Sigmoid"], "attr": {"T": {"type": "DT_FLOAT"}}}, {"name": "model_13/tf.math.add_66/Add", "op": "_FusedConv2D", "input": ["model_13/tf.math.multiply_191/Mul", "model_13/tf.nn.convolution_42/convolution/filter", "model_13/tf.math.add_66/Add/y"], "device": "/device:CPU:0", "attr": {"use_cudnn_on_gpu": {"b": true}, "TArgs": {"list": {"type": ["DT_FLOAT"]}}, "padding": {"s": "U0FNRQ=="}, "num_host_args": {"i": "0"}, "fused_ops": {"list": {"s": ["Qmlhc0FkZA=="]}}, "leakyrelu_alpha": {"f": 0.2}, "data_format": {"s": "TkhXQw=="}, "num_args": {"i": "1"}, "dilations": {"list": {"i": ["1", "1", "1", "1"]}}, "explicit_paddings": {"list": {}}, "filter_format": {"s": "SFdJTw=="}, "strides": {"list": {"i": ["1", "1", "1", "1"]}}, "T": {"type": "DT_FLOAT"}, "epsilon": {"f": 0.0}}}, {"name": "model_13/tf.math.sigmoid_42/Sigmoid", "op": "Sigmoid", "input": ["model_13/tf.math.add_66/Add"], "attr": {"T": {"type": "DT_FLOAT"}}}, {"name": "model_13/tf.math.multiply_195/Mul", "op": "Mul", "input": ["model_13/tf.math.add_66/Add", "model_13/tf.math.sigmoid_42/Sigmoid"], "attr": {"T": {"type": "DT_FLOAT"}}}, {"name": "model_13/tf.math.add_67/Add", "op": "_FusedConv2D", "input": ["model_13/tf.math.multiply_195/Mul", "model_13/tf.nn.convolution_43/convolution/filter", "model_13/tf.math.add_67/Add/y"], "device": "/device:CPU:0", "attr": {"leakyrelu_alpha": {"f": 0.2}, "dilations": {"list": {"i": ["1", "1", "1", "1"]}}, "T": {"type": "DT_FLOAT"}, "fused_ops": {"list": {"s": ["Qmlhc0FkZA=="]}}, "strides": {"list": {"i": ["1", "1", "1", "1"]}}, "explicit_paddings": {"list": {}}, "data_format": {"s": "TkhXQw=="}, "num_args": {"i": "1"}, "use_cudnn_on_gpu": {"b": true}, "epsilon": {"f": 0.0}, "padding": {"s": "U0FNRQ=="}, "num_host_args": {"i": "0"}, "TArgs": {"list": {"type": ["DT_FLOAT"]}}, "filter_format": {"s": "SFdJTw=="}}}, {"name": "model_13/tf.math.sigmoid_43/Sigmoid", "op": "Sigmoid", "input": ["model_13/tf.math.add_67/Add"], "attr": {"T": {"type": "DT_FLOAT"}}}, {"name": "model_13/tf.math.multiply_199/Mul", "op": "Mul", "input": ["model_13/tf.math.add_67/Add", "model_13/tf.math.sigmoid_43/Sigmoid"], "attr": {"T": {"type": "DT_FLOAT"}}}, {"name": "model_13/tf.concat_6/concat", "op": "ConcatV2", "input": ["model_13/tf.strided_slice_8/StridedSlice", "model_13/tf.strided_slice_9/StridedSlice", "model_13/tf.math.multiply_191/Mul", "model_13/tf.math.multiply_199/Mul", "model_13/tf.concat_6/concat/axis"], "attr": {"N": {"i": "4"}, "Tidx": {"type": "DT_INT32"}, "T": {"type": "DT_FLOAT"}}}, {"name": "model_13/tf.math.add_68/Add", "op": "_FusedConv2D", "input": ["model_13/tf.concat_6/concat", "model_13/tf.nn.convolution_44/convolution/filter", "model_13/tf.math.add_68/Add/y"], "device": "/device:CPU:0", "attr": {"TArgs": {"list": {"type": ["DT_FLOAT"]}}, "leakyrelu_alpha": {"f": 0.2}, "epsilon": {"f": 0.0}, "data_format": {"s": "TkhXQw=="}, "explicit_paddings": {"list": {}}, "filter_format": {"s": "SFdJTw=="}, "fused_ops": {"list": {"s": ["Qmlhc0FkZA=="]}}, "dilations": {"list": {"i": ["1", "1", "1", "1"]}}, "num_args": {"i": "1"}, "padding": {"s": "U0FNRQ=="}, "num_host_args": {"i": "0"}, "use_cudnn_on_gpu": {"b": true}, "strides": {"list": {"i": ["1", "1", "1", "1"]}}, "T": {"type": "DT_FLOAT"}}}, {"name": "model_13/tf.math.sigmoid_44/Sigmoid", "op": "Sigmoid", "input": ["model_13/tf.math.add_68/Add"], "attr": {"T": {"type": "DT_FLOAT"}}}, {"name": "model_13/tf.math.multiply_203/Mul", "op": "Mul", "input": ["model_13/tf.math.add_68/Add", "model_13/tf.math.sigmoid_44/Sigmoid"], "attr": {"T": {"type": "DT_FLOAT"}}}, {"name": "model_13/tf.image.resize_1/resize/ResizeNearestNeighbor", "op": "ResizeNearestNeighbor", "input": ["model_13/tf.math.multiply_203/Mul", "model_13/tf.image.resize_1/resize/size"], "attr": {"half_pixel_centers": {"b": true}, "align_corners": {"b": false}, "T": {"type": "DT_FLOAT"}}}, {"name": "model_13/tf.concat_7/concat", "op": "ConcatV2", "input": ["model_13/tf.image.resize_1/resize/ResizeNearestNeighbor", "model_13/tf.math.multiply_87/Mul", "model_13/tf.concat_7/concat/axis"], "attr": {"T": {"type": "DT_FLOAT"}, "Tidx": {"type": "DT_INT32"}, "N": {"i": "2"}}}, {"name": "model_13/tf.math.add_69/Add", "op": "_FusedConv2D", "input": ["model_13/tf.concat_7/concat", "model_13/tf.nn.convolution_45/convolution/filter", "model_13/tf.math.add_69/Add/y"], "device": "/device:CPU:0", "attr": {"data_format": {"s": "TkhXQw=="}, "num_args": {"i": "1"}, "use_cudnn_on_gpu": {"b": true}, "dilations": {"list": {"i": ["1", "1", "1", "1"]}}, "leakyrelu_alpha": {"f": 0.2}, "TArgs": {"list": {"type": ["DT_FLOAT"]}}, "epsilon": {"f": 0.0}, "strides": {"list": {"i": ["1", "1", "1", "1"]}}, "T": {"type": "DT_FLOAT"}, "padding": {"s": "U0FNRQ=="}, "fused_ops": {"list": {"s": ["Qmlhc0FkZA=="]}}, "explicit_paddings": {"list": {}}, "filter_format": {"s": "SFdJTw=="}, "num_host_args": {"i": "0"}}}, {"name": "model_13/tf.math.sigmoid_45/Sigmoid", "op": "Sigmoid", "input": ["model_13/tf.math.add_69/Add"], "attr": {"T": {"type": "DT_FLOAT"}}}, {"name": "model_13/tf.math.multiply_207/Mul", "op": "Mul", "input": ["model_13/tf.math.add_69/Add", "model_13/tf.math.sigmoid_45/Sigmoid"], "attr": {"T": {"type": "DT_FLOAT"}}}, {"name": "model_13/tf.strided_slice_10/StridedSlice", "op": "StridedSlice", "input": ["model_13/tf.math.multiply_207/Mul", "model_13/tf.strided_slice_10/ones_like/tensor", "model_13/tf.strided_slice_10/StridedSlice/end", "model_13/tf.strided_slice_10/ones_like"], "attr": {"new_axis_mask": {"i": "0"}, "ellipsis_mask": {"i": "0"}, "shrink_axis_mask": {"i": "0"}, "end_mask": {"i": "7"}, "begin_mask": {"i": "15"}, "Index": {"type": "DT_INT64"}, "T": {"type": "DT_FLOAT"}}}, {"name": "model_13/tf.strided_slice_11/StridedSlice", "op": "StridedSlice", "input": ["model_13/tf.math.multiply_207/Mul", "model_13/tf.strided_slice_11/ones_like/tensor", "model_13/tf.strided_slice_11/StridedSlice/end", "model_13/tf.strided_slice_11/ones_like"], "attr": {"new_axis_mask": {"i": "0"}, "Index": {"type": "DT_INT64"}, "end_mask": {"i": "7"}, "T": {"type": "DT_FLOAT"}, "ellipsis_mask": {"i": "0"}, "begin_mask": {"i": "7"}, "shrink_axis_mask": {"i": "0"}}}, {"name": "model_13/tf.math.add_70/Add", "op": "_FusedConv2D", "input": ["model_13/tf.strided_slice_11/StridedSlice", "model_13/tf.nn.convolution_46/convolution/filter", "model_13/tf.math.add_70/Add/y"], "device": "/device:CPU:0", "attr": {"strides": {"list": {"i": ["1", "1", "1", "1"]}}, "T": {"type": "DT_FLOAT"}, "leakyrelu_alpha": {"f": 0.2}, "use_cudnn_on_gpu": {"b": true}, "padding": {"s": "U0FNRQ=="}, "num_args": {"i": "1"}, "explicit_paddings": {"list": {}}, "epsilon": {"f": 0.0}, "TArgs": {"list": {"type": ["DT_FLOAT"]}}, "filter_format": {"s": "SFdJTw=="}, "num_host_args": {"i": "0"}, "fused_ops": {"list": {"s": ["Qmlhc0FkZA=="]}}, "dilations": {"list": {"i": ["1", "1", "1", "1"]}}, "data_format": {"s": "TkhXQw=="}}}, {"name": "model_13/tf.math.sigmoid_46/Sigmoid", "op": "Sigmoid", "input": ["model_13/tf.math.add_70/Add"], "attr": {"T": {"type": "DT_FLOAT"}}}, {"name": "model_13/tf.math.multiply_211/Mul", "op": "Mul", "input": ["model_13/tf.math.add_70/Add", "model_13/tf.math.sigmoid_46/Sigmoid"], "attr": {"T": {"type": "DT_FLOAT"}}}, {"name": "model_13/tf.math.add_71/Add", "op": "_FusedConv2D", "input": ["model_13/tf.math.multiply_211/Mul", "model_13/tf.nn.convolution_47/convolution/filter", "model_13/tf.math.add_71/Add/y"], "device": "/device:CPU:0", "attr": {"padding": {"s": "U0FNRQ=="}, "fused_ops": {"list": {"s": ["Qmlhc0FkZA=="]}}, "leakyrelu_alpha": {"f": 0.2}, "epsilon": {"f": 0.0}, "data_format": {"s": "TkhXQw=="}, "T": {"type": "DT_FLOAT"}, "strides": {"list": {"i": ["1", "1", "1", "1"]}}, "num_args": {"i": "1"}, "filter_format": {"s": "SFdJTw=="}, "TArgs": {"list": {"type": ["DT_FLOAT"]}}, "num_host_args": {"i": "0"}, "dilations": {"list": {"i": ["1", "1", "1", "1"]}}, "explicit_paddings": {"list": {}}, "use_cudnn_on_gpu": {"b": true}}}, {"name": "model_13/tf.math.sigmoid_47/Sigmoid", "op": "Sigmoid", "input": ["model_13/tf.math.add_71/Add"], "attr": {"T": {"type": "DT_FLOAT"}}}, {"name": "model_13/tf.math.multiply_215/Mul", "op": "Mul", "input": ["model_13/tf.math.add_71/Add", "model_13/tf.math.sigmoid_47/Sigmoid"], "attr": {"T": {"type": "DT_FLOAT"}}}, {"name": "model_13/tf.math.add_72/Add", "op": "_FusedConv2D", "input": ["model_13/tf.math.multiply_215/Mul", "model_13/tf.nn.convolution_48/convolution/filter", "model_13/tf.math.add_72/Add/y"], "device": "/device:CPU:0", "attr": {"T": {"type": "DT_FLOAT"}, "explicit_paddings": {"list": {}}, "num_args": {"i": "1"}, "dilations": {"list": {"i": ["1", "1", "1", "1"]}}, "fused_ops": {"list": {"s": ["Qmlhc0FkZA=="]}}, "leakyrelu_alpha": {"f": 0.2}, "strides": {"list": {"i": ["1", "1", "1", "1"]}}, "epsilon": {"f": 0.0}, "filter_format": {"s": "SFdJTw=="}, "num_host_args": {"i": "0"}, "data_format": {"s": "TkhXQw=="}, "use_cudnn_on_gpu": {"b": true}, "padding": {"s": "U0FNRQ=="}, "TArgs": {"list": {"type": ["DT_FLOAT"]}}}}, {"name": "model_13/tf.math.sigmoid_48/Sigmoid", "op": "Sigmoid", "input": ["model_13/tf.math.add_72/Add"], "attr": {"T": {"type": "DT_FLOAT"}}}, {"name": "model_13/tf.math.multiply_219/Mul", "op": "Mul", "input": ["model_13/tf.math.add_72/Add", "model_13/tf.math.sigmoid_48/Sigmoid"], "attr": {"T": {"type": "DT_FLOAT"}}}, {"name": "model_13/tf.math.add_73/Add", "op": "_FusedConv2D", "input": ["model_13/tf.math.multiply_219/Mul", "model_13/tf.nn.convolution_49/convolution/filter", "model_13/tf.math.add_73/Add/y"], "device": "/device:CPU:0", "attr": {"use_cudnn_on_gpu": {"b": true}, "epsilon": {"f": 0.0}, "leakyrelu_alpha": {"f": 0.2}, "num_host_args": {"i": "0"}, "num_args": {"i": "1"}, "strides": {"list": {"i": ["1", "1", "1", "1"]}}, "dilations": {"list": {"i": ["1", "1", "1", "1"]}}, "fused_ops": {"list": {"s": ["Qmlhc0FkZA=="]}}, "data_format": {"s": "TkhXQw=="}, "TArgs": {"list": {"type": ["DT_FLOAT"]}}, "T": {"type": "DT_FLOAT"}, "filter_format": {"s": "SFdJTw=="}, "explicit_paddings": {"list": {}}, "padding": {"s": "U0FNRQ=="}}}, {"name": "model_13/tf.math.sigmoid_49/Sigmoid", "op": "Sigmoid", "input": ["model_13/tf.math.add_73/Add"], "attr": {"T": {"type": "DT_FLOAT"}}}, {"name": "model_13/tf.math.multiply_223/Mul", "op": "Mul", "input": ["model_13/tf.math.add_73/Add", "model_13/tf.math.sigmoid_49/Sigmoid"], "attr": {"T": {"type": "DT_FLOAT"}}}, {"name": "model_13/tf.concat_8/concat", "op": "ConcatV2", "input": ["model_13/tf.strided_slice_10/StridedSlice", "model_13/tf.strided_slice_11/StridedSlice", "model_13/tf.math.multiply_215/Mul", "model_13/tf.math.multiply_223/Mul", "model_13/tf.concat_8/concat/axis"], "attr": {"N": {"i": "4"}, "Tidx": {"type": "DT_INT32"}, "T": {"type": "DT_FLOAT"}}}, {"name": "model_13/tf.math.add_74/Add", "op": "_FusedConv2D", "input": ["model_13/tf.concat_8/concat", "model_13/tf.nn.convolution_50/convolution/filter", "model_13/tf.math.add_74/Add/y"], "device": "/device:CPU:0", "attr": {"T": {"type": "DT_FLOAT"}, "fused_ops": {"list": {"s": ["Qmlhc0FkZA=="]}}, "TArgs": {"list": {"type": ["DT_FLOAT"]}}, "num_host_args": {"i": "0"}, "epsilon": {"f": 0.0}, "num_args": {"i": "1"}, "use_cudnn_on_gpu": {"b": true}, "padding": {"s": "U0FNRQ=="}, "explicit_paddings": {"list": {}}, "dilations": {"list": {"i": ["1", "1", "1", "1"]}}, "strides": {"list": {"i": ["1", "1", "1", "1"]}}, "filter_format": {"s": "SFdJTw=="}, "leakyrelu_alpha": {"f": 0.2}, "data_format": {"s": "TkhXQw=="}}}, {"name": "model_13/tf.math.sigmoid_50/Sigmoid", "op": "Sigmoid", "input": ["model_13/tf.math.add_74/Add"], "attr": {"T": {"type": "DT_FLOAT"}}}, {"name": "model_13/tf.math.multiply_227/Mul", "op": "Mul", "input": ["model_13/tf.math.add_74/Add", "model_13/tf.math.sigmoid_50/Sigmoid"], "attr": {"T": {"type": "DT_FLOAT"}}}, {"name": "model_13/tf.math.add_76/Add", "op": "_FusedConv2D", "input": ["model_13/tf.math.multiply_227/Mul", "model_13/tf.nn.convolution_52/convolution/filter", "model_13/tf.math.add_76/Add/y"], "device": "/device:CPU:0", "attr": {"TArgs": {"list": {"type": ["DT_FLOAT"]}}, "num_args": {"i": "1"}, "leakyrelu_alpha": {"f": 0.2}, "dilations": {"list": {"i": ["1", "1", "1", "1"]}}, "filter_format": {"s": "SFdJTw=="}, "num_host_args": {"i": "0"}, "use_cudnn_on_gpu": {"b": true}, "strides": {"list": {"i": ["1", "1", "1", "1"]}}, "data_format": {"s": "TkhXQw=="}, "T": {"type": "DT_FLOAT"}, "epsilon": {"f": 0.0}, "padding": {"s": "U0FNRQ=="}, "explicit_paddings": {"list": {}}, "fused_ops": {"list": {"s": ["Qmlhc0FkZA=="]}}}}, {"name": "model_13/tf.compat.v1.nn.depthwise_conv2d/depthwise", "op": "FusedDepthwiseConv2dNative", "input": ["model_13/tf.math.multiply_227/Mul", "model_13/tf.compat.v1.nn.depthwise_conv2d/depthwise/filter_in", "model_13/tf.math.add_77/Add/y"], "attr": {"strides": {"list": {"i": ["1", "1", "1", "1"]}}, "data_format": {"s": "TkhXQw=="}, "explicit_paddings": {"list": {}}, "T": {"type": "DT_FLOAT"}, "padding": {"s": "U0FNRQ=="}, "dilations": {"list": {"i": ["1", "1", "1", "1"]}}, "num_args": {"i": "1"}, "fused_ops": {"list": {"s": ["Qmlhc0FkZA=="]}}}}, {"name": "model_13/tf.compat.v1.pad_5/Pad", "op": "Pad", "input": ["model_13/tf.math.multiply_227/Mul", "model_13/tf.compat.v1.pad_5/Pad/paddings"], "attr": {"T": {"type": "DT_FLOAT"}, "Tpaddings": {"type": "DT_INT32"}}}, {"name": "model_13/tf.math.sigmoid_52/Sigmoid", "op": "Sigmoid", "input": ["model_13/tf.math.add_76/Add"], "attr": {"T": {"type": "DT_FLOAT"}}}, {"name": "model_13/tf.math.add_75/Add", "op": "_FusedConv2D", "input": ["model_13/tf.compat.v1.pad_5/Pad", "model_13/tf.nn.convolution_51/convolution/filter", "model_13/tf.math.add_75/Add/y"], "device": "/device:CPU:0", "attr": {"explicit_paddings": {"list": {}}, "fused_ops": {"list": {"s": ["Qmlhc0FkZA=="]}}, "epsilon": {"f": 0.0}, "num_args": {"i": "1"}, "strides": {"list": {"i": ["1", "2", "2", "1"]}}, "dilations": {"list": {"i": ["1", "1", "1", "1"]}}, "data_format": {"s": "TkhXQw=="}, "TArgs": {"list": {"type": ["DT_FLOAT"]}}, "num_host_args": {"i": "0"}, "padding": {"s": "VkFMSUQ="}, "leakyrelu_alpha": {"f": 0.2}, "filter_format": {"s": "SFdJTw=="}, "use_cudnn_on_gpu": {"b": true}, "T": {"type": "DT_FLOAT"}}}, {"name": "model_13/tf.math.multiply_235/Mul", "op": "Mul", "input": ["model_13/tf.math.add_76/Add", "model_13/tf.math.sigmoid_52/Sigmoid"], "attr": {"T": {"type": "DT_FLOAT"}}}, {"name": "model_13/tf.math.sigmoid_53/Sigmoid", "op": "Sigmoid", "input": ["model_13/tf.compat.v1.nn.depthwise_conv2d/depthwise"], "attr": {"T": {"type": "DT_FLOAT"}}}, {"name": "model_13/tf.math.sigmoid_51/Sigmoid", "op": "Sigmoid", "input": ["model_13/tf.math.add_75/Add"], "attr": {"T": {"type": "DT_FLOAT"}}}, {"name": "model_13/tf.math.add_78/Add", "op": "_FusedConv2D", "input": ["model_13/tf.math.multiply_235/Mul", "model_13/tf.nn.convolution_53/convolution/filter", "model_13/tf.math.add_78/Add/y"], "device": "/device:CPU:0", "attr": {"num_args": {"i": "1"}, "epsilon": {"f": 0.0}, "filter_format": {"s": "SFdJTw=="}, "num_host_args": {"i": "0"}, "padding": {"s": "U0FNRQ=="}, "use_cudnn_on_gpu": {"b": true}, "explicit_paddings": {"list": {}}, "strides": {"list": {"i": ["1", "1", "1", "1"]}}, "T": {"type": "DT_FLOAT"}, "dilations": {"list": {"i": ["1", "1", "1", "1"]}}, "leakyrelu_alpha": {"f": 0.2}, "TArgs": {"list": {"type": ["DT_FLOAT"]}}, "data_format": {"s": "TkhXQw=="}, "fused_ops": {"list": {"s": ["Qmlhc0FkZA=="]}}}}, {"name": "model_13/tf.math.multiply_239/Mul", "op": "Mul", "input": ["model_13/tf.compat.v1.nn.depthwise_conv2d/depthwise", "model_13/tf.math.sigmoid_53/Sigmoid"], "attr": {"T": {"type": "DT_FLOAT"}}}, {"name": "model_13/tf.math.multiply_231/Mul", "op": "Mul", "input": ["model_13/tf.math.add_75/Add", "model_13/tf.math.sigmoid_51/Sigmoid"], "attr": {"T": {"type": "DT_FLOAT"}}}, {"name": "model_13/tf.math.sigmoid_54/Sigmoid", "op": "Sigmoid", "input": ["model_13/tf.math.add_78/Add"], "attr": {"T": {"type": "DT_FLOAT"}}}, {"name": "model_13/tf.math.add_79/Add", "op": "_FusedConv2D", "input": ["model_13/tf.math.multiply_239/Mul", "model_13/tf.nn.convolution_54/convolution/filter", "model_13/tf.math.add_79/Add/y"], "device": "/device:CPU:0", "attr": {"strides": {"list": {"i": ["1", "1", "1", "1"]}}, "padding": {"s": "U0FNRQ=="}, "num_args": {"i": "1"}, "leakyrelu_alpha": {"f": 0.2}, "num_host_args": {"i": "0"}, "dilations": {"list": {"i": ["1", "1", "1", "1"]}}, "explicit_paddings": {"list": {}}, "epsilon": {"f": 0.0}, "data_format": {"s": "TkhXQw=="}, "T": {"type": "DT_FLOAT"}, "use_cudnn_on_gpu": {"b": true}, "filter_format": {"s": "SFdJTw=="}, "TArgs": {"list": {"type": ["DT_FLOAT"]}}, "fused_ops": {"list": {"s": ["Qmlhc0FkZA=="]}}}}, {"name": "model_13/tf.concat_9/concat", "op": "ConcatV2", "input": ["model_13/tf.math.multiply_231/Mul", "model_13/tf.math.multiply_203/Mul", "model_13/tf.concat_9/concat/axis"], "attr": {"N": {"i": "2"}, "Tidx": {"type": "DT_INT32"}, "T": {"type": "DT_FLOAT"}}}, {"name": "model_13/tf.math.multiply_243/Mul", "op": "Mul", "input": ["model_13/tf.math.add_78/Add", "model_13/tf.math.sigmoid_54/Sigmoid"], "attr": {"T": {"type": "DT_FLOAT"}}}, {"name": "model_13/tf.math.sigmoid_55/Sigmoid", "op": "Sigmoid", "input": ["model_13/tf.math.add_79/Add"], "attr": {"T": {"type": "DT_FLOAT"}}}, {"name": "model_13/tf.math.add_80/Add", "op": "_FusedConv2D", "input": ["model_13/tf.concat_9/concat", "model_13/tf.nn.convolution_55/convolution/filter", "model_13/tf.math.add_80/Add/y"], "device": "/device:CPU:0", "attr": {"explicit_paddings": {"list": {}}, "TArgs": {"list": {"type": ["DT_FLOAT"]}}, "leakyrelu_alpha": {"f": 0.2}, "num_args": {"i": "1"}, "dilations": {"list": {"i": ["1", "1", "1", "1"]}}, "filter_format": {"s": "SFdJTw=="}, "epsilon": {"f": 0.0}, "num_host_args": {"i": "0"}, "padding": {"s": "U0FNRQ=="}, "strides": {"list": {"i": ["1", "1", "1", "1"]}}, "data_format": {"s": "TkhXQw=="}, "fused_ops": {"list": {"s": ["Qmlhc0FkZA=="]}}, "use_cudnn_on_gpu": {"b": true}, "T": {"type": "DT_FLOAT"}}}, {"name": "model_13/tf.math.add_81/Add", "op": "_FusedConv2D", "input": ["model_13/tf.math.multiply_243/Mul", "model_13/tf.nn.convolution_56/convolution/filter", "model_13/tf.math.add_81/Add/y"], "device": "/device:CPU:0", "attr": {"T": {"type": "DT_FLOAT"}, "strides": {"list": {"i": ["1", "1", "1", "1"]}}, "data_format": {"s": "TkhXQw=="}, "num_host_args": {"i": "0"}, "leakyrelu_alpha": {"f": 0.2}, "explicit_paddings": {"list": {}}, "num_args": {"i": "1"}, "TArgs": {"list": {"type": ["DT_FLOAT"]}}, "dilations": {"list": {"i": ["1", "1", "1", "1"]}}, "padding": {"s": "U0FNRQ=="}, "epsilon": {"f": 0.0}, "use_cudnn_on_gpu": {"b": true}, "filter_format": {"s": "SFdJTw=="}, "fused_ops": {"list": {"s": ["Qmlhc0FkZA=="]}}}}, {"name": "model_13/tf.math.multiply_247/Mul", "op": "Mul", "input": ["model_13/tf.math.add_79/Add", "model_13/tf.math.sigmoid_55/Sigmoid"], "attr": {"T": {"type": "DT_FLOAT"}}}, {"name": "model_13/tf.math.sigmoid_56/Sigmoid", "op": "Sigmoid", "input": ["model_13/tf.math.add_80/Add"], "attr": {"T": {"type": "DT_FLOAT"}}}, {"name": "model_13/tf.compat.v1.nn.depthwise_conv2d_1/depthwise", "op": "FusedDepthwiseConv2dNative", "input": ["model_13/tf.math.multiply_247/Mul", "model_13/tf.compat.v1.nn.depthwise_conv2d_1/depthwise/filter_in", "model_13/tf.math.add_82/Add/y"], "attr": {"strides": {"list": {"i": ["1", "1", "1", "1"]}}, "dilations": {"list": {"i": ["1", "1", "1", "1"]}}, "explicit_paddings": {"list": {}}, "T": {"type": "DT_FLOAT"}, "data_format": {"s": "TkhXQw=="}, "padding": {"s": "U0FNRQ=="}, "num_args": {"i": "1"}, "fused_ops": {"list": {"s": ["Qmlhc0FkZA=="]}}}}, {"name": "model_13/tf.math.multiply_251/Mul", "op": "Mul", "input": ["model_13/tf.math.add_80/Add", "model_13/tf.math.sigmoid_56/Sigmoid"], "attr": {"T": {"type": "DT_FLOAT"}}}, {"name": "model_13/tf.strided_slice_12/StridedSlice", "op": "StridedSlice", "input": ["model_13/tf.math.multiply_251/Mul", "model_13/tf.strided_slice_12/ones_like/tensor", "model_13/tf.strided_slice_12/StridedSlice/end", "model_13/tf.strided_slice_12/ones_like"], "attr": {"shrink_axis_mask": {"i": "0"}, "T": {"type": "DT_FLOAT"}, "new_axis_mask": {"i": "0"}, "ellipsis_mask": {"i": "0"}, "Index": {"type": "DT_INT64"}, "end_mask": {"i": "7"}, "begin_mask": {"i": "15"}}}, {"name": "model_13/tf.strided_slice_13/StridedSlice", "op": "StridedSlice", "input": ["model_13/tf.math.multiply_251/Mul", "model_13/tf.strided_slice_13/ones_like/tensor", "model_13/tf.strided_slice_13/StridedSlice/end", "model_13/tf.strided_slice_13/ones_like"], "attr": {"ellipsis_mask": {"i": "0"}, "begin_mask": {"i": "7"}, "new_axis_mask": {"i": "0"}, "Index": {"type": "DT_INT64"}, "T": {"type": "DT_FLOAT"}, "shrink_axis_mask": {"i": "0"}, "end_mask": {"i": "7"}}}, {"name": "model_13/tf.math.sigmoid_57/Sigmoid", "op": "Sigmoid", "input": ["model_13/tf.compat.v1.nn.depthwise_conv2d_1/depthwise"], "attr": {"T": {"type": "DT_FLOAT"}}}, {"name": "model_13/tf.math.add_83/Add", "op": "_FusedConv2D", "input": ["model_13/tf.strided_slice_13/StridedSlice", "model_13/tf.nn.convolution_57/convolution/filter", "model_13/tf.math.add_83/Add/y"], "device": "/device:CPU:0", "attr": {"padding": {"s": "U0FNRQ=="}, "num_host_args": {"i": "0"}, "fused_ops": {"list": {"s": ["Qmlhc0FkZA=="]}}, "T": {"type": "DT_FLOAT"}, "dilations": {"list": {"i": ["1", "1", "1", "1"]}}, "num_args": {"i": "1"}, "epsilon": {"f": 0.0}, "data_format": {"s": "TkhXQw=="}, "use_cudnn_on_gpu": {"b": true}, "strides": {"list": {"i": ["1", "1", "1", "1"]}}, "leakyrelu_alpha": {"f": 0.2}, "TArgs": {"list": {"type": ["DT_FLOAT"]}}, "filter_format": {"s": "SFdJTw=="}, "explicit_paddings": {"list": {}}}}, {"name": "model_13/tf.math.multiply_255/Mul", "op": "Mul", "input": ["model_13/tf.compat.v1.nn.depthwise_conv2d_1/depthwise", "model_13/tf.math.sigmoid_57/Sigmoid"], "attr": {"T": {"type": "DT_FLOAT"}}}, {"name": "model_13/tf.math.sigmoid_58/Sigmoid", "op": "Sigmoid", "input": ["model_13/tf.math.add_83/Add"], "attr": {"T": {"type": "DT_FLOAT"}}}, {"name": "model_13/tf.math.add_84/Add", "op": "_FusedConv2D", "input": ["model_13/tf.math.multiply_255/Mul", "model_13/tf.nn.convolution_58/convolution/filter", "model_13/tf.math.add_84/Add/y"], "device": "/device:CPU:0", "attr": {"strides": {"list": {"i": ["1", "1", "1", "1"]}}, "epsilon": {"f": 0.0}, "explicit_paddings": {"list": {}}, "dilations": {"list": {"i": ["1", "1", "1", "1"]}}, "data_format": {"s": "TkhXQw=="}, "num_args": {"i": "1"}, "padding": {"s": "U0FNRQ=="}, "T": {"type": "DT_FLOAT"}, "use_cudnn_on_gpu": {"b": true}, "TArgs": {"list": {"type": ["DT_FLOAT"]}}, "filter_format": {"s": "SFdJTw=="}, "fused_ops": {"list": {"s": ["Qmlhc0FkZA=="]}}, "leakyrelu_alpha": {"f": 0.2}, "num_host_args": {"i": "0"}}}, {"name": "model_13/tf.math.multiply_259/Mul", "op": "Mul", "input": ["model_13/tf.math.add_83/Add", "model_13/tf.math.sigmoid_58/Sigmoid"], "attr": {"T": {"type": "DT_FLOAT"}}}, {"name": "model_13/tf.math.sigmoid_59/Sigmoid", "op": "Sigmoid", "input": ["model_13/tf.math.add_84/Add"], "attr": {"T": {"type": "DT_FLOAT"}}}, {"name": "model_13/tf.math.add_85/Add", "op": "_FusedConv2D", "input": ["model_13/tf.math.multiply_259/Mul", "model_13/tf.nn.convolution_59/convolution/filter", "model_13/tf.math.add_85/Add/y"], "device": "/device:CPU:0", "attr": {"data_format": {"s": "TkhXQw=="}, "dilations": {"list": {"i": ["1", "1", "1", "1"]}}, "padding": {"s": "U0FNRQ=="}, "num_args": {"i": "1"}, "num_host_args": {"i": "0"}, "epsilon": {"f": 0.0}, "T": {"type": "DT_FLOAT"}, "TArgs": {"list": {"type": ["DT_FLOAT"]}}, "strides": {"list": {"i": ["1", "1", "1", "1"]}}, "explicit_paddings": {"list": {}}, "fused_ops": {"list": {"s": ["Qmlhc0FkZA=="]}}, "use_cudnn_on_gpu": {"b": true}, "leakyrelu_alpha": {"f": 0.2}, "filter_format": {"s": "SFdJTw=="}}}, {"name": "model_13/tf.math.multiply_263/Mul", "op": "Mul", "input": ["model_13/tf.math.add_84/Add", "model_13/tf.math.sigmoid_59/Sigmoid"], "attr": {"T": {"type": "DT_FLOAT"}}}, {"name": "model_13/tf.math.sigmoid_60/Sigmoid", "op": "Sigmoid", "input": ["model_13/tf.math.add_85/Add"], "attr": {"T": {"type": "DT_FLOAT"}}}, {"name": "model_13/tf.math.add_86/Add", "op": "_FusedConv2D", "input": ["model_13/tf.math.multiply_263/Mul", "model_13/tf.nn.convolution_60/convolution/filter", "model_13/tf.math.add_86/Add/y"], "device": "/device:CPU:0", "attr": {"dilations": {"list": {"i": ["1", "1", "1", "1"]}}, "strides": {"list": {"i": ["1", "1", "1", "1"]}}, "data_format": {"s": "TkhXQw=="}, "leakyrelu_alpha": {"f": 0.2}, "num_host_args": {"i": "0"}, "TArgs": {"list": {"type": ["DT_FLOAT"]}}, "num_args": {"i": "1"}, "use_cudnn_on_gpu": {"b": true}, "fused_ops": {"list": {"s": ["Qmlhc0FkZA=="]}}, "T": {"type": "DT_FLOAT"}, "epsilon": {"f": 0.0}, "filter_format": {"s": "SFdJTw=="}, "padding": {"s": "U0FNRQ=="}, "explicit_paddings": {"list": {}}}}, {"name": "model_13/tf.math.multiply_267/Mul", "op": "Mul", "input": ["model_13/tf.math.add_85/Add", "model_13/tf.math.sigmoid_60/Sigmoid"], "attr": {"T": {"type": "DT_FLOAT"}}}, {"name": "model_13/tf.concat_10/concat", "op": "ConcatV2", "input": ["model_13/tf.math.add_81/Add", "model_13/tf.math.add_86/Add", "model_13/tf.concat_10/concat/axis"], "attr": {"Tidx": {"type": "DT_INT32"}, "T": {"type": "DT_FLOAT"}, "N": {"i": "2"}}}, {"name": "model_13/tf.math.add_87/Add", "op": "_FusedConv2D", "input": ["model_13/tf.math.multiply_267/Mul", "model_13/tf.nn.convolution_61/convolution/filter", "model_13/tf.math.add_87/Add/y"], "device": "/device:CPU:0", "attr": {"num_host_args": {"i": "0"}, "TArgs": {"list": {"type": ["DT_FLOAT"]}}, "padding": {"s": "U0FNRQ=="}, "strides": {"list": {"i": ["1", "1", "1", "1"]}}, "num_args": {"i": "1"}, "T": {"type": "DT_FLOAT"}, "use_cudnn_on_gpu": {"b": true}, "dilations": {"list": {"i": ["1", "1", "1", "1"]}}, "explicit_paddings": {"list": {}}, "epsilon": {"f": 0.0}, "data_format": {"s": "TkhXQw=="}, "filter_format": {"s": "SFdJTw=="}, "fused_ops": {"list": {"s": ["Qmlhc0FkZA=="]}}, "leakyrelu_alpha": {"f": 0.2}}}, {"name": "model_13/tf.compat.v1.transpose_2/transpose", "op": "Transpose", "input": ["model_13/tf.concat_10/concat", "model_13/tf.compat.v1.transpose_2/transpose/perm"], "attr": {"T": {"type": "DT_FLOAT"}, "Tperm": {"type": "DT_INT32"}}}, {"name": "model_13/tf.math.sigmoid_61/Sigmoid", "op": "Sigmoid", "input": ["model_13/tf.math.add_87/Add"], "attr": {"T": {"type": "DT_FLOAT"}}}, {"name": "model_13/tf.reshape_2/Reshape", "op": "Reshape", "input": ["model_13/tf.compat.v1.transpose_2/transpose", "model_13/tf.reshape_2/Reshape/shape"], "attr": {"T": {"type": "DT_FLOAT"}, "Tshape": {"type": "DT_INT32"}}}, {"name": "model_13/tf.math.multiply_271/Mul", "op": "Mul", "input": ["model_13/tf.math.add_87/Add", "model_13/tf.math.sigmoid_61/Sigmoid"], "attr": {"T": {"type": "DT_FLOAT"}}}, {"name": "model_13/tf.math.add_88/Add", "op": "_FusedConv2D", "input": ["model_13/tf.math.multiply_271/Mul", "model_13/tf.nn.convolution_62/convolution/filter", "model_13/tf.math.add_88/Add/y"], "device": "/device:CPU:0", "attr": {"epsilon": {"f": 0.0}, "strides": {"list": {"i": ["1", "1", "1", "1"]}}, "explicit_paddings": {"list": {}}, "filter_format": {"s": "SFdJTw=="}, "leakyrelu_alpha": {"f": 0.2}, "TArgs": {"list": {"type": ["DT_FLOAT"]}}, "fused_ops": {"list": {"s": ["Qmlhc0FkZA=="]}}, "num_args": {"i": "1"}, "dilations": {"list": {"i": ["1", "1", "1", "1"]}}, "data_format": {"s": "TkhXQw=="}, "use_cudnn_on_gpu": {"b": true}, "num_host_args": {"i": "0"}, "T": {"type": "DT_FLOAT"}, "padding": {"s": "U0FNRQ=="}}}, {"name": "model_13/tf.math.sigmoid_62/Sigmoid", "op": "Sigmoid", "input": ["model_13/tf.math.add_88/Add"], "attr": {"T": {"type": "DT_FLOAT"}}}, {"name": "model_13/tf.math.multiply_275/Mul", "op": "Mul", "input": ["model_13/tf.math.add_88/Add", "model_13/tf.math.sigmoid_62/Sigmoid"], "attr": {"T": {"type": "DT_FLOAT"}}}, {"name": "model_13/tf.concat_11/concat", "op": "ConcatV2", "input": ["model_13/tf.strided_slice_12/StridedSlice", "model_13/tf.strided_slice_13/StridedSlice", "model_13/tf.math.multiply_267/Mul", "model_13/tf.math.multiply_275/Mul", "model_13/tf.concat_11/concat/axis"], "attr": {"Tidx": {"type": "DT_INT32"}, "T": {"type": "DT_FLOAT"}, "N": {"i": "4"}}}, {"name": "model_13/tf.math.add_89/Add", "op": "_FusedConv2D", "input": ["model_13/tf.concat_11/concat", "model_13/tf.nn.convolution_63/convolution/filter", "model_13/tf.math.add_89/Add/y"], "device": "/device:CPU:0", "attr": {"filter_format": {"s": "SFdJTw=="}, "T": {"type": "DT_FLOAT"}, "TArgs": {"list": {"type": ["DT_FLOAT"]}}, "strides": {"list": {"i": ["1", "1", "1", "1"]}}, "num_host_args": {"i": "0"}, "use_cudnn_on_gpu": {"b": true}, "padding": {"s": "U0FNRQ=="}, "data_format": {"s": "TkhXQw=="}, "fused_ops": {"list": {"s": ["Qmlhc0FkZA=="]}}, "dilations": {"list": {"i": ["1", "1", "1", "1"]}}, "epsilon": {"f": 0.0}, "explicit_paddings": {"list": {}}, "num_args": {"i": "1"}, "leakyrelu_alpha": {"f": 0.2}}}, {"name": "model_13/tf.math.sigmoid_63/Sigmoid", "op": "Sigmoid", "input": ["model_13/tf.math.add_89/Add"], "attr": {"T": {"type": "DT_FLOAT"}}}, {"name": "model_13/tf.math.multiply_279/Mul", "op": "Mul", "input": ["model_13/tf.math.add_89/Add", "model_13/tf.math.sigmoid_63/Sigmoid"], "attr": {"T": {"type": "DT_FLOAT"}}}, {"name": "model_13/tf.math.add_91/Add", "op": "_FusedConv2D", "input": ["model_13/tf.math.multiply_279/Mul", "model_13/tf.nn.convolution_65/convolution/filter", "model_13/tf.math.add_91/Add/y"], "device": "/device:CPU:0", "attr": {"num_args": {"i": "1"}, "data_format": {"s": "TkhXQw=="}, "explicit_paddings": {"list": {}}, "epsilon": {"f": 0.0}, "dilations": {"list": {"i": ["1", "1", "1", "1"]}}, "num_host_args": {"i": "0"}, "use_cudnn_on_gpu": {"b": true}, "fused_ops": {"list": {"s": ["Qmlhc0FkZA=="]}}, "strides": {"list": {"i": ["1", "1", "1", "1"]}}, "padding": {"s": "U0FNRQ=="}, "T": {"type": "DT_FLOAT"}, "filter_format": {"s": "SFdJTw=="}, "leakyrelu_alpha": {"f": 0.2}, "TArgs": {"list": {"type": ["DT_FLOAT"]}}}}, {"name": "model_13/tf.compat.v1.nn.depthwise_conv2d_2/depthwise", "op": "FusedDepthwiseConv2dNative", "input": ["model_13/tf.math.multiply_279/Mul", "model_13/tf.compat.v1.nn.depthwise_conv2d_2/depthwise/filter_in", "model_13/tf.math.add_92/Add/y"], "attr": {"T": {"type": "DT_FLOAT"}, "strides": {"list": {"i": ["1", "1", "1", "1"]}}, "data_format": {"s": "TkhXQw=="}, "explicit_paddings": {"list": {}}, "dilations": {"list": {"i": ["1", "1", "1", "1"]}}, "padding": {"s": "U0FNRQ=="}, "num_args": {"i": "1"}, "fused_ops": {"list": {"s": ["Qmlhc0FkZA=="]}}}}, {"name": "model_13/tf.compat.v1.pad_6/Pad", "op": "Pad", "input": ["model_13/tf.math.multiply_279/Mul", "model_13/tf.compat.v1.pad_6/Pad/paddings"], "attr": {"T": {"type": "DT_FLOAT"}, "Tpaddings": {"type": "DT_INT32"}}}, {"name": "model_13/tf.math.sigmoid_65/Sigmoid", "op": "Sigmoid", "input": ["model_13/tf.math.add_91/Add"], "attr": {"T": {"type": "DT_FLOAT"}}}, {"name": "model_13/tf.math.add_90/Add", "op": "_FusedConv2D", "input": ["model_13/tf.compat.v1.pad_6/Pad", "model_13/tf.nn.convolution_64/convolution/filter", "model_13/tf.math.add_90/Add/y"], "device": "/device:CPU:0", "attr": {"num_args": {"i": "1"}, "num_host_args": {"i": "0"}, "use_cudnn_on_gpu": {"b": true}, "T": {"type": "DT_FLOAT"}, "explicit_paddings": {"list": {}}, "data_format": {"s": "TkhXQw=="}, "leakyrelu_alpha": {"f": 0.2}, "filter_format": {"s": "SFdJTw=="}, "padding": {"s": "VkFMSUQ="}, "dilations": {"list": {"i": ["1", "1", "1", "1"]}}, "epsilon": {"f": 0.0}, "TArgs": {"list": {"type": ["DT_FLOAT"]}}, "fused_ops": {"list": {"s": ["Qmlhc0FkZA=="]}}, "strides": {"list": {"i": ["1", "2", "2", "1"]}}}}, {"name": "model_13/tf.math.multiply_287/Mul", "op": "Mul", "input": ["model_13/tf.math.add_91/Add", "model_13/tf.math.sigmoid_65/Sigmoid"], "attr": {"T": {"type": "DT_FLOAT"}}}, {"name": "model_13/tf.math.sigmoid_66/Sigmoid", "op": "Sigmoid", "input": ["model_13/tf.compat.v1.nn.depthwise_conv2d_2/depthwise"], "attr": {"T": {"type": "DT_FLOAT"}}}, {"name": "model_13/tf.math.sigmoid_64/Sigmoid", "op": "Sigmoid", "input": ["model_13/tf.math.add_90/Add"], "attr": {"T": {"type": "DT_FLOAT"}}}, {"name": "model_13/tf.math.add_93/Add", "op": "_FusedConv2D", "input": ["model_13/tf.math.multiply_287/Mul", "model_13/tf.nn.convolution_66/convolution/filter", "model_13/tf.math.add_93/Add/y"], "device": "/device:CPU:0", "attr": {"epsilon": {"f": 0.0}, "use_cudnn_on_gpu": {"b": true}, "T": {"type": "DT_FLOAT"}, "leakyrelu_alpha": {"f": 0.2}, "explicit_paddings": {"list": {}}, "num_host_args": {"i": "0"}, "data_format": {"s": "TkhXQw=="}, "num_args": {"i": "1"}, "filter_format": {"s": "SFdJTw=="}, "fused_ops": {"list": {"s": ["Qmlhc0FkZA=="]}}, "padding": {"s": "U0FNRQ=="}, "dilations": {"list": {"i": ["1", "1", "1", "1"]}}, "TArgs": {"list": {"type": ["DT_FLOAT"]}}, "strides": {"list": {"i": ["1", "1", "1", "1"]}}}}, {"name": "model_13/tf.math.multiply_291/Mul", "op": "Mul", "input": ["model_13/tf.compat.v1.nn.depthwise_conv2d_2/depthwise", "model_13/tf.math.sigmoid_66/Sigmoid"], "attr": {"T": {"type": "DT_FLOAT"}}}, {"name": "model_13/tf.math.multiply_283/Mul", "op": "Mul", "input": ["model_13/tf.math.add_90/Add", "model_13/tf.math.sigmoid_64/Sigmoid"], "attr": {"T": {"type": "DT_FLOAT"}}}, {"name": "model_13/tf.math.sigmoid_67/Sigmoid", "op": "Sigmoid", "input": ["model_13/tf.math.add_93/Add"], "attr": {"T": {"type": "DT_FLOAT"}}}, {"name": "model_13/tf.math.add_94/Add", "op": "_FusedConv2D", "input": ["model_13/tf.math.multiply_291/Mul", "model_13/tf.nn.convolution_67/convolution/filter", "model_13/tf.math.add_94/Add/y"], "device": "/device:CPU:0", "attr": {"leakyrelu_alpha": {"f": 0.2}, "dilations": {"list": {"i": ["1", "1", "1", "1"]}}, "data_format": {"s": "TkhXQw=="}, "epsilon": {"f": 0.0}, "filter_format": {"s": "SFdJTw=="}, "num_host_args": {"i": "0"}, "TArgs": {"list": {"type": ["DT_FLOAT"]}}, "num_args": {"i": "1"}, "T": {"type": "DT_FLOAT"}, "use_cudnn_on_gpu": {"b": true}, "strides": {"list": {"i": ["1", "1", "1", "1"]}}, "padding": {"s": "U0FNRQ=="}, "explicit_paddings": {"list": {}}, "fused_ops": {"list": {"s": ["Qmlhc0FkZA=="]}}}}, {"name": "model_13/tf.concat_12/concat", "op": "ConcatV2", "input": ["model_13/tf.math.multiply_283/Mul", "model_13/tf.math.multiply_179/Mul", "model_13/tf.concat_12/concat/axis"], "attr": {"N": {"i": "2"}, "T": {"type": "DT_FLOAT"}, "Tidx": {"type": "DT_INT32"}}}, {"name": "model_13/tf.math.multiply_295/Mul", "op": "Mul", "input": ["model_13/tf.math.add_93/Add", "model_13/tf.math.sigmoid_67/Sigmoid"], "attr": {"T": {"type": "DT_FLOAT"}}}, {"name": "model_13/tf.math.sigmoid_68/Sigmoid", "op": "Sigmoid", "input": ["model_13/tf.math.add_94/Add"], "attr": {"T": {"type": "DT_FLOAT"}}}, {"name": "model_13/tf.math.add_95/Add", "op": "_FusedConv2D", "input": ["model_13/tf.concat_12/concat", "model_13/tf.nn.convolution_68/convolution/filter", "model_13/tf.math.add_95/Add/y"], "device": "/device:CPU:0", "attr": {"data_format": {"s": "TkhXQw=="}, "leakyrelu_alpha": {"f": 0.2}, "dilations": {"list": {"i": ["1", "1", "1", "1"]}}, "strides": {"list": {"i": ["1", "1", "1", "1"]}}, "filter_format": {"s": "SFdJTw=="}, "fused_ops": {"list": {"s": ["Qmlhc0FkZA=="]}}, "explicit_paddings": {"list": {}}, "T": {"type": "DT_FLOAT"}, "use_cudnn_on_gpu": {"b": true}, "TArgs": {"list": {"type": ["DT_FLOAT"]}}, "padding": {"s": "U0FNRQ=="}, "epsilon": {"f": 0.0}, "num_host_args": {"i": "0"}, "num_args": {"i": "1"}}}, {"n…
"model_13/tf.strided_slice_14/StridedSlice", "op": "StridedSlice", "input": ["model_13/tf.math.multiply_303/Mul", "model_13/tf.strided_slice_14/ones_like/tensor", "model_13/tf.strided_slice_14/StridedSlice/end", "model_13/tf.strided_slice_14/ones_like"], "attr": {"T": {"type": "DT_FLOAT"}, "new_axis_mask": {"i": "0"}, "begin_mask": {"i": "15"}, "Index": {"type": "DT_INT64"}, "shrink_axis_mask": {"i": "0"}, "ellipsis_mask": {"i": "0"}, "end_mask": {"i": "7"}}}, {"name": "model_13/tf.strided_slice_15/StridedSlice", "op": "StridedSlice", "input": ["model_13/tf.math.multiply_303/Mul", "model_13/tf.strided_slice_15/ones_like/tensor", "model_13/tf.strided_slice_15/StridedSlice/end", "model_13/tf.strided_slice_15/ones_like"], "attr": {"shrink_axis_mask": {"i": "0"}, "Index": {"type": "DT_INT64"}, "T": {"type": "DT_FLOAT"}, "ellipsis_mask": {"i": "0"}, "new_axis_mask": {"i": "0"}, "begin_mask": {"i": "7"}, "end_mask": {"i": "7"}}}, {"name": "model_13/tf.math.sigmoid_70/Sigmoid", "op": "Sigmoid", "input": ["model_13/tf.compat.v1.nn.depthwise_conv2d_3/depthwise"], "attr": {"T": {"type": "DT_FLOAT"}}}, {"name": "model_13/tf.math.add_98/Add", "op": "_FusedConv2D", "input": ["model_13/tf.strided_slice_15/StridedSlice", "model_13/tf.nn.convolution_70/convolution/filter", "model_13/tf.math.add_98/Add/y"], "device": "/device:CPU:0", "attr": {"fused_ops": {"list": {"s": ["Qmlhc0FkZA=="]}}, "use_cudnn_on_gpu": {"b": true}, "filter_format": {"s": "SFdJTw=="}, "num_args": {"i": "1"}, "TArgs": {"list": {"type": ["DT_FLOAT"]}}, "T": {"type": "DT_FLOAT"}, "num_host_args": {"i": "0"}, "epsilon": {"f": 0.0}, "explicit_paddings": {"list": {}}, "data_format": {"s": "TkhXQw=="}, "strides": {"list": {"i": ["1", "1", "1", "1"]}}, "leakyrelu_alpha": {"f": 0.2}, "padding": {"s": "U0FNRQ=="}, "dilations": {"list": {"i": ["1", "1", "1", "1"]}}}}, {"name": "model_13/tf.math.multiply_307/Mul", "op": "Mul", "input": ["model_13/tf.compat.v1.nn.depthwise_conv2d_3/depthwise", "model_13/tf.math.sigmoid_70/Sigmoid"], "attr": {"T": {"type": "DT_FLOAT"}}}, {"name": "model_13/tf.math.sigmoid_71/Sigmoid", "op": "Sigmoid", "input": ["model_13/tf.math.add_98/Add"], "attr": {"T": {"type": "DT_FLOAT"}}}, {"name": "model_13/tf.math.add_99/Add", "op": "_FusedConv2D", "input": ["model_13/tf.math.multiply_307/Mul", "model_13/tf.nn.convolution_71/convolution/filter", "model_13/tf.math.add_99/Add/y"], "device": "/device:CPU:0", "attr": {"leakyrelu_alpha": {"f": 0.2}, "data_format": {"s": "TkhXQw=="}, "T": {"type": "DT_FLOAT"}, "strides": {"list": {"i": ["1", "1", "1", "1"]}}, "epsilon": {"f": 0.0}, "padding": {"s": "U0FNRQ=="}, "num_args": {"i": "1"}, "use_cudnn_on_gpu": {"b": true}, "filter_format": {"s": "SFdJTw=="}, "num_host_args": {"i": "0"}, "dilations": {"list": {"i": ["1", "1", "1", "1"]}}, "TArgs": {"list": {"type": ["DT_FLOAT"]}}, "fused_ops": {"list": {"s": ["Qmlhc0FkZA=="]}}, "explicit_paddings": {"list": {}}}}, {"name": "model_13/tf.math.multiply_311/Mul", "op": "Mul", "input": ["model_13/tf.math.add_98/Add", "model_13/tf.math.sigmoid_71/Sigmoid"], "attr": {"T": {"type": "DT_FLOAT"}}}, {"name": "model_13/tf.math.sigmoid_72/Sigmoid", "op": "Sigmoid", "input": ["model_13/tf.math.add_99/Add"], "attr": {"T": {"type": "DT_FLOAT"}}}, {"name": "model_13/tf.math.add_100/Add", "op": "_FusedConv2D", "input": ["model_13/tf.math.multiply_311/Mul", "model_13/tf.nn.convolution_72/convolution/filter", "model_13/tf.math.add_100/Add/y"], "device": "/device:CPU:0", "attr": {"explicit_paddings": {"list": {}}, "dilations": {"list": {"i": ["1", "1", "1", "1"]}}, "T": {"type": "DT_FLOAT"}, "padding": {"s": "U0FNRQ=="}, "num_host_args": {"i": "0"}, "leakyrelu_alpha": {"f": 0.2}, "TArgs": {"list": {"type": ["DT_FLOAT"]}}, "fused_ops": {"list": {"s": ["Qmlhc0FkZA=="]}}, "use_cudnn_on_gpu": {"b": true}, "epsilon": {"f": 0.0}, "data_format": {"s": "TkhXQw=="}, "strides": {"list": {"i": ["1", "1", "1", "1"]}}, "filter_format": {"s": "SFdJTw=="}, "num_args": {"i": "1"}}}, {"name": "model_13/tf.math.multiply_315/Mul", "op": "Mul", "input": ["model_13/tf.math.add_99/Add", "model_13/tf.math.sigmoid_72/Sigmoid"], "attr": {"T": {"type": "DT_FLOAT"}}}, {"name": "model_13/tf.math.sigmoid_73/Sigmoid", "op": "Sigmoid", "input": ["model_13/tf.math.add_100/Add"], "attr": {"T": {"type": "DT_FLOAT"}}}, {"name": "model_13/tf.math.add_101/Add", "op": "_FusedConv2D", "input": ["model_13/tf.math.multiply_315/Mul", "model_13/tf.nn.convolution_73/convolution/filter", "model_13/tf.math.add_101/Add/y"], "device": "/device:CPU:0", "attr": {"TArgs": {"list": {"type": ["DT_FLOAT"]}}, "leakyrelu_alpha": {"f": 0.2}, "dilations": {"list": {"i": ["1", "1", "1", "1"]}}, "data_format": {"s": "TkhXQw=="}, "fused_ops": {"list": {"s": ["Qmlhc0FkZA=="]}}, "num_host_args": {"i": "0"}, "filter_format": {"s": "SFdJTw=="}, "num_args": {"i": "1"}, "explicit_paddings": {"list": {}}, "strides": {"list": {"i": ["1", "1", "1", "1"]}}, "padding": {"s": "U0FNRQ=="}, "epsilon": {"f": 0.0}, "use_cudnn_on_gpu": {"b": true}, "T": {"type": "DT_FLOAT"}}}, {"name": "model_13/tf.math.multiply_319/Mul", "op": "Mul", "input": ["model_13/tf.math.add_100/Add", "model_13/tf.math.sigmoid_73/Sigmoid"], "attr": {"T": {"type": "DT_FLOAT"}}}, {"name": "model_13/tf.concat_13/concat", "op": "ConcatV2", "input": ["model_13/tf.math.add_96/Add", "model_13/tf.math.add_101/Add", "model_13/tf.concat_13/concat/axis"], "attr": {"Tidx": {"type": "DT_INT32"}, "T": {"type": "DT_FLOAT"}, "N": {"i": "2"}}}, {"name": "model_13/tf.math.add_102/Add", "op": "_FusedConv2D", "input": ["model_13/tf.math.multiply_319/Mul", "model_13/tf.nn.convolution_74/convolution/filter", "model_13/tf.math.add_102/Add/y"], "device": "/device:CPU:0", "attr": {"explicit_paddings": {"list": {}}, "padding": {"s": "U0FNRQ=="}, "filter_format": {"s": "SFdJTw=="}, "leakyrelu_alpha": {"f": 0.2}, "num_args": {"i": "1"}, "strides": {"list": {"i": ["1", "1", "1", "1"]}}, "T": {"type": "DT_FLOAT"}, "epsilon": {"f": 0.0}, "fused_ops": {"list": {"s": ["Qmlhc0FkZA=="]}}, "num_host_args": {"i": "0"}, "data_format": {"s": "TkhXQw=="}, "TArgs": {"list": {"type": ["DT_FLOAT"]}}, "dilations": {"list": {"i": ["1", "1", "1", "1"]}}, "use_cudnn_on_gpu": {"b": true}}}, {"name": "model_13/tf.compat.v1.transpose_7/transpose", "op": "Transpose", "input": ["model_13/tf.concat_13/concat", "model_13/tf.compat.v1.transpose_7/transpose/perm"], "attr": {"Tperm": {"type": "DT_INT32"}, "T": {"type": "DT_FLOAT"}}}, {"name": "model_13/tf.math.sigmoid_74/Sigmoid", "op": "Sigmoid", "input": ["model_13/tf.math.add_102/Add"], "attr": {"T": {"type": "DT_FLOAT"}}}, {"name": "model_13/tf.reshape_5/Reshape", "op": "Reshape", "input": ["model_13/tf.compat.v1.transpose_7/transpose", "model_13/tf.reshape_5/Reshape/shape"], "attr": {"T": {"type": "DT_FLOAT"}, "Tshape": {"type": "DT_INT32"}}}, {"name": "model_13/tf.math.multiply_323/Mul", "op": "Mul", "input": ["model_13/tf.math.add_102/Add", "model_13/tf.math.sigmoid_74/Sigmoid"], "attr": {"T": {"type": "DT_FLOAT"}}}, {"name": "model_13/tf.math.add_103/Add", "op": "_FusedConv2D", "input": ["model_13/tf.math.multiply_323/Mul", "model_13/tf.nn.convolution_75/convolution/filter", "model_13/tf.math.add_103/Add/y"], "device": "/device:CPU:0", "attr": {"strides": {"list": {"i": ["1", "1", "1", "1"]}}, "data_format": {"s": "TkhXQw=="}, "filter_format": {"s": "SFdJTw=="}, "padding": {"s": "U0FNRQ=="}, "TArgs": {"list": {"type": ["DT_FLOAT"]}}, "explicit_paddings": {"list": {}}, "T": {"type": "DT_FLOAT"}, "use_cudnn_on_gpu": {"b": true}, "epsilon": {"f": 0.0}, "dilations": {"list": {"i": ["1", "1", "1", "1"]}}, "num_host_args": {"i": "0"}, "leakyrelu_alpha": {"f": 0.2}, "fused_ops": {"list": {"s": ["Qmlhc0FkZA=="]}}, "num_args": {"i": "1"}}}, {"name": "model_13/tf.math.sigmoid_75/Sigmoid", "op": "Sigmoid", "input": ["model_13/tf.math.add_103/Add"], "attr": {"T": {"type": "DT_FLOAT"}}}, {"name": "model_13/tf.math.multiply_327/Mul", "op": "Mul", "input": ["model_13/tf.math.add_103/Add", "model_13/tf.math.sigmoid_75/Sigmoid"], "attr": {"T": {"type": "DT_FLOAT"}}}, {"name": "model_13/tf.concat_14/concat", "op": "ConcatV2", "input": ["model_13/tf.strided_slice_14/StridedSlice", "model_13/tf.strided_slice_15/StridedSlice", "model_13/tf.math.multiply_319/Mul", "model_13/tf.math.multiply_327/Mul", "model_13/tf.concat_14/concat/axis"], "attr": {"Tidx": {"type": "DT_INT32"}, "T": {"type": "DT_FLOAT"}, "N": {"i": "4"}}}, {"name": "model_13/tf.math.add_104/Add", "op": "_FusedConv2D", "input": ["model_13/tf.concat_14/concat", "model_13/tf.nn.convolution_76/convolution/filter", "model_13/tf.math.add_104/Add/y"], "device": "/device:CPU:0", "attr": {"num_args": {"i": "1"}, "explicit_paddings": {"list": {}}, "fused_ops": {"list": {"s": ["Qmlhc0FkZA=="]}}, "dilations": {"list": {"i": ["1", "1", "1", "1"]}}, "leakyrelu_alpha": {"f": 0.2}, "epsilon": {"f": 0.0}, "filter_format": {"s": "SFdJTw=="}, "use_cudnn_on_gpu": {"b": true}, "data_format": {"s": "TkhXQw=="}, "num_host_args": {"i": "0"}, "strides": {"list": {"i": ["1", "1", "1", "1"]}}, "padding": {"s": "U0FNRQ=="}, "TArgs": {"list": {"type": ["DT_FLOAT"]}}, "T": {"type": "DT_FLOAT"}}}, {"name": "model_13/tf.math.sigmoid_76/Sigmoid", "op": "Sigmoid", "input": ["model_13/tf.math.add_104/Add"], "attr": {"T": {"type": "DT_FLOAT"}}}, {"name": "model_13/tf.math.multiply_331/Mul", "op": "Mul", "input": ["model_13/tf.math.add_104/Add", "model_13/tf.math.sigmoid_76/Sigmoid"], "attr": {"T": {"type": "DT_FLOAT"}}}, {"name": "model_13/tf.math.add_105/Add", "op": "_FusedConv2D", "input": ["model_13/tf.math.multiply_331/Mul", "model_13/tf.nn.convolution_77/convolution/filter", "model_13/tf.math.add_105/Add/y"], "device": "/device:CPU:0", "attr": {"T": {"type": "DT_FLOAT"}, "data_format": {"s": "TkhXQw=="}, "padding": {"s": "U0FNRQ=="}, "strides": {"list": {"i": ["1", "1", "1", "1"]}}, "filter_format": {"s": "SFdJTw=="}, "dilations": {"list": {"i": ["1", "1", "1", "1"]}}, "epsilon": {"f": 0.0}, "TArgs": {"list": {"type": ["DT_FLOAT"]}}, "leakyrelu_alpha": {"f": 0.2}, "use_cudnn_on_gpu": {"b": true}, "fused_ops": {"list": {"s": ["Qmlhc0FkZA=="]}}, "num_host_args": {"i": "0"}, "explicit_paddings": {"list": {}}, "num_args": {"i": "1"}}}, {"name": "model_13/tf.compat.v1.nn.depthwise_conv2d_4/depthwise", "op": "FusedDepthwiseConv2dNative", "input": ["model_13/tf.math.multiply_331/Mul", "model_13/tf.compat.v1.nn.depthwise_conv2d_4/depthwise/filter_in", "model_13/tf.math.add_106/Add/y"], "attr": {"explicit_paddings": {"list": {}}, "data_format": {"s": "TkhXQw=="}, "dilations": {"list": {"i": ["1", "1", "1", "1"]}}, "padding": {"s": "U0FNRQ=="}, "strides": {"list": {"i": ["1", "1", "1", "1"]}}, "T": {"type": "DT_FLOAT"}, "num_args": {"i": "1"}, "fused_ops": {"list": {"s": ["Qmlhc0FkZA=="]}}}}, {"name": "model_13/tf.math.sigmoid_77/Sigmoid", "op": "Sigmoid", "input": ["model_13/tf.math.add_105/Add"], "attr": {"T": {"type": "DT_FLOAT"}}}, {"name": "model_13/tf.math.multiply_335/Mul", "op": "Mul", "input": ["model_13/tf.math.add_105/Add", "model_13/tf.math.sigmoid_77/Sigmoid"], "attr": {"T": {"type": "DT_FLOAT"}}}, {"name": "model_13/tf.math.sigmoid_78/Sigmoid", "op": "Sigmoid", "input": ["model_13/tf.compat.v1.nn.depthwise_conv2d_4/depthwise"], "attr": {"T": {"type": "DT_FLOAT"}}}, {"name": "model_13/tf.math.add_107/Add", "op": "_FusedConv2D", "input": ["model_13/tf.math.multiply_335/Mul", "model_13/tf.nn.convolution_78/convolution/filter", "model_13/tf.math.add_107/Add/y"], "device": "/device:CPU:0", "attr": {"num_args": {"i": "1"}, "strides": {"list": {"i": ["1", "1", "1", "1"]}}, "filter_format": {"s": "SFdJTw=="}, "leakyrelu_alpha": {"f": 0.2}, "fused_ops": {"list": {"s": ["Qmlhc0FkZA=="]}}, "num_host_args": {"i": "0"}, "explicit_paddings": {"list": {}}, "TArgs": {"list": {"type": ["DT_FLOAT"]}}, "T": {"type": "DT_FLOAT"}, "padding": {"s": "U0FNRQ=="}, "use_cudnn_on_gpu": {"b": true}, "dilations": {"list": {"i": ["1", "1", "1", "1"]}}, "epsilon": {"f": 0.0}, "data_format": {"s": "TkhXQw=="}}}, {"name": "model_13/tf.math.multiply_339/Mul", "op": "Mul", "input": ["model_13/tf.compat.v1.nn.depthwise_conv2d_4/depthwise", "model_13/tf.math.sigmoid_78/Sigmoid"], "attr": {"T": {"type": "DT_FLOAT"}}}, {"name": "model_13/tf.math.sigmoid_79/Sigmoid", "op": "Sigmoid", "input": ["model_13/tf.math.add_107/Add"], "attr": {"T": {"type": "DT_FLOAT"}}}, {"name": "model_13/tf.math.add_108/Add", "op": "_FusedConv2D", "input": ["model_13/tf.math.multiply_339/Mul", "model_13/tf.nn.convolution_79/convolution/filter", "model_13/tf.math.add_108/Add/y"], "device": "/device:CPU:0", "attr": {"epsilon": {"f": 0.0}, "fused_ops": {"list": {"s": ["Qmlhc0FkZA=="]}}, "padding": {"s": "U0FNRQ=="}, "num_args": {"i": "1"}, "TArgs": {"list": {"type": ["DT_FLOAT"]}}, "num_host_args": {"i": "0"}, "use_cudnn_on_gpu": {"b": true}, "strides": {"list": {"i": ["1", "1", "1", "1"]}}, "filter_format": {"s": "SFdJTw=="}, "data_format": {"s": "TkhXQw=="}, "leakyrelu_alpha": {"f": 0.2}, "T": {"type": "DT_FLOAT"}, "explicit_paddings": {"list": {}}, "dilations": {"list": {"i": ["1", "1", "1", "1"]}}}}, {"name": "model_13/tf.math.multiply_343/Mul", "op": "Mul", "input": ["model_13/tf.math.add_107/Add", "model_13/tf.math.sigmoid_79/Sigmoid"], "attr": {"T": {"type": "DT_FLOAT"}}}, {"name": "model_13/tf.math.sigmoid_80/Sigmoid", "op": "Sigmoid", "input": ["model_13/tf.math.add_108/Add"], "attr": {"T": {"type": "DT_FLOAT"}}}, {"name": "model_13/tf.math.add_109/Add", "op": "_FusedConv2D", "input": ["model_13/tf.math.multiply_343/Mul", "model_13/tf.nn.convolution_80/convolution/filter", "model_13/tf.math.add_109/Add/y"], "device": "/device:CPU:0", "attr": {"padding": {"s": "U0FNRQ=="}, "data_format": {"s": "TkhXQw=="}, "T": {"type": "DT_FLOAT"}, "explicit_paddings": {"list": {}}, "strides": {"list": {"i": ["1", "1", "1", "1"]}}, "epsilon": {"f": 0.0}, "filter_format": {"s": "SFdJTw=="}, "dilations": {"list": {"i": ["1", "1", "1", "1"]}}, "num_args": {"i": "1"}, "use_cudnn_on_gpu": {"b": true}, "TArgs": {"list": {"type": ["DT_FLOAT"]}}, "leakyrelu_alpha": {"f": 0.2}, "fused_ops": {"list": {"s": ["Qmlhc0FkZA=="]}}, "num_host_args": {"i": "0"}}}, {"name": "model_13/tf.math.multiply_347/Mul", "op": "Mul", "input": ["model_13/tf.math.add_108/Add", "model_13/tf.math.sigmoid_80/Sigmoid"], "attr": {"T": {"type": "DT_FLOAT"}}}, {"name": "model_13/tf.compat.v1.nn.depthwise_conv2d_5/depthwise", "op": "FusedDepthwiseConv2dNative", "input": ["model_13/tf.math.multiply_347/Mul", "model_13/tf.compat.v1.nn.depthwise_conv2d_5/depthwise/filter_in", "model_13/tf.math.add_110/Add/y"], "attr": {"dilations": {"list": {"i": ["1", "1", "1", "1"]}}, "padding": {"s": "U0FNRQ=="}, "data_format": {"s": "TkhXQw=="}, "T": {"type": "DT_FLOAT"}, "explicit_paddings": {"list": {}}, "strides": {"list": {"i": ["1", "1", "1", "1"]}}, "num_args": {"i": "1"}, "fused_ops": {"list": {"s": ["Qmlhc0FkZA=="]}}}}, {"name": "model_13/tf.math.sigmoid_81/Sigmoid", "op": "Sigmoid", "input": ["model_13/tf.compat.v1.nn.depthwise_conv2d_5/depthwise"], "attr": {"T": {"type": "DT_FLOAT"}}}, {"name": "model_13/tf.math.multiply_351/Mul", "op": "Mul", "input": ["model_13/tf.compat.v1.nn.depthwise_conv2d_5/depthwise", "model_13/tf.math.sigmoid_81/Sigmoid"], "attr": {"T": {"type": "DT_FLOAT"}}}, {"name": "model_13/tf.math.add_111/Add", "op": "_FusedConv2D", "input": ["model_13/tf.math.multiply_351/Mul", "model_13/tf.nn.convolution_81/convolution/filter", "model_13/tf.math.add_111/Add/y"], "device": "/device:CPU:0", "attr": {"dilations": {"list": {"i": ["1", "1", "1", "1"]}}, "padding": {"s": "U0FNRQ=="}, "TArgs": {"list": {"type": ["DT_FLOAT"]}}, "num_host_args": {"i": "0"}, "explicit_paddings": {"list": {}}, "leakyrelu_alpha": {"f": 0.2}, "filter_format": {"s": "SFdJTw=="}, "num_args": {"i": "1"}, "T": {"type": "DT_FLOAT"}, "epsilon": {"f": 0.0}, "fused_ops": {"list": {"s": ["Qmlhc0FkZA=="]}}, "strides": {"list": {"i": ["1", "1", "1", "1"]}}, "data_format": {"s": "TkhXQw=="}, "use_cudnn_on_gpu": {"b": true}}}, {"name": "model_13/tf.math.sigmoid_82/Sigmoid", "op": "Sigmoid", "input": ["model_13/tf.math.add_111/Add"], "attr": {"T": {"type": "DT_FLOAT"}}}, {"name": "model_13/tf.math.multiply_355/Mul", "op": "Mul", "input": ["model_13/tf.math.add_111/Add", "model_13/tf.math.sigmoid_82/Sigmoid"], "attr": {"T": {"type": "DT_FLOAT"}}}, {"name": "model_13/tf.math.add_112/Add", "op": "_FusedConv2D", "input": ["model_13/tf.math.multiply_355/Mul", "model_13/tf.nn.convolution_82/convolution/filter", "model_13/tf.math.add_112/Add/y"], "device": "/device:CPU:0", "attr": {"epsilon": {"f": 0.0}, "explicit_paddings": {"list": {}}, "fused_ops": {"list": {"s": ["Qmlhc0FkZA=="]}}, "padding": {"s": "U0FNRQ=="}, "num_args": {"i": "1"}, "use_cudnn_on_gpu": {"b": true}, "filter_format": {"s": "SFdJTw=="}, "TArgs": {"list": {"type": ["DT_FLOAT"]}}, "num_host_args": {"i": "0"}, "leakyrelu_alpha": {"f": 0.2}, "dilations": {"list": {"i": ["1", "1", "1", "1"]}}, "strides": {"list": {"i": ["1", "1", "1", "1"]}}, "data_format": {"s": "TkhXQw=="}, "T": {"type": "DT_FLOAT"}}}, {"name": "model_13/tf.concat_15/concat", "op": "ConcatV2", "input": ["model_13/tf.math.add_109/Add", "model_13/tf.math.add_112/Add", "model_13/tf.concat_15/concat/axis"], "attr": {"T": {"type": "DT_FLOAT"}, "Tidx": {"type": "DT_INT32"}, "N": {"i": "2"}}}, {"name": "model_13/tf.compat.v1.transpose_12/transpose", "op": "Transpose", "input": ["model_13/tf.concat_15/concat", "model_13/tf.compat.v1.transpose_12/transpose/perm"], "attr": {"T": {"type": "DT_FLOAT"}, "Tperm": {"type": "DT_INT32"}}}, {"name": "model_13/tf.reshape_8/Reshape", "op": "Reshape", "input": ["model_13/tf.compat.v1.transpose_12/transpose", "model_13/tf.reshape_8/Reshape/shape"], "attr": {"Tshape": {"type": "DT_INT32"}, "T": {"type": "DT_FLOAT"}}}, {"name": "model_13/tf.concat_16/concat", "op": "ConcatV2", "input": ["model_13/tf.reshape_2/Reshape", "model_13/tf.reshape_5/Reshape", "model_13/tf.reshape_8/Reshape", "model_13/tf.concat_16/concat/axis"], "attr": {"N": {"i": "3"}, "Tidx": {"type": "DT_INT32"}, "T": {"type": "DT_FLOAT"}}}, {"name": "model_13/tf.strided_slice_17/StridedSlice", "op": "StridedSlice", "input": ["model_13/tf.concat_16/concat", "model_13/tf.strided_slice_17/StridedSlice/begin", "model_13/tf.strided_slice_17/StridedSlice/end", "model_13/tf.strided_slice_17/StridedSlice/strides"], "attr": {"new_axis_mask": {"i": "0"}, "shrink_axis_mask": {"i": "0"}, "begin_mask": {"i": "5"}, "T": {"type": "DT_FLOAT"}, "Index": {"type": "DT_INT64"}, "ellipsis_mask": {"i": "0"}, "end_mask": {"i": "5"}}}, {"name": "model_13/tf.strided_slice_16/StridedSlice", "op": "StridedSlice", "input": ["model_13/tf.concat_16/concat", "model_13/tf.strided_slice_16/StridedSlice/begin", "model_13/tf.strided_slice_16/StridedSlice/end", "model_13/tf.strided_slice_16/StridedSlice/strides"], "attr": {"end_mask": {"i": "5"}, "ellipsis_mask": {"i": "0"}, "Index": {"type": "DT_INT64"}, "shrink_axis_mask": {"i": "0"}, "new_axis_mask": {"i": "0"}, "T": {"type": "DT_FLOAT"}, "begin_mask": {"i": "7"}}}, {"name": "model_13/tf.math.sigmoid_83/Sigmoid", "op": "Sigmoid", "input": ["model_13/tf.strided_slice_17/StridedSlice"], "attr": {"T": {"type": "DT_FLOAT"}}}, {"name": "model_13/tf.reshape_11/Reshape", "op": "Reshape", "input": ["model_13/tf.strided_slice_16/StridedSlice", "model_13/tf.reshape_11/Reshape/shape"], "attr": {"Tshape": {"type": "DT_INT32"}, "T": {"type": "DT_FLOAT"}}}, {"name": "model_13/tf.compat.v1.transpose_19/transpose", "op": "Transpose", "input": ["model_13/tf.reshape_11/Reshape", "model_13/tf.compat.v1.transpose_19/transpose/perm"], "attr": {"Tperm": {"type": "DT_INT32"}, "T": {"type": "DT_FLOAT"}}}, {"name": "model_13/tf.compat.v1.transpose_20/transpose", "op": "Transpose", "input": ["model_13/tf.compat.v1.transpose_19/transpose", "model_13/tf.compat.v1.transpose_20/transpose/perm"], "attr": {"T": {"type": "DT_FLOAT"}, "Tperm": {"type": "DT_INT32"}}}, {"name": "model_13/tf.nn.softmax//model.22/dfl/Softmax", "op": "Softmax", "input": ["model_13/tf.compat.v1.transpose_20/transpose"], "attr": {"T": {"type": "DT_FLOAT"}}}, {"name": "model_13/tf.nn.convolution_83/convolution", "op": "Conv2D", "input": ["model_13/tf.nn.softmax//model.22/dfl/Softmax", "model_13/tf.nn.convolution_83/convolution/filter"], "device": "/device:CPU:0", "attr": {"T": {"type": "DT_FLOAT"}, "explicit_paddings": {"list": {}}, "dilations": {"list": {"i": ["1", "1", "1", "1"]}}, "use_cudnn_on_gpu": {"b": true}, "data_format": {"s": "TkhXQw=="}, "strides": {"list": {"i": ["1", "1", "1", "1"]}}, "padding": {"s": "U0FNRQ=="}}}, {"name": "model_13/tf.compat.v1.transpose_25/transpose", "op": "Transpose", "input": ["model_13/tf.nn.convolution_83/convolution", "model_13/tf.compat.v1.transpose_25/transpose/perm"], "attr": {"Tperm": {"type": "DT_INT32"}, "T": {"type": "DT_FLOAT"}}}, {"name": "model_13/tf.reshape_14/Reshape", "op": "Reshape", "input": ["model_13/tf.compat.v1.transpose_25/transpose", "model_13/tf.reshape_14/Reshape/shape"], "attr": {"T": {"type": "DT_FLOAT"}, "Tshape": {"type": "DT_INT32"}}}, {"name": "model_13/tf.strided_slice_18/StridedSlice", "op": "StridedSlice", "input": ["model_13/tf.reshape_14/Reshape", "model_13/tf.strided_slice_18/ones_like/tensor", "model_13/tf.strided_slice_18/StridedSlice/end", "model_13/tf.strided_slice_18/ones_like"], "attr": {"ellipsis_mask": {"i": "0"}, "T": {"type": "DT_FLOAT"}, "new_axis_mask": {"i": "0"}, "end_mask": {"i": "5"}, "begin_mask": {"i": "7"}, "shrink_axis_mask": {"i": "0"}, "Index": {"type": "DT_INT64"}}}, {"name": "model_13/tf.strided_slice_19/StridedSlice", "op": "StridedSlice", "input": ["model_13/tf.reshape_14/Reshape", "model_13/tf.strided_slice_19/ones_like/tensor", "model_13/tf.strided_slice_19/StridedSlice/end", "model_13/tf.strided_slice_19/ones_like"], "attr": {"shrink_axis_mask": {"i": "0"}, "T": {"type": "DT_FLOAT"}, "new_axis_mask": {"i": "0"}, "Index": {"type": "DT_INT64"}, "end_mask": {"i": "5"}, "ellipsis_mask": {"i": "0"}, "begin_mask": {"i": "5"}}}, {"name": "model_13/tf.math.subtract/Sub", "op": "Sub", "input": ["model_13/16272", "model_13/tf.strided_slice_18/StridedSlice"], "attr": {"T": {"type": "DT_FLOAT"}}}, {"name": "model_13/tf.math.add_113/Add", "op": "AddV2", "input": ["model_13/16269", "model_13/tf.strided_slice_19/StridedSlice"], "attr": {"T": {"type": "DT_FLOAT"}}}, {"name": "model_13/tf.math.add_114/Add", "op": "AddV2", "input": ["model_13/tf.math.subtract/Sub", "model_13/tf.math.add_113/Add"], "attr": {"T": {"type": "DT_FLOAT"}}}, {"name": "model_13/tf.math.subtract_1/Sub", "op": "Sub", "input": ["model_13/tf.math.add_113/Add", "model_13/tf.math.subtract/Sub"], "attr": {"T": {"type": "DT_FLOAT"}}}, {"name": "model_13/tf.math.divide/truediv", "op": "Mul", "input": ["model_13/tf.math.add_114/Add", "ConstantFolding/model_13/tf.math.divide/truediv_recip"], "attr": {"T": {"type": "DT_FLOAT"}}}, {"name": "model_13/tf.concat_20/concat", "op": "ConcatV2", "input": ["model_13/tf.math.divide/truediv", "model_13/tf.math.subtract_1/Sub", "model_13/tf.concat_20/concat/axis"], "attr": {"Tidx": {"type": "DT_INT32"}, "T": {"type": "DT_FLOAT"}, "N": {"i": "2"}}}, {"name": "model_13/tf.math.multiply_368/Mul", "op": "Mul", "input": ["model_13/tf.concat_20/concat", "model_13/tf.math.multiply_368/Mul/y"], "attr": {"T": {"type": "DT_FLOAT"}}}, {"name": "model_13/output0/concat", "op": "ConcatV2", "input": ["model_13/tf.math.multiply_368/Mul", "model_13/tf.math.sigmoid_83/Sigmoid", "model_13/output0/concat/axis"], "attr": {"Tidx": {"type": "DT_INT32"}, "N": {"i": "2"}, "T": {"type": "DT_FLOAT"}}}, {"name": "Identity", "op": "Identity", "input": ["model_13/output0/concat"], "attr": {"T": {"type": "DT_FLOAT"}}}], "library": {}, "versions": {"producer": 1882}}, "weightsManifest": [{"paths": ["group1-shard1of23.bin", "group1-shard2of23.bin", "group1-shard3of23.bin", "group1-shard4of23.bin", "group1-shard5of23.bin", "group1-shard6of23.bin", "group1-shard7of23.bin", "group1-shard8of23.bin", "group1-shard9of23.bin", "group1-shard10of23.bin", "group1-shard11of23.bin", "group1-shard12of23.bin", "group1-shard13of23.bin", "group1-shard14of23.bin", "group1-shard15of23.bin", "group1-shard16of23.bin", "group1-shard17of23.bin", "group1-shard18of23.bin", "group1-shard19of23.bin", "group1-shard20of23.bin", "group1-shard21of23.bin", "group1-shard22of23.bin", "group1-shard23of23.bin"], "weights": [{"name": "ConstantFolding/model_13/tf.math.divide/truediv_recip", "shape": [1, 1, 1], "dtype": "float32"}, {"name": "model_13/16269", "shape": [1, 2, 8400], "dtype": "float32"}, {"name": "model_13/tf.strided_slice_19/ones_like/tensor", "shape": [3], "dtype": "int32"}, {"name": "model_13/tf.strided_slice_19/StridedSlice/end", "shape": [3], "dtype": "int32"}, {"name": "model_13/tf.strided_slice_19/ones_like", "shape": [3], "dtype": "int32"}, {"name": "model_13/16272", "shape": [1, 2, 8400], "dtype": "float32"}, {"name": "model_13/tf.strided_slice_16/StridedSlice/begin", "shape": [3], "dtype": "int32"}, {"name": "model_13/tf.strided_slice_16/StridedSlice/end", "shape": [3], "dtype": "int32"}, {"name": "model_13/tf.strided_slice_16/StridedSlice/strides", "shape": [3], "dtype": "int32"}, {"name": "model_13/tf.reshape_11/Reshape/shape", "shape": [4], "dtype": "int32"}, {"name": "model_13/tf.compat.v1.transpose_19/transpose/perm", "shape": [4], "dtype": "int32"}, {"name": "model_13/tf.compat.v1.transpose_20/transpose/perm", "shape": [4], "dtype": "int32"}, {"name": "model_13/tf.nn.convolution_83/convolution/filter", "shape": [1, 1, 16, 1], "dtype": "float32"}, {"name": "model_13/tf.compat.v1.transpose_25/transpose/perm", "shape": [4], "dtype": "int32"}, {"name": "model_13/tf.reshape_14/Reshape/shape", "shape": [3], "dtype": "int32"}, {"name": "model_13/tf.strided_slice_18/ones_like/tensor", "shape": [3], "dtype": "int32"}, {"name": "model_13/tf.strided_slice_18/StridedSlice/end", "shape": [3], "dtype": "int32"}, {"name": "model_13/tf.strided_slice_18/ones_like", "shape": [3], "dtype": "int32"}, {"name": "model_13/tf.concat_20/concat/axis", "shape": [], "dtype": "int32"}, {"name": "model_13/tf.math.multiply_368/Mul/y", "shape": [1, 1, 8400], "dtype": "float32"}, {"name": "model_13/tf.nn.convolution_52/convolution/filter", "shape": [3, 3, 192, 64], "dtype": "float32"}, {"name": "model_13/tf.math.add_76/Add/y", "shape": [64], "dtype": "float32"}, {"name": "model_13/tf.nn.convolution_53/convolution/filter", "shape": [3, 3, 64, 64], "dtype": "float32"}, {"name": "model_13/tf.math.add_78/Add/y", "shape": [64], "dtype": "float32"}, {"name": "model_13/tf.nn.convolution_56/convolution/filter", "shape": [1, 1, 64, 64], "dtype": "float32"}, {"name": "model_13/tf.math.add_81/Add/y", "shape": [64], "dtype": "float32"}, {"name": "model_13/tf.compat.v1.nn.depthwise_conv2d/depthwise/filter_in", "shape": [3, 3, 192, 1], "dtype": "float32"}, {"name": "model_13/tf.math.add_77/Add/y", "shape": [192], "dtype": "float32"}, {"name": "model_13/tf.nn.convolution_54/convolution/filter", "shape": [1, 1, 192, 192], "dtype": "float32"}, {"name": "model_13/tf.math.add_79/Add/y", "shape": [192], "dtype": "float32"}, {"name": "model_13/tf.compat.v1.nn.depthwise_conv2d_1/depthwise/filter_in", "shape": [3, 3, 192, 1], "dtype": "float32"}, {"name": "model_13/tf.math.add_82/Add/y", "shape": [192], "dtype": "float32"}, {"name": "model_13/tf.nn.convolution_58/convolution/filter", "shape": [1, 1, 192, 192], "dtype": "float32"}, {"name": "model_13/tf.math.add_84/Add/y", "shape": [192], "dtype": "float32"}, {"name": "model_13/tf.nn.convolution_60/convolution/filter", "shape": [1, 1, 192, 63], "dtype": "float32"}, {"name": "model_13/tf.math.add_86/Add/y", "shape": [63], "dtype": "float32"}, {"name": "model_13/tf.concat_10/concat/axis", "shape": [], "dtype": "int32"}, {"name": "model_13/tf.compat.v1.transpose_2/transpose/perm", "shape": [4], "dtype": "int32"}, {"name": "model_13/tf.reshape_2/Reshape/shape", "shape": [3], "dtype": "int32"}, {"name": "model_13/tf.nn.convolution_65/convolution/filter", "shape": [3, 3, 384, 64], "dtype": "float32"}, {"name": "model_13/tf.math.add_91/Add/y", "shape": [64], "dtype": "float32"}, {"name": "model_13/tf.nn.convolution_66/convolution/filter", "shape": [3, 3, 64, 64], "dtype": "float32"}, {"name": "model_13/tf.math.add_93/Add/y", "shape": [64], "dtype": "float32"}, {"name": "model_13/tf.nn.convolution_69/convolution/filter", "shape": [1, 1, 64, 64], "dtype": "float32"}, {"name": "model_13/tf.math.add_96/Add/y", "shape": [64], "dtype": "float32"}, {"name": "model_13/tf.compat.v1.nn.depthwise_conv2d_2/depthwise/filter_in", "shape": [3, 3, 384, 1], "dtype": "float32"}, {"name": "model_13/tf.math.add_92/Add/y", "shape": [384], "dtype": "float32"}, {"name": "model_13/tf.nn.convolution_67/convolution/filter", "shape": [1, 1, 384, 192], "dtype": "float32"}, {"name": "model_13/tf.math.add_94/Add/y", "shape": [192], "dtype": "float32"}, {"name": "model_13/tf.compat.v1.nn.depthwise_conv2d_3/depthwise/filter_in", "shape": [3, 3, 192, 1], "dtype": "float32"}, {"name": "model_13/tf.math.add_97/Add/y", "shape": [192], "dtype": "float32"}, {"name": "model_13/tf.nn.convolution_71/convolution/filter", "shape": [1, 1, 192, 192], "dtype": "float32"}, {"name": "model_13/tf.math.add_99/Add/y", "shape": [192], "dtype": "float32"}, {"name": "model_13/tf.nn.convolution_73/convolution/filter", "shape": [1, 1, 192, 63], "dtype": "float32"}, {"name": "model_13/tf.math.add_101/Add/y", "shape": [63], "dtype": "float32"}, {"name": "model_13/tf.concat_13/concat/axis", "shape": [], "dtype": "int32"}, {"name": "model_13/tf.compat.v1.transpose_7/transpose/perm", "shape": [4], "dtype": "int32"}, {"name": "model_13/tf.reshape_5/Reshape/shape", "shape": [3], "dtype": "int32"}, {"name": "model_13/tf.nn.convolution_77/convolution/filter", "shape": [3, 3, 576, 64], "dtype": "float32"}, {"name": "model_13/tf.math.add_105/Add/y", "shape": [64], "dtype": "float32"}, {"name": "model_13/tf.nn.convolution_78/convolution/filter", "shape": [3, 3, 64, 64], "dtype": "float32"}, {"name": "model_13/tf.math.add_107/Add/y", "shape": [64], "dtype": "float32"}, {"name": "model_13/tf.nn.convolution_80/convolution/filter", "shape": [1, 1, 64, 64], "dtype": "float32"}, {"name": "model_13/tf.math.add_109/Add/y", "shape": [64], "dtype": "float32"}, {"name": "model_13/tf.strided_slice_14/ones_like/tensor", "shape": [4], "dtype": "int32"}, {"name": "model_13/tf.strided_slice_14/StridedSlice/end", "shape": [4], "dtype": "int32"}, {"name": "model_13/tf.strided_slice_14/ones_like", "shape": [4], "dtype": "int32"}, {"name": "model_13/tf.strided_slice_12/ones_like/tensor", "shape": [4], "dtype": "int32"}, {"name": "model_13/tf.strided_slice_12/StridedSlice/end", "shape": [4], "dtype": "int32"}, {"name": "model_13/tf.strided_slice_12/ones_like", "shape": [4], "dtype": "int32"}, {"name": "model_13/tf.strided_slice_10/ones_like/tensor", "shape": [4], "dtype": "int32"}, {"name": "model_13/tf.strided_slice_10/StridedSlice/end", "shape": [4], "dtype": "int32"}, {"name": "model_13/tf.strided_slice_10/ones_like", "shape": [4], "dtype": "int32"}, {"name": "model_13/tf.image.resize_1/resize/size", "shape": [2], "dtype": "int32"}, {"name": "model_13/tf.concat_7/concat/axis", "shape": [], "dtype": "int32"}, {"name": "model_13/tf.nn.convolution_45/convolution/filter", "shape": [1, 1, 576, 192], "dtype": "float32"}, {"name": "model_13/tf.math.add_69/Add/y", "shape": [192], "dtype": "float32"}, {"name": "model_13/tf.strided_slice_11/ones_like/tensor", "shape": [4], "dtype": "int32"}, {"name": "model_13/tf.strided_slice_11/StridedSlice/end", "shape": [4], "dtype": "int32"}, {"name": "model_13/tf.strided_slice_11/ones_like", "shape": [4], "dtype": "int32"}, {"name": "model_13/tf.nn.convolution_46/convolution/filter", "shape": [3, 3, 96, 96], "dtype": "float32"}, {"name": "model_13/tf.math.add_70/Add/y", "shape": [96], "dtype": "float32"}, {"name": "model_13/tf.nn.convolution_47/convolution/filter", "shape": [3, 3, 96, 96], "dtype": "float32"}, {"name": "model_13/tf.math.add_71/Add/y", "shape": [96], "dtype": "float32"}, {"name": "model_13/tf.nn.convolution_48/convolution/filter", "shape": [3, 3, 96, 96], "dtype": "float32"}, {"name": "model_13/tf.math.add_72/Add/y", "shape": [96], "dtype": "float32"}, {"name": "model_13/tf.nn.convolution_49/convolution/filter", "shape": [3, 3, 96, 96], "dtype": "float32"}, {"name": "model_13/tf.math.add_73/Add/y", "shape": [96], "dtype": "float32"}, {"name": "model_13/tf.concat_8/concat/axis", "shape": [], "dtype": "int32"}, {"name": "model_13/tf.nn.convolution_50/convolution/filter", "shape": [1, 1, 384, 192], "dtype": "float32"}, {"name": "model_13/tf.math.add_74/Add/y", "shape": [192], "dtype": "float32"}, {"name": "model_13/tf.compat.v1.pad_5/Pad/paddings", "shape": [4, 2], "dtype": "int32"}, {"name": "model_13/tf.nn.convolution_51/convolution/filter", "shape": [3, 3, 192, 192], "dtype": "float32"}, {"name": "model_13/tf.math.add_75/Add/y", "shape": [192], "dtype": "float32"}, {"name": "model_13/tf.strided_slice_8/ones_like/tensor", "shape": [4], "dtype": "int32"}, {"name": "model_13/tf.strided_slice_8/StridedSlice/end", "shape": [4], "dtype": "int32"}, {"name": "model_13/tf.strided_slice_8/ones_like", "shape": [4], "dtype": "int32"}, {"name": "model_13/tf.image.resize/resize/size", "shape": [2], "dtype": "int32"}, {"name": "model_13/tf.concat_5/concat/axis", "shape": [], "dtype": "int32"}, {"name": "model_13/tf.nn.convolution_39/convolution/filter", "shape": [1, 1, 960, 384], "dtype": "float32"}, {"name": "model_13/tf.math.add_63/Add/y", "shape": [384], "dtype": "float32"}, {"name": "model_13/tf.strided_slice_9/ones_like/tensor", "shape": [4], "dtype": "int32"}, {"name": "model_13/tf.strided_slice_9/StridedSlice/end", "shape": [4], "dtype": "int32"}, {"name": "model_13/tf.strided_slice_9/ones_like", "shape": [4], "dtype": "int32"}, {"name": "model_13/tf.nn.convolution_40/convolution/filter", "shape": [3, 3, 192, 192], "dtype": "float32"}, {"name": "model_13/tf.math.add_64/Add/y", "shape": [192], "dtype": "float32"}, {"name": "model_13/tf.nn.convolution_41/convolution/filter", "shape": [3, 3, 192, 192], "dtype": "float32"}, {"name": "model_13/tf.math.add_65/Add/y", "shape": [192], "dtype": "float32"}, {"name": "model_13/tf.nn.convolution_42/convolution/filter", "shape": [3, 3, 192, 192], "dtype": "float32"}, {"name": "model_13/tf.math.add_66/Add/y", "shape": [192], "dtype": "float32"}, {"name": "model_13/tf.nn.convolution_43/convolution/filter", "shape": [3, 3, 192, 192], "dtype": "float32"}, {"name": "model_13/tf.math.add_67/Add/y", "shape": [192], "dtype": "float32"}, {"name": "model_13/tf.concat_6/concat/axis", "shape": [], "dtype": "int32"}, {"name": "model_13/tf.nn.convolution_44/convolution/filter", "shape": [1, 1, 768, 384], "dtype": "float32"}, {"name": "model_13/tf.math.add_68/Add/y", "shape": [384], "dtype": "float32"}, {"name": "model_13/tf.concat_9/concat/axis", "shape": [], "dtype": "int32"}, {"name": "model_13/tf.nn.convolution_55/convolution/filter", "shape": [1, 1, 576, 384], "dtype": "float32"}, {"name": "model_13/tf.math.add_80/Add/y", "shape": [384], "dtype": "float32"}, {"name": "model_13/tf.strided_slice_13/ones_like/tensor", "shape": [4], "dtype": "int32"}, {"name": "model_13/tf.strided_slice_13/StridedSlice/end", "shape": [4], "dtype": "int32"}, {"name": "model_13/tf.strided_slice_13/ones_like", "shape": [4], "dtype": "int32"}, {"name": "model_13/tf.nn.convolution_57/convolution/filter", "shape": [3, 3, 192, 192], "dtype": "float32"}, {"name": "model_13/tf.math.add_83/Add/y", "shape": [192], "dtype": "float32"}, {"name": "model_13/tf.nn.convolution_59/convolution/filter", "shape": [3, 3, 192, 192], "dtype": "float32"}, {"name": "model_13/tf.math.add_85/Add/y", "shape": [192], "dtype": "float32"}, {"name": "model_13/tf.nn.convolution_61/convolution/filter", "shape": [3, 3, 192, 192], "dtype": "float32"}, {"name": "model_13/tf.math.add_87/Add/y", "shape": [192], "dtype": "float32"}, {"name": "model_13/tf.nn.convolution_62/convolution/filter", "shape": [3, 3, 192, 192], "dtype": "float32"}, {"name": "model_13/tf.math.add_88/Add/y", "shape": [192], "dtype": "float32"}, {"name": "model_13/tf.concat_11/concat/axis", "shape": [], "dtype": "int32"}, {"name": "model_13/tf.nn.convolution_63/convolution/filter", "shape": [1, 1, 768, 384], "dtype": "float32"}, {"name": "model_13/tf.math.add_89/Add/y", "shape": [384], "dtype": "float32"}, {"name": "model_13/tf.compat.v1.pad_6/Pad/paddings", "shape": [4, 2], "dtype": "int32"}, {"name": "model_13/tf.nn.convolution_64/convolution/filter", "shape": [3, 3, 384, 384], "dtype": "float32"}, {"name": "model_13/tf.math.add_90/Add/y", "shape": [384], "dtype": "float32"}, {"name": "model_13/tf.strided_slice_6/ones_like/tensor", "shape": [4], "dtype": "int32"}, {"name": "model_13/tf.strided_slice_6/StridedSlice/end", "shape": [4], "dtype": "int32"}, {"name": "model_13/tf.strided_slice_6/ones_like", "shape": [4], "dtype": "int32"}, {"name": "model_13/tf.strided_slice_4/ones_like/tensor", "shape": [4], "dtype": "int32"}, {"name": "model_13/tf.strided_slice_4/StridedSlice/end", "shape": [4], "dtype": "int32"}, {"name": "model_13/tf.strided_slice_4/ones_like", "shape": [4], "dtype": "int32"}, {"name": "model_13/tf.strided_slice_2/ones_like/tensor", "shape": [4], "dtype": "int32"}, {"name": "model_13/tf.strided_slice_2/StridedSlice/end", "shape": [4], "dtype": "int32"}, {"name": "model_13/tf.strided_slice_2/ones_like", "shape": [4], "dtype": "int32"}, {"name": "model_13/tf.strided_slice/ones_like/tensor", "shape": [4], "dtype": "int32"}, {"name": "model_13/tf.strided_slice/StridedSlice/end", "shape": [4], "dtype": "int32"}, {"name": "model_13/tf.strided_slice/ones_like", "shape": [4], "dtype": "int32"}, {"name": "model_13/tf.compat.v1.pad/Pad/paddings", "shape": [4, 2], "dtype": "int32"}, {"name": "model_13/tf.nn.convolution/convolution/filter", "shape": [3, 3, 3, 48], "dtype": "float32"}, {"name": "model_13/tf.math.add/Add/y", "shape": [48], "dtype": "float32"}, {"name": "model_13/tf.compat.v1.pad_1/Pad/paddings", "shape": [4, 2], "dtype": "int32"}, {"name": "model_13/tf.nn.convolution_1/convolution/filter", "shape": [3, 3, 48, 96], "dtype": "float32"}, {"name": "model_13/tf.math.add_1/Add/y", "shape": [96], "dtype": "float32"}, {"name": "model_13/tf.nn.convolution_2/convolution/filter", "shape": [1, 1, 96, 96], "dtype": "float32"}, {"name": "model_13/tf.math.add_2/Add/y", "shape": [96], "dtype": "float32"}, {"name": "model_13/tf.strided_slice_1/ones_like/tensor", "shape": [4], "dtype": "int32"}, {"name": "model_13/tf.strided_slice_1/StridedSlice/end", "shape": [4], "dtype": "int32"}, {"name": "model_13/tf.strided_slice_1/ones_like", "shape": [4], "dtype": "int32"}, {"name": "model_13/tf.nn.convolution_3/convolution/filter", "shape": [3, 3, 48, 48], "dtype": "float32"}, {"name": "model_13/tf.math.add_3/Add/y", "shape": [48], "dtype": "float32"}, {"name": "model_13/tf.nn.convolution_4/convolution/filter", "shape": [3, 3, 48, 48], "dtype": "float32"}, {"name": "model_13/tf.math.add_4/Add/y", "shape": [48], "dtype": "float32"}, {"name": "model_13/tf.nn.convolution_5/convolution/filter", "shape": [3, 3, 48, 48], "dtype": "float32"}, {"name": "model_13/tf.math.add_7/Add/y", "shape": [48], "dtype": "float32"}, {"name": "model_13/tf.nn.convolution_6/convolution/filter", "shape": [3, 3, 48, 48], "dtype": "float32"}, {"name": "model_13/tf.math.add_8/Add/y", "shape": [48], "dtype": "float32"}, {"name": "model_13/tf.concat/concat/axis", "shape": [], "dtype": "int32"}, {"name": "model_13/tf.nn.convolution_7/convolution/filter", "shape": [1, 1, 192, 96], "dtype": "float32"}, {"name": "model_13/tf.math.add_11/Add/y", "shape": [96], "dtype": "float32"}, {"name": "model_13/tf.compat.v1.pad_2/Pad/paddings", "shape": [4, 2], "dtype": "int32"}, {"name": "model_13/tf.nn.convolution_8/convolution/filter", "shape": [3, 3, 96, 192], "dtype": "float32"}, {"name": "model_13/tf.math.add_12/Add/y", "shape": [192], "dtype": "float32"}, {"name": "model_13/tf.nn.convolution_9/convolution/filter", "shape": [1, 1, 192, 192], "dtype": "float32"}, {"name": "model_13/tf.math.add_13/Add/y", "shape": [192], "dtype": "float32"}, {"name": "model_13/tf.strided_slice_3/ones_like/tensor", "shape": [4], "dtype": "int32"}, {"name": "model_13/tf.strided_slice_3/StridedSlice/end", "shape": [4], "dtype": "int32"}, {"name": "model_13/tf.strided_slice_3/ones_like", "shape": [4], "dtype": "int32"}, {"name": "model_13/tf.nn.convolution_10/convolution/filter", "shape": [3, 3, 96, 96], "dtype": "float32"}, {"name": "model_13/tf.math.add_14/Add/y", "shape": [96], "dtype": "float32"}, {"name": "model_13/tf.nn.convolution_11/convolution/filter", "shape": [3, 3, 96, 96], "dtype": "float32"}, {"name": "model_13/tf.math.add_15/Add/y", "shape": [96], "dtype": "float32"}, {"name": "model_13/tf.nn.convolution_12/convolution/filter", "shape": [3, 3, 96, 96], "dtype": "float32"}, {"name": "model_13/tf.math.add_18/Add/y", "shape": [96], "dtype": "float32"}, {"name": "model_13/tf.nn.convolution_13/convolution/filter", "shape": [3, 3, 96, 96], "dtype": "float32"}, {"name": "model_13/tf.math.add_19/Add/y", "shape": [96], "dtype": "float32"}, {"name": "model_13/tf.nn.convolution_14/convolution/filter", "shape": [3, 3, 96, 96], "dtype": "float32"}, {"name": "model_13/tf.math.add_22/Add/y", "shape": [96], "dtype": "float32"}, {"name": "model_13/tf.nn.convolution_15/convolution/filter", "shape": [3, 3, 96, 96], "dtype": "float32"}, {"name": "model_13/tf.math.add_23/Add/y", "shape": [96], "dtype": "float32"}, {"name": "model_13/tf.nn.convolution_16/convolution/filter", "shape": [3, 3, 96, 96], "dtype": "float32"}, {"name": "model_13/tf.math.add_26/Add/y", "shape": [96], "dtype": "float32"}, {"name": "model_13/tf.nn.convolution_17/convolution/filter", "shape": [3, 3, 96, 96], "dtype": "float32"}, {"name": "model_13/tf.math.add_27/Add/y", "shape": [96], "dtype": "float32"}, {"name": "model_13/tf.concat_1/concat/axis", "shape": [], "dtype": "int32"}, {"name": "model_13/tf.nn.convolution_18/convolution/filter", "shape": [1, 1, 576, 192], "dtype": "float32"}, {"name": "model_13/tf.math.add_30/Add/y", "shape": [192], "dtype": "float32"}, {"name": "model_13/tf.compat.v1.pad_3/Pad/paddings", "shape": [4, 2], "dtype": "int32"}, {"name": "model_13/tf.nn.convolution_19/convolution/filter", "shape": [3, 3, 192, 384], "dtype": "float32"}, {"name": "model_13/tf.math.add_31/Add/y", "shape": [384], "dtype": "float32"}, {"name": "model_13/tf.nn.convolution_20/convolution/filter", "shape": [1, 1, 384, 384], "dtype": "float32"}, {"name": "model_13/tf.math.add_32/Add/y", "shape": [384], "dtype": "float32"}, {"name": "model_13/tf.strided_slice_5/ones_like/tensor", "shape": [4], "dtype": "int32"}, {"name": "model_13/tf.strided_slice_5/StridedSlice/end", "shape": [4], "dtype": "int32"}, {"name": "model_13/tf.strided_slice_5/ones_like", "shape": [4], "dtype": "int32"}, {"name": "model_13/tf.nn.convolution_21/convolution/filter", "shape": [3, 3, 192, 192], "dtype": "float32"}, {"name": "model_13/tf.math.add_33/Add/y", "shape": [192], "dtype": "float32"}, {"name": "model_13/tf.nn.convolution_22/convolution/filter", "shape": [3, 3, 192, 192], "dtype": "float32"}, {"name": "model_13/tf.math.add_34/Add/y", "shape": [192], "dtype": "float32"}, {"name": "model_13/tf.nn.convolution_23/convolution/filter", "shape": [3, 3, 192, 192], "dtype": "float32"}, {"name": "model_13/tf.math.add_37/Add/y", "shape": [192], "dtype": "float32"}, {"name": "model_13/tf.nn.convolution_24/convolution/filter", "shape": [3, 3, 192, 192], "dtype": "float32"}, {"name": "model_13/tf.math.add_38/Add/y", "shape": [192], "dtype": "float32"}, {"name": "model_13/tf.nn.convolution_25/convolution/filter", "shape": [3, 3, 192, 192], "dtype": "float32"}, {"name": "model_13/tf.math.add_41/Add/y", "shape": [192], "dtype": "float32"}, {"name": "model_13/tf.nn.convolution_26/convolution/filter", "shape": [3, 3, 192, 192], "dtype": "float32"}, {"name": "model_13/tf.math.add_42/Add/y", "shape": [192], "dtype": "float32"}, {"name": "model_13/tf.nn.convolution_27/convolution/filter", "shape": [3, 3, 192, 192], "dtype": "float32"}, {"name": "model_13/tf.math.add_45/Add/y", "shape": [192], "dtype": "float32"}, {"name": "model_13/tf.nn.convolution_28/convolution/filter", "shape": [3, 3, 192, 192], "dtype": "float32"}, {"name": "model_13/tf.math.add_46/Add/y", "shape": [192], "dtype": "float32"}, {"name": "model_13/tf.concat_2/concat/axis", "shape": [], "dtype": "int32"}, {"name": "model_13/tf.nn.convolution_29/convolution/filter", "shape": [1, 1, 1152, 384], "dtype": "float32"}, {"name": "model_13/tf.math.add_49/Add/y", "shape": [384], "dtype": "float32"}, {"name": "model_13/tf.compat.v1.pad_4/Pad/paddings", "shape": [4, 2], "dtype": "int32"}, {"name": "model_13/tf.nn.convolution_30/convolution/filter", "shape": [3, 3, 384, 576], "dtype": "float32"}, {"name": "model_13/tf.math.add_50/Add/y", "shape": [576], "dtype": "float32"}, {"name": "model_13/tf.nn.convolution_31/convolution/filter", "shape": [1, 1, 576, 576], "dtype": "float32"}, {"name": "model_13/tf.math.add_51/Add/y", "shape": [576], "dtype": "float32"}, {"name": "model_13/tf.strided_slice_7/ones_like/tensor", "shape": [4], "dtype": "int32"}, {"name": "model_13/tf.strided_slice_7/StridedSlice/end", "shape": [4], "dtype": "int32"}, {"name": "model_13/tf.strided_slice_7/ones_like", "shape": [4], "dtype": "int32"}, {"name": "model_13/tf.nn.convolution_32/convolution/filter", "shape": [3, 3, 288, 288], "dtype": "float32"}, {"name": "model_13/tf.math.add_52/Add/y", "shape": [288], "dtype": "float32"}, {"name": "model_13/tf.nn.convolution_33/convolution/filter", "shape": [3, 3, 288, 288], "dtype": "float32"}, {"name": "model_13/tf.math.add_53/Add/y", "shape": [288], "dtype": "float32"}, {"name": "model_13/tf.nn.convolution_34/convolution/filter", "shape": [3, 3, 288, 288], "dtype": "float32"}, {"name": "model_13/tf.math.add_56/Add/y", "shape": [288], "dtype": "float32"}, {"name": "model_13/tf.nn.convolution_35/convolution/filter", "shape": [3, 3, 288, 288], "dtype": "float32"}, {"name": "model_13/tf.math.add_57/Add/y", "shape": [288], "dtype": "float32"}, {"name": "model_13/tf.concat_3/concat/axis", "shape": [], "dtype": "int32"}, {"name": "model_13/tf.nn.convolution_36/convolution/filter", "shape": [1, 1, 1152, 576], "dtype": "float32"}, {"name": "model_13/tf.math.add_60/Add/y", "shape": [576], "dtype": "float32"}, {"name": "model_13/tf.nn.convolution_37/convolution/filter", "shape": [1, 1, 576, 288], "dtype": "float32"}, {"name": "model_13/tf.math.add_61/Add/y", "shape": [288], "dtype": "float32"}, {"name": "model_13/tf.concat_4/concat/axis", "shape": [], "dtype": "int32"}, {"name": "model_13/tf.nn.convolution_38/convolution/filter", "shape": [1, 1, 1152, 576], "dtype": "float32"}, {"name": "model_13/tf.math.add_62/Add/y", "shape": [576], "dtype": "float32"}, {"name": "model_13/tf.concat_12/concat/axis", "shape": [], "dtype": "int32"}, {"name": "model_13/tf.nn.convolution_68/convolution/filter", "shape": [1, 1, 960, 576], "dtype": "float32"}, {"name": "model_13/tf.math.add_95/Add/y", "shape": [576], "dtype": "float32"}, {"name": "model_13/tf.strided_slice_15/ones_like/tensor", "shape": [4], "dtype": "int32"}, {"name": "model_13/tf.strided_slice_15/StridedSlice/end", "shape": [4], "dtype": "int32"}, {"name": "model_13/tf.strided_slice_15/ones_like", "shape": [4], "dtype": "int32"}, {"name": "model_13/tf.nn.convolution_70/convolution/filter", "shape": [3, 3, 288, 288], "dtype": "float32"}, {"name": "model_13/tf.math.add_98/Add/y", "shape": [288], "dtype": "float32"}, {"name": "model_13/tf.nn.convolution_72/convolution/filter", "shape": [3, 3, 288, 288], "dtype": "float32"}, {"name": "model_13/tf.math.add_100/Add/y", "shape": [288], "dtype": "float32"}, {"name": "model_13/tf.nn.convolution_74/convolution/filter", "shape": [3, 3, 288, 288], "dtype": "float32"}, {"name": "model_13/tf.math.add_102/Add/y", "shape": [288], "dtype": "float32"}, {"name": "model_13/tf.nn.convolution_75/convolution/filter", "shape": [3, 3, 288, 288], "dtype": "float32"}, {"name": "model_13/tf.math.add_103/Add/y", "shape": [288], "dtype": "float32"}, {"name": "model_13/tf.concat_14/concat/axis", "shape": [], "dtype": "int32"}, {"name": "model_13/tf.nn.convolution_76/convolution/filter", "shape": [1, 1, 1152, 576], "dtype": "float32"}, {"name": "model_13/tf.math.add_104/Add/y", "shape": [576], "dtype": "float32"}, {"name": "model_13/tf.compat.v1.nn.depthwise_conv2d_4/depthwise/filter_in", "shape": [3, 3, 576, 1], "dtype": "float32"}, {"name": "model_13/tf.math.add_106/Add/y", "shape": [576], "dtype": "float32"}, {"name": "model_13/tf.nn.convolution_79/convolution/filter", "shape": [1, 1, 576, 192], "dtype": "float32"}, {"name": "model_13/tf.math.add_108/Add/y", "shape": [192], "dtype": "float32"}, {"name": "model_13/tf.compat.v1.nn.depthwise_conv2d_5/depthwise/filter_in", "shape": [3, 3, 192, 1], "dtype": "float32"}, {"name": "model_13/tf.math.add_110/Add/y", "shape": [192], "dtype": "float32"}, {"name": "model_13/tf.nn.convolution_81/convolution/filter", "shape": [1, 1, 192, 192], "dtype": "float32"}, {"name": "model_13/tf.math.add_111/Add/y", "shape": [192], "dtype": "float32"}, {"name": "model_13/tf.nn.convolution_82/convolution/filter", "shape": [1, 1, 192, 63], "dtype": "float32"}, {"name": "model_13/tf.math.add_112/Add/y", "shape": [63], "dtype": "float32"}, {"name": "model_13/tf.concat_15/concat/axis", "shape": [], "dtype": "int32"}, {"name": "model_13/tf.compat.v1.transpose_12/transpose/perm", "shape": [4], "dtype": "int32"}, {"name": "model_13/tf.reshape_8/Reshape/shape", "shape": [3], "dtype": "int32"}, {"name": "model_13/tf.concat_16/concat/axis", "shape": [], "dtype": "int32"}, {"name": "model_13/tf.strided_slice_17/StridedSlice/begin", "shape": [3], "dtype": "int32"}, {"name": "model_13/tf.strided_slice_17/StridedSlice/end", "shape": [3], "dtype": "int32"}, {"name": "model_13/tf.strided_slice_17/StridedSlice/strides", "shape": [3], "dtype": "int32"}, {"name": "model_13/output0/concat/axis", "shape": [], "dtype": "int32"}]}]}